lightning_logs/version_59/checkpoints/epoch=0-step=2.ckpt (torch, 28015 bytes, 56 tensors)

layers.0.weight f4 [5]
0.9979786 0.9979989 1.0019467 1.0003576 1.0019218
00000000: 877b 7f3f db7c 7f3f ca3f 803f b80b 803f
00000010: f93e 803f

layers.0.bias f4 [5]
-1.5477299e-05 -4.5966117e-06 0.00017578373 5.3110896e-05 -4.8423135e-05
00000000: 3fd5 81b7 983c 9ab6 9652 3839 64c3 5e38
00000010: f219 4bb8

layers.0.running_mean f4 [5]
19.184874 19.188095 19.192709 19.193089 19.194641
00000000: 9f7a 9941 3881 9941 ab8a 9941 728b 9941
00000010: a08e 9941

layers.0.running_var f4 [5]
0.8708162 0.8688353 0.87269646 0.87610847 0.8723738
00000000: cfed 5e3f fd6b 5e3f 0969 5f3f a548 603f
00000010: e453 5f3f

layers.1.weight f4 [10, 5]
-0.44280475 0.04486683 0.02238471 -0.038673203 -0.40149096 0.021855135 -0.15826131 0.38239068
-0.034643188 0.073098235 -0.32099742 0.20005685 -0.4032557 -0.0336024 0.38979074 -0.30534294
0.38220525 0.2501064 -0.11223972 -0.17763193 0.24160019 0.2786934 0.26554513 0.106676616
0.09203347 -0.19664426 0.280749 -0.36662275 -0.20503451 -0.4448665 -0.15194273 -0.27783713
0.040368006 -0.38876787 -0.110244684 0.15227118 0.21252514 0.10022169 0.045944545 0.3325021
0.15037315 -0.27816924 -0.14622055 0.23178189 0.17461574 -0.3562958 0.039995264 -0.18560162
-0.43839845 -0.21110828
00000000: 4eb7 e2be 48c6 373d 2460 b73c cb67 1ebd
00000010: 3990 cdbe 8a09 b33c 410f 22be b6c8 c33e
00000020: 04e6 0dbd 87b4 953d c659 a4be b4db 4c3e
00000030: 8877 cebe aca2 09bd a792 c73e e955 9cbe
00000040: 68b0 c33e f20d 803e f0dd e5bd 25e5 35be
00000050: 0a66 773e e7b0 8e3e 88f5 873e 4579 da3d
00000060: 0b7c bc3d 1d5d 49be 55be 8f3e fab5 bbbe
00000070: 91f4 51be 8bc5 e3be e096 1bbe ab40 8ebe
00000080: ec58 253d 950c c7be f7c7 e1bd faec 1b3e
00000090: 31a0 593e 0841 cd3d 5930 3c3d b73d aa3e
000000a0: 6bfb 193e 336c 8ebe d7ba 15be 3b58 6d3e
000000b0: 78ce 323e 676c b6be 13d2 233d 5a0e 3ebe
000000c0: c375 e0be c52c 58be

layers.1.bias f4 [10]
0.27580598 -0.3489658 -0.26632506 -0.034265835 0.16269383 -0.41298917 0.42975977 -0.081035815
-0.09494595 -0.16598904
00000000: 7136 8d3e a5ab b2be c25b 88be 555a 0cbd
00000010: 3699 263e 5173 d3be 7909 dc3e 1bf6 a5bd
00000020: 0673 c2bd 08f9 29be

layers.2.weight f4 [10]
0.9989937 1.0014095 0.9979948 1.0016922 0.9980507 0.9990629 1.0016085 0.99952376
1.0014604 0.9985305
00000000: 0dbe 7f3f 302e 803f 967c 7f3f 7337 803f
00000010: 4080 7f3f 96c2 7f3f b534 803f cae0 7f3f
00000020: db2f 803f b29f 7f3f

layers.2.bias f4 [10]
-0.00033812772 0.0019993673 0.0019888817 0.0014462378 0.00040286244 -0.00068117055 -0.00041286647 -0.0012520219
0.0014353234 0.0018100701
00000000: bc46 b1b9 d107 033b e657 023b b08f bd3a
00000010: 4837 d339 9590 32ba 0076 d8b9 e21a a4ba
00000020: 7621 bc3a e03f ed3a

layers.2.running_mean f4 [10]
0.05240587 -0.06630193 -0.05058708 -0.006526446 0.03091403 -0.0784684 0.08165668 -0.015387876
-0.018048324 -0.031522386
00000000: 8aa7 563d 4ec9 87bd 6634 4fbd ccdb d5bb
00000010: 6b3f fd3c 0ab4 a0bd 9e3b a73d 6e1d 7cbc
00000020: 14da 93bc 9e1d 01bd

layers.2.running_var f4 [10]
0.8753487 0.84407175 0.90198964 0.87457544 0.8516296 0.904384 0.8563875 0.84389204
0.85031843 0.8846103
00000000: da16 603f 1615 583f cbe8 663f 2de4 5f3f
00000010: 6604 5a3f b685 673f 363c 5b3f 4f09 583f
00000020: 78ae 593f d275 623f

layers.4.weight f4 [5, 10]
0.08349533 0.12251283 -0.110283665 0.1100667 0.16931935 0.07807476 0.08686356 -0.22908764
0.06665594 -0.19333595 -0.220241 0.23281996 0.15572079 -0.24606107 -0.104700975 0.119109645
0.27148706 -0.0008626544 0.0536196 -0.2725079 -0.16504745 0.17797588 0.16857478 -0.3001145
0.08334125 -0.13487105 0.25418586 -0.14833876 -0.03562773 0.07204646 -0.03629864 -0.001463729
0.13298662 0.02397037 -0.19153985 0.088950425 -0.16545425 0.0029171598 -0.05335875 -0.29347667
-0.0046407846 0.013528758 0.24954136 -0.28823745 0.2795827 0.24512005 -0.01694421 -0.2942941
0.29032582 0.28130844
00000000: 99ff aa3d 02e8 fa3d 67dc e1bd a66a e13d
00000010: 0d62 2d3e a9e5 9f3d 86e5 b13d f395 6abe
00000020: e982 883d dcf9 45be db86 61be 5b68 6e3e
00000030: 4575 1f3e 6ff7 7bbe 776d d6bd c2ef f33d
00000040: 5a00 8b3e c223 62ba 3aa0 5b3d 2886 8bbe
00000050: 3302 29be 4f3f 363e de9e 2c3e 9ca8 99be
00000060: d1ae aa3d a31b 0abe a624 823e 1ee6 17be
00000070: 62ee 11bd 188d 933d e2ad 14bd 98da bfba
00000080: a52d 083e 825d c43c 0623 44be a42b b63d
00000090: d76c 29be d22d 3f3b b48e 5abd 9342 96be
000000a0: b911 98bb b9a7 5d3c c587 7f3e dc93 93be
000000b0: 7725 8f3e c000 7b3e 95ce 8abc b7ad 96be
000000c0: 96a5 943e a907 903e

layers.4.bias f4 [5]
0.23842043 -0.17424709 0.2555675 -0.1833993 0.010200026
00000000: 7c24 743e d46d 32be bed9 823e 07cd 3bbe
00000010: 031e 273c

layers.5.weight f4 [5]
0.9988745 1.0003486 0.99828225 1.0004044 1.0005075
00000000: 3db6 7f3f 6c0b 803f 6d8f 7f3f 400d 803f
00000010: a110 803f

layers.5.bias f4 [5]
0.0019633013 0.0019933977 -0.0019936566 0.0019922005 0.0018530015
00000000: bbaa 003b aaa3 023b 02a8 02bb 948f 023b
00000010: 6ae0 f23a

layers.5.running_mean f4 [5]
0.060464974 -0.03326357 0.046200775 -0.07193506 0.061143108
00000000: 1faa 773d 623f 08bd 063d 3d3d b052 93bd
00000010: 3271 7a3d

layers.5.running_var f4 [5]
0.8187332 0.8313945 0.8286343 0.8177716 0.8282914
00000000: 8098 513f 45d6 543f 6121 543f 7b59 513f
00000010: e80a 543f

layers.7.weight f4 [5]
0.9979891 1.0019783 0.9979795 1.0019786 1.0019748
00000000: 377c 7f3f d340 803f 967b 7f3f d640 803f
00000010: b640 803f

layers.7.bias f4 [5]
0.0017964551 0.0020002155 -0.0020011342 0.0019968802 0.0019696618
00000000: 0877 eb3a 0c16 033b 7625 03bb 17de 023b
00000010: 7115 013b

layers.7.running_mean f4 [5]
0.07469889 0.073057234 0.07103321 0.073956475 0.07646559
00000000: bbfb 983d 089f 953d dc79 913d 7e76 973d
00000010: fe99 9c3d

layers.7.running_var f4 [5]
0.86892074 0.8633981 0.87005764 0.86135924 0.88517964
00000000: 9771 5e3f a807 5d3f 19bc 5e3f 0a82 5c3f
00000010: 229b 623f

layers.8.rho f4 [5]
1.4239769 1.0806208 1.2142224 1.3645731 1.0104364
00000000: e044 b63f c851 8a3f a46b 9b3f 55aa ae3f
00000010: fb55 813f

layers.8.gam f4 [5]
1.2009652 1.6937048 1.8130884 1.8897103 1.371982
00000000: 3ab9 993f 52cb d83f 4813 e83f 07e2 f13f
00000010: 1b9d af3f

layers.9.weight f4 [3, 5]
-0.14225018 -0.18984613 -0.19036663 -0.2113818 -0.26223552 0.22256038 0.033601753 -0.21138516
-0.11365651 0.4459166 -0.23144816 0.12016036 0.1345638 0.41007763 0.28744048
00000000: 08aa 11be 0667 42be 78ef 42be 7874 58be
00000010: bc43 86be dee6 633e fea1 093d 5a75 58be
00000020: bfc4 e8bd 2e4f e43e bf00 6dbe a316 f63d
00000030: 18cb 093e b2f5 d13e 662b 933e

layers.9.bias f4 [3]
-0.31344306 0.14991343 0.30697224
00000000: 9c7b a0be e882 193e 772b 9d3e

exp_avg f4 [5]
0.00025400775 0.00029665665 -0.00051229406 0.00011555257 -0.00015338889
00000000: 582c 8539 9588 9b39 794b 06ba d054 f238
00000010: 04d7 20b9

exp_avg_sq f4 [5]
3.563176e-09 5.0628364e-09 1.5551445e-08 1.909496e-09 1.46891e-09
00000000: 0edc 7431 2ef5 ad31 fd95 8532 3538 0331
00000010: ade2 c930

exp_avg f4 [5]
2.182787e-12 1.3715181e-11 -1.2907549e-10 -5.9517336e-11 5.005859e-11
00000000: 9899 192c af47 712d 85eb 0daf 48e1 82ae
00000010: f628 5c2e

exp_avg_sq f4 [5]
3.306605e-23 2.627061e-23 1.6573272e-21 2.0286314e-22 1.3885921e-22
00000000: cae5 1f1a e112 fe19 be72 fa1c 1a3f 751b
00000010: d8de 271b

exp_avg f4 [10, 5]
2.0398236e-05 5.708549e-05 0.000111474175 2.4078363e-05 -1.144059e-05 -4.4862572e-05 0.00016739068 0.00010886634
-0.00019888603 -0.00030323982 -0.000519821 0.00016692819 0.00023800854 -0.000184325 -0.00028925744 0.00047926654
0.0006213389 -3.8420854e-05 0.0007416278 8.185409e-06 -0.00060146593 0.0002875555 0.0002528223 -8.432717e-05
4.9495517e-05 -0.0011706434 5.230849e-05 0.0005277847 -0.00048512692 0.00034857442 0.00021018229 2.1894772e-05
-0.00017006547 -5.6632678e-05 -0.0001998331 0.00016856719 -8.335017e-05 -0.00065311714 -0.0002807538 0.00020457598
-0.00014330246 2.8721872e-05 0.0005641511 0.00045565807 2.4260713e-05 -0.0005048001 -0.00043454254 0.00094619615
5.0812756e-05 -0.00015101206
00000000: e11c ab37 146f 6f38 3ec7 e938 e4fb c937
00000010: f6f0 3fb7 d22a 3cb8 9885 2f39 2c4f e438
00000020: 108c 50b9 29fc 9eb9 9944 08ba 7209 2f39
00000030: ee91 7939 5e47 41b9 7aa7 97b9 1146 fb39
00000040: 59e1 223a 1426 21b8 cd69 423a 1054 0937
00000050: b2ab 1dba 0cc3 9639 3c8d 8439 ced8 b0b8
00000060: 6899 4f38 4670 99ba d065 5b38 085b 0a3a
00000070: a258 feb9 dec0 b639 6164 5c39 aaaa b737
00000080: 9a53 32b9 e088 6db8 4a8a 51b9 69c1 3039
00000090: 48cc aeb8 f335 2bba 2332 93b9 7283 5639
000000a0: 7643 16b9 c0ef f037 8ae3 133a 64e5 ee39
000000b0: 7c83 cb37 9054 04ba 50d3 e3b9 260a 783a
000000c0: c81f 5538 fe58 1eb9

exp_avg_sq f4 [10, 5]
3.9484045e-11 5.520619e-10 9.2893343e-10 3.3393666e-11 3.7995534e-11 3.7227825e-09 3.0063596e-09 7.1255063e-10
2.196875e-09 8.7888425e-09 1.9031297e-08 3.173567e-09 3.1545853e-09 9.818614e-09 1.2325652e-08 2.3391598e-08
3.0207392e-08 2.3156366e-09 3.504097e-08 2.6965596e-09 5.3376784e-08 5.439648e-09 2.7024862e-08 1.3343406e-08
5.395003e-09 9.163022e-08 1.571095e-08 1.5461833e-08 2.8592249e-08 8.613138e-09 7.167938e-09 7.478331e-10
2.1867304e-09 1.3523866e-09 2.6922287e-08 5.8515144e-09 2.2756488e-08 4.80577e-08 1.43319605e-08 1.1783536e-08
2.8188854e-08 3.2287637e-08 2.1712314e-08 2.2466795e-08 2.2060762e-09 2.4719965e-08 4.8335846e-08 5.0248858e-08
7.344613e-09 4.912906e-09
00000000: 15a7 2d2e e7bf 1730 e157 7f30 eddd 122e
00000010: 2b1b 272e e2d3 7f31 7098 4e31 4bdd 4330
00000020: d5f7 1631 bdfd 1632 447a a332 fb15 5a31
00000030: 0dc8 5831 b9ae 2832 cac0 5332 abee c832
00000040: 61bd 0133 1c21 1f31 f47f 1633 614e 3931
00000050: 6540 6533 a6e7 ba31 4d24 e832 ec3c 6532
00000060: f35e b931 3fc6 c433 bff4 8632 eed0 8432
00000070: 059b f532 fbf8 1332 d949 f631 1390 4d30
00000080: 5e45 1631 e0de b930 bc42 e732 770e c931
00000090: 0c7a c332 0068 4e33 a138 7632 8a70 4a32
000000a0: f223 f232 a2ac 0a33 e281 ba32 01fd c032
000000b0: b499 1731 c757 d432 d399 4f33 34d1 5733
000000c0: e65b fc31 61ce a831

exp_avg f4 [10]
3.9290173e-12 -1.7462299e-12 1.1874363e-10 -1.1757947e-10 -1.1641532e-11 7.566996e-12 2.0954759e-11 6.1700124e-11
-5.704351e-11 1.1990778e-10
00000000: 713d 8a2c 90c2 f5ab 5c8f 022f ae47 01af
00000010: cdcc 4cad b81e 052d ec51 b82d 15ae 872e
00000020: 48e1 7aae 0ad7 032f

exp_avg_sq f4 [10]
1.9039182e-24 2.1162271e-23 9.884671e-22 1.1508672e-21 1.3552528e-23 2.5055575e-22 7.199442e-23 2.2017436e-22
2.3037942e-22 8.802502e-22
00000000: fc4e 1318 3fab cc19 785f 951c 05ea ad1c
00000010: 6f12 8319 a073 971b 6312 ae1a 5516 851b
00000020: 7d41 8b1b 0805 851c

exp_avg f4 [10]
-3.4578807e-07 -1.0964986e-05 0.00025626092 -0.0001809897 0.0001335075 -2.5691872e-05 -6.394549e-05 -6.0982205e-05
-0.00029381568 0.0002463619
00000000: c0a4 b9b4 42f6 37b7 c25a 8639 0dc8 3db9
00000010: 26fe 0b39 e084 d7b7 791a 86b8 25c7 7fb8
00000020: 460b 9ab9 222a 8139

exp_avg_sq f4 [10]
3.5441095e-11 3.6071514e-11 3.746489e-09 3.5763768e-09 1.1429326e-09 5.3198166e-09 5.729471e-10 6.9660167e-10
2.0716941e-08 1.6636642e-08
00000000: 20df 1b2e eaa4 1e2e 77ba 8031 49c4 7531
00000010: 5e15 9d30 9ac9 b631 917d 1d30 fc7a 3f30
00000020: 09f5 b132 5de8 8e32

exp_avg f4 [10]
-2.445904e-05 -1.7697534e-05 -0.0001205335 -0.00013371342 0.00023113567 -8.177819e-05 -2.7284907e-05 7.795646e-05
-0.00015385277 -0.00028982136
00000000: 632d cdb7 2a75 94b7 eec6 fcb8 6c35 0cb9
00000010: 025d 7239 5580 abb8 e4e1 e4b7 8e7c a338
00000020: 8a53 21b9 2af3 97b9

exp_avg_sq f4 [10]
7.5686186e-11 1.7356946e-11 8.2260665e-10 4.9715103e-09 8.297109e-09 3.6434598e-09 1.1963547e-10 5.2975633e-09
6.9160704e-09 7.0870767e-09
00000000: 896f a62e 5eac 982d cc1d 6230 ded1 aa31
00000010: 128b 0e32 6c60 7a31 648a 032f dc05 b631
00000020: 66a2 ed31 9682 f331

exp_avg f4 [5, 10]
0.00023958356 -0.00035744783 6.569167e-05 0.00049809535 0.000290176 0.00022858357 -0.00029653838 8.321607e-05
-0.00016927024 0.0001976033 9.3822295e-05 0.00011968846 -0.0001727318 0.00011538342 7.314214e-05 0.00032868562
0.0003663938 -0.00016750112 -0.00065970194 0.00018722366 2.6957881e-05 -3.3323915e-05 -0.00017159032 -0.00011281696
-0.00012764502 -0.00011408973 -3.0645664e-05 -0.00017671127 0.000356681 -9.384863e-05 -0.00021916113 0.0010177039
0.00161018 3.9366492e-05 0.00030781628 3.445265e-05 0.0007094943 0.00027390147 0.00020842043 0.00015184838
0.0013905525 0.0006862884 0.00040758477 0.00084890536 0.00057263667 -0.00041792737 0.00096412457 0.00023814738
-0.00078057806 0.0013631517
00000000: b938 7b39 d667 bbb9 f2c3 8938 9d92 023a
00000010: c322 9839 efaf 6f39 b578 9bb9 4a84 ae38
00000020: 227e 31b9 bb33 4f39 76c2 c438 4101 fb38
00000030: 571f 35b9 00fa f138 e363 9938 7053 ac39
00000040: 8b18 c039 3da3 2fb9 d9ef 2cba 7851 4439
00000050: 9c23 e237 48c5 0bb8 edec 33b9 2598 ecb8
00000060: 73d8 05b9 7543 efb8 8889 00b8 924b 39b9
00000070: ea00 bb39 99d0 c4b8 9ece 65b9 7a64 853a
00000080: ad0c d33a 731d 2538 6762 a139 4081 1038
00000090: 5bfd 393a 6f9a 8f39 6f8b 5a39 7d39 1f39
000000a0: 3343 b63a 09e8 333a 1ab1 d539 1389 5e3a
000000b0: ff1c 163a 431d dbb9 4ebd 7c3a 33b7 7939
000000c0: b59f 4cba c8ab b23a

exp_avg_sq f4 [5, 10]
3.21787e-09 8.984242e-09 2.38313e-10 1.3716269e-08 5.7663287e-09 2.9546068e-09 6.5018715e-09 4.078577e-10
2.6129001e-09 2.2160447e-09 5.074946e-10 1.5714294e-09 1.750396e-09 7.730977e-10 2.9163072e-09 5.9744516e-09
8.143185e-09 1.6278013e-09 2.6563582e-08 1.940147e-09 2.031773e-09 1.2410855e-09 2.6414162e-09 7.0499073e-10
2.0354745e-09 2.0211641e-09 5.4657985e-09 3.460227e-09 7.027709e-09 1.4143687e-09 2.7065818e-09 5.9154385e-08
1.4319713e-07 2.1131165e-10 5.611642e-09 4.156259e-09 2.7819919e-08 9.372411e-09 9.220255e-09 2.0137463e-09
2.9674044e-07 2.6024104e-08 1.2448149e-08 6.111965e-08 2.4766814e-08 7.5496246e-08 1.4839804e-07 1.2922339e-08
2.3658883e-07 2.9260875e-07
00000000: 5e21 5d31 1d59 1a32 9303 832f caa4 6b32
00000010: 2a21 c631 fe09 4b31 1167 df31 de38 e02f
00000020: a08e 3331 1249 1831 c27f 0b30 c2f9 d730
00000030: 9692 f030 ea81 5430 3868 4831 d547 cd31
00000040: 1be6 0b32 2bb9 df30 ef2d e432 6d53 0531
00000050: 549f 0b31 d092 aa30 4984 3531 50c9 4130
00000060: 72e0 0b31 b2e4 0a31 accd bb31 f5c8 6d31
00000070: 6278 f131 ad63 c230 b1fe 3931 ef10 7e33
00000080: bac1 1934 f156 682f 86d0 c031 d7ce 8e31
00000090: a6f8 ee32 4d04 2132 1c67 1e32 3362 0a31
000000a0: b24f 9f34 9c8b df32 8adb 5532 e240 8333
000000b0: cdbe d432 8020 a233 5857 1f34 0c01 5e32
000000c0: 0b09 7e34 d717 9d34

exp_avg f4 [5]
-3.1432138e-11 -4.2491597e-11 7.566997e-12 2.9103803e-12 1.117587e-10
00000000: 713d 0aae 49e1 3aae ba1e 052d c0cc 4c2c
00000010: 8ec2 f52e

exp_avg_sq f4 [5]
7.199442e-23 3.692759e-22 8.46728e-23 5.425585e-21 2.775612e-21
00000000: 6312 ae1a ae36 df1b edb9 cc1a 0af9 cc1d
00000010: 25b8 511d

exp_avg f4 [5]
2.0572713e-08 3.8013162e-08 7.376789e-08 6.819586e-08 7.886436e-08
00000000: e0b7 b032 ea43 2333 546a 9e33 1273 9233
00000010: 245c a933

exp_avg_sq f4 [5]
4.0022624e-17 2.4822798e-16 4.4608905e-16 8.694372e-16 1.6549952e-15
00000000: 6092 3824 fc17 8f25 9093 0026 2499 7a26
00000010: 8c82 ee26

exp_avg f4 [5]
-4.666608e-05 -0.00013410626 0.00011300912 -0.00022834445 -0.0006466707
00000000: 52bb 43b8 e09e 0cb9 4fff ec38 bf6f 6fb9
00000010: 5685 29ba

exp_avg_sq f4 [5]
1.299305e-10 1.0090784e-09 7.161815e-10 2.9326808e-09 3.1824243e-08
00000000: 2fdc 0e2f caaf 8a30 cbdc 4430 4488 4931
00000010: 20af 0833

exp_avg f4 [5]
4.2889576e-05 -0.00076023716 0.0005688338 -0.0011348258 -0.0031759287
00000000: 55e4 3338 a74a 47ba ca1d 153a 6fbe 94ba
00000010: 3e23 50bb

exp_avg_sq f4 [5]
1.0372833e-10 3.2116752e-08 1.7900433e-08 7.150475e-08 5.6443804e-07
00000000: dc19 e42e bef0 0933 78c3 9932 278e 9933
00000010: e383 1735

exp_avg f4 [5]
-2.3553146e-05 -0.00072199426 0.00050974335 -0.0011141403 -0.0028294877
00000000: ff93 c5b7 3744 3dba 4ca0 053a 5808 92ba
00000010: ed6e 39bb

exp_avg_sq f4 [5]
4.8413187e-11 2.8851764e-08 1.4355188e-08 6.9165225e-08 4.7148785e-07
00000000: 67ec 542e b3d5 f732 c99e 7632 fc87 9433
00000010: cc20 fd34

exp_avg f4 [5]
-6.9078224e-06 0.00013515964 -9.3936076e-05 0.00017456777 0.00060412334
00000000: bec9 e7b6 a4b9 0d39 8cff c4b8 2e0c 3739
00000010: 085e 1e3a

exp_avg_sq f4 [5]
2.6902508e-12 1.0153236e-09 4.882025e-10 1.6917328e-09 2.0418327e-08
00000000: 404f 3d2c 868b 8b30 3232 0630 8e82 e830
00000010: 6064 af32

exp_avg f4 [5]
1.0621428e-05 -1.3068417e-05 1.0189771e-05 -1.5254282e-05 -0.00010226333
00000000: b032 3237 6c40 5bb7 bcf4 2a37 a4ec 7fb7
00000010: 3576 d6b8

exp_avg_sq f4 [5]
6.350351e-12 9.604035e-12 5.9433166e-12 1.2903676e-11 6.684702e-10
00000000: e06e df2c baf4 282d a31c d12c fe00 632d
00000010: 69bf 3730

exp_avg f4 [3, 5]
0.0 0.0 0.0 0.0 0.0 -0.0061795753 -0.0057788556 -0.0055448827
-0.0066363793 -0.0053802067 -0.006438529 -0.0050414284 -0.005136081 -0.004394942 -0.004563505
00000000: 0000 0000 0000 0000 0000 0000 0000 0000
00000010: 0000 0000 097e cabb 8e5c bdbb d9b1 b5bb
00000020: fc75 d9bb 724c b0bb 4cfa d2bb 9132 a5bb
00000030: 924c a8bb 7203 90bb 7489 95bb

exp_avg_sq f4 [3, 5]
0.0 0.0 0.0 0.0 0.0 2.1129779e-06 1.845856e-06 1.7104633e-06
2.4344042e-06 1.5985581e-06 2.2927532e-06 1.4045809e-06 1.4575296e-06 1.0677901e-06 1.1502207e-06
00000000: 0000 0000 0000 0000 0000 0000 0000 0000
00000010: 0000 0000 afcc 0d36 21bf f735 1293 e535
00000020: bf5e 2336 0a8e d635 33dd 1936 0885 bc35
00000030: 56a0 c335 fd50 8f35 4861 9a35

exp_avg f4 [3]
0.0 -0.051713545 -0.04454744
00000000: 0000 0000 95d1 53bd 6077 36bd

exp_avg_sq f4 [3]
0.0 0.00014829305 0.00010992902
00000000: 0000 0000 1d7f 1b39 b189 e638
