lightning_logs/version_61/checkpoints/epoch=2-step=3.ckpt (torch, 28460 bytes, 56 tensors)

layers.0.weight f4 [5]
1.0012437 0.99940085 0.9989288 1.0028329 1.002966
00000000: c128 803f bcd8 7f3f ccb9 7f3f d45c 803f
00000010: 3161 803f

layers.0.bias f4 [5]
8.8970955e-07 4.95651e-05 0.000117134085 -2.5718318e-06 5.7478937e-06
00000000: 60d4 6e35 1fe4 4f38 e2a5 f538 bc97 2cb6
00000010: 08de c036

layers.0.running_mean f4 [5]
1305.7307 2833.704 1319.9224 2009.393 646.58325
00000000: 6237 a344 441b 3145 84fd a444 932c fb44
00000010: 54a5 2144

layers.0.running_var f4 [5]
1.1890052e+08 2.6217486e+08 1.2096462e+08 1.883641e+08 5.8403788e+07
00000000: e5c8 e24c 8907 7a4d c2b8 e64c 54a3 334d
00000010: f3ca 5e4c

layers.1.weight f4 [10, 5]
0.08185609 0.13777272 0.38386437 0.31516138 -0.02565962 0.11541327 -0.028612988 0.03819697
-0.25067005 -0.053881265 0.13099606 0.009196963 0.33872524 -0.10672418 0.0472728 -0.38956225
-0.43784887 0.21676418 -0.21171677 0.019590309 -0.33959675 0.037970994 0.38881528 -0.1495949
-0.23497374 0.2675199 0.29171127 0.13898762 0.092150934 0.17578869 -0.37459153 0.3691214
0.19292575 0.20492797 0.06594209 0.23635334 0.13745469 -0.3233743 -0.0237028 0.21936014
0.16755843 -0.40671262 -0.35227475 0.21924785 0.44259927 -0.37897873 0.060111724 0.18892588
0.031255938 -0.32158452
00000000: 2aa4 a73d 4b14 0d3e df89 c43e d55c a13e
00000010: 2034 d2bc cb5d ec3d c965 eabc 6d74 1c3d
00000020: d357 80be 9ab2 5cbd d523 063e dcae 163c
00000030: 656d ad3e 3592 dabd 20a1 413d b474 c7be
00000040: ba2d e0be 6ef7 5d3e 48cc 58be db7b a03c
00000050: a0df adbe 7987 1b3d cc12 c73e 682f 19be
00000060: f59c 70be 5ef8 883e 2e5b 953e c552 0e3e
00000070: a1b9 bc3d f301 343e 76ca bfbe 7bfd bc3e
00000080: 548e 453e a3d8 513e a50c 873d 9c06 723e
00000090: ecc0 0c3e 5191 a5be 602c c2bc f29f 603e
000000a0: 7094 2b3e a33c d0be 5b5d b4be 8282 603e
000000b0: 5f9c e23e 8009 c2be b637 763d c975 413e
000000c0: 3a06 003d baa6 a4be

layers.1.bias f4 [10]
-0.30898327 -0.22087933 0.1093503 -0.36373028 0.13171606 -0.42644814 -0.13656393 0.2627437
-0.35657784 -0.018898308
00000000: 0e33 9ebe 312e 62be 0df3 df3d db3a babe
00000010: 93e0 063e 6957 dabe 6ad7 0bbe 5886 863e
00000020: 5f91 b6be a0d0 9abc

layers.2.weight f4 [10]
0.99723834 0.999172 0.9977273 0.9996429 0.99975276 1.000367 0.9969766 1.0008936
1.0026704 1.0029621
00000000: 034b 7f3f bcc9 7f3f 0e6b 7f3f 99e8 7f3f
00000010: ccef 7f3f 070c 803f dc39 7f3f 481d 803f
00000020: 8157 803f 1061 803f

layers.2.bias f4 [10]
-0.00068097137 -0.0009469665 -0.0026511585 -0.0010522302 -0.0016826316 0.0026409037 0.0014389927 0.0016835425
0.0028495137 -0.0030015619
00000000: 3783 32ba d93d 78ba 0fbf 2dbb fdea 89ba
00000010: bf8b dcba 0313 2d3b 959c bc3a 50aa dc3a
00000020: e8be 3a3b dab5 44bb

layers.2.running_mean f4 [10]
-0.14477211 -0.10350012 0.051214103 -0.17041096 0.061746083 -0.19981873 -0.06398643 0.123118244
-0.16709533 -0.008842524
00000000: 243f 14be dff7 d3bd e1c5 513d 3680 2ebe
00000010: 76e9 7c3d 489d 4cbe 510b 83bd 6b25 fc3d
00000020: 0a1b 2bbe 3ce0 10bc

layers.2.running_var f4 [10]
0.6635504 0.57085735 0.599373 0.7487368 0.7012343 0.6424678 0.7101928 0.6411358
0.7953859 0.66973156
00000000: 70de 293f b523 123f 8270 193f 37ad 3f3f
00000010: 1784 333f c578 243f 32cf 353f 7a21 243f
00000020: 699e 4b3f 8773 2b3f

layers.4.weight f4 [5, 10]
-0.07026171 -0.21595311 0.24593784 -0.0116859665 -0.1753685 0.28751996 0.22736256 -0.29231027
0.0080169495 -0.2205494 -0.21003188 0.015156807 0.29433933 0.048478812 -0.05246556 -0.11927556
-0.1347866 0.22975586 -0.28095302 0.18400384 -0.18768413 -0.09373996 -0.18616343 0.20380767
0.052652974 -0.18524191 -0.31329462 -0.029182004 -0.023083497 -0.31732655 0.094608955 -0.0120854555
0.016036646 -0.21551052 0.07029363 0.2603158 0.13284077 0.23559119 0.12300339 0.3022884
-0.018584916 0.2566241 0.23250316 0.28274366 0.105781816 0.27044496 0.14834306 0.24034682
0.07519202 0.115699835
00000000: 5fe5 8fbd d022 5dbe 21d7 7b3e 7f76 3fbc
00000010: cd93 33be d135 933e bbd1 683e b1a9 95be
00000020: 8659 033c b4d7 61be 9912 57be 4254 783c
00000030: a5b3 963e b891 463d 21e6 56bd bf46 f4bd
00000040: 8005 0abe 1f45 6b3e 13d9 8fbe 816b 3c3e
00000050: 4530 40be bcfa bfbd a0a1 3ebe f5b2 503e
00000060: a5aa 573d 0eb0 3dbe 2768 a0be 190f efbc
00000070: 9a19 bdbc a078 a2be 57c2 c13d 1302 46bc
00000080: 495f 833c caae 5cbe 1bf6 8f3d 1d48 853e
00000090: 6907 083e d13e 713e 34e9 fb3d 8cc5 9a3e
000000a0: 653f 98bc 3c64 833e 4f15 6e3e c7c3 903e
000000b0: 23a4 d83d c377 8a3e 3ee7 173e 7a1d 763e
000000c0: 46fe 993d 09f4 ec3d

layers.4.bias f4 [5]
0.18640727 0.18207647 -0.21001731 -0.18313697 0.26331925
00000000: 8ce1 3e3e 4172 3a3e c70e 57be 4288 3bbe
00000010: c8d1 863e

layers.5.weight f4 [5]
0.9995618 0.9985742 1.0011026 0.99909574 0.997423
00000000: 48e3 7f3f 8fa2 7f3f 2124 803f bdc4 7f3f
00000010: 1d57 7f3f

layers.5.bias f4 [5]
0.0026806493 0.00071219605 -0.0028866814 0.002877282 -0.0029994533
00000000: d5ad 2f3b abb2 3a3a 7a2e 3dbb c890 3c3b
00000010: 7a92 44bb

layers.5.running_mean f4 [5]
0.06827344 0.077647954 -0.2511546 0.06258924 0.36444804
00000000: f2d2 8b3d e405 9f3d 5697 80be ca2e 803d
00000010: ef98 ba3e

layers.5.running_var f4 [5]
0.56628215 0.57112575 0.73193574 0.6697196 0.7267198
00000000: def7 103f 4c35 123f 2460 3b3f be72 2b3f
00000010: 4f0a 3a3f

layers.7.weight f4 [5]
1.0027347 0.99740547 1.0029544 1.0029036 0.9969947
00000000: 9c59 803f f755 7f3f cf60 803f 255f 803f
00000010: 0b3b 7f3f

layers.7.bias f4 [5]
0.0026848554 -0.0025980005 0.002984895 0.00292028 -0.0029593345
00000000: 66f4 2f3b 3743 2abb 3a9e 433b 2b62 3f3b
00000010: 65f1 41bb

layers.7.running_mean f4 [5]
0.13810006 0.12973353 0.14374778 0.15978824 0.1456777
00000000: 1a6a 0d3e ded8 043e 9e32 133e 879f 233e
00000010: 892c 153e

layers.7.running_var f4 [5]
0.8646934 0.58371246 0.551147 0.8645598 0.87560266
00000000: 8c5c 5d3f 2e6e 153f f817 0d3f cb53 5d3f
00000010: 7f27 603f

layers.8.rho f4 [5]
1.9184335 1.2169425 1.0258662 1.0448527 1.366047
00000000: 3b8f f53f c6c4 9b3f 954f 833f bcbd 853f
00000010: a1da ae3f

layers.8.gam f4 [5]
1.423663 1.3162451 1.896599 1.5028901 1.7035999
00000000: 973a b63f b87a a83f c2c3 f23f b45e c03f
00000010: 900f da3f

layers.9.weight f4 [3, 5]
0.35928988 -0.020230977 0.188482 -0.11911706 -0.14025845 -0.033513706 0.020229068 0.26130092
0.26712003 -0.31113255 0.08176367 -0.27769795 0.19872484 -0.20953801 -0.24099873
00000000: d8f4 b73e 6fbb a5bc 6d01 413e a5f3 f3bd
00000010: e99f 0fbe ab45 09bd 6eb7 a53c 3cc9 853e
00000020: f5c3 883e c44c 9fbe b673 a73d 6d2e 8ebe
00000030: 867e 4b3e 2291 56be 5fc8 76be

layers.9.bias f4 [3]
0.17083676 0.08077835 -0.38975093
00000000: d5ef 2e3e 1f6f a53d 6f8d c7be

exp_avg f4 [5]
8.09045e-06 0.0009605015 -0.00016858961 -0.00029327997 -0.00050739857
00000000: 38bc 0737 2aca 7b3a 6ec7 30b9 5fc3 99b9
00000010: f102 05ba

exp_avg_sq f4 [5]
4.3728843e-09 5.253877e-08 5.1046626e-08 4.083392e-09 1.0544569e-08
00000000: 4c40 9631 fda6 6133 5c3e 5b33 e54d 8c31
00000010: 8127 3532

exp_avg f4 [5]
1.4406398e-11 9.458746e-12 -6.737536e-11 9.284123e-12 7.566998e-13
00000000: a670 7d2d 6866 262d f528 94ae f953 232d
00000010: f8fd 542b

exp_avg_sq f4 [5]
1.0575209e-22 3.0536748e-22 3.9234475e-22 5.408131e-23 3.27839e-24
00000000: 60b1 ff1a 5495 b81b 6928 ed1b b6c2 821a
00000010: 34a7 7d18

exp_avg f4 [10, 5]
-0.00023268728 1.1404482e-05 -2.4591638e-05 0.000112457616 0.00037155527 0.0006022473 -0.00017172087 -0.0019904533
-0.00018634826 0.00095093146 -0.0007942462 0.0008056851 8.1364036e-05 -0.00015685287 0.0010186343 0.0001187968
-0.0004989061 -0.0008618153 -0.00010988457 -0.0005665864 6.019501e-05 -6.467283e-05 -0.00012999232 -0.000111003814
-0.00023664467 -0.0013056123 0.0012371317 0.0004313087 -0.0015006938 0.00033383255 4.8229966e-05 0.0004940562
0.0003244602 -0.0011545841 9.585488e-05 -0.00010988827 0.0011233015 9.6232136e-05 0.00019110345 -0.00043521423
-9.789129e-06 -5.212021e-05 -2.7815062e-05 -0.0002795748 7.0367525e-05 -0.0013611147 8.1870356e-05 0.00010650507
7.477493e-05 0.0017063762
00000000: 84fd 73b9 e155 3f37 244a ceb7 39d7 eb38
00000010: 4ecd c239 22e0 1d3a f80f 34b9 4472 02bb
00000020: 7b66 43b9 ee47 793a f634 50ba 9d34 533a
00000030: fca1 aa38 df78 24b9 b283 853a 8c22 f938
00000040: 06c9 02ba 72eb 61ba d471 e6b8 f886 14ba
00000050: e679 7c38 f6a0 87b8 8c4e 08b9 b8ca e8b8
00000060: d223 78b9 1421 abba 4027 a23a 4621 e239
00000070: eeb2 c4ba 3f06 af39 884a 4a38 8d83 013a
00000080: 501c aa39 6a55 97ba b205 c938 d173 e6b8
00000090: be3b 933a 3cd0 c938 f162 4839 772d e4b9
000000a0: fd3b 24b7 a69b 5ab8 6454 e9b7 e593 92b9
000000b0: 4792 9338 6e67 b2ba d0b1 ab38 795b df38
000000c0: 7cd0 9c38 7ca8 df3a

exp_avg_sq f4 [10, 5]
3.7142964e-09 2.5303594e-11 4.2514536e-10 1.5864974e-09 6.223572e-09 1.859168e-08 2.5064858e-07 4.590397e-07
1.6349707e-08 3.7992894e-08 4.663215e-08 8.1042316e-08 1.0200715e-08 2.7050038e-09 7.777899e-08 6.126051e-10
1.632339e-08 5.300862e-08 5.1591775e-10 2.6656611e-08 4.66712e-09 1.1499537e-08 1.1988147e-08 5.2980026e-10
5.816819e-09 7.165716e-08 6.3661275e-08 2.114996e-08 1.03739644e-07 2.6726237e-08 1.0901896e-10 1.3845548e-08
9.796301e-09 5.7699786e-08 2.8831044e-09 5.121665e-09 2.1668137e-07 1.26050175e-08 1.6173852e-08 8.097788e-09
4.912003e-11 1.6655098e-10 7.867162e-11 3.1808778e-09 2.1840435e-10 9.269138e-08 2.5264278e-08 1.6506908e-08
1.3981251e-08 1.3292019e-07
00000000: 983e 7f31 a192 de2d e4b9 e92f ea0b da30
00000010: 1ed7 d531 89b3 9f32 e190 8634 f071 f634
00000020: 6371 8c32 a12d 2333 9748 4833 7c09 ae33
00000030: 383f 2f32 eee2 3931 7407 a733 4064 2830
00000040: 8437 8c32 98ab 6333 7cd0 0d30 82fa e432
00000050: 6c5c a031 808f 4532 6ef4 4d32 61a1 1130
00000060: 48dd c731 f1e1 9933 28b6 8833 41ad b532
00000070: 79c7 de33 9e93 e532 38bc ef2e 5ddd 6d32
00000080: 964c 2832 96d1 7733 1c20 4631 a4fa af31
00000090: eca8 6834 748d 5832 adee 8a32 731e 0b32
000000a0: 3d08 582e ef1f 372f 2f00 ad2e 9896 5a31
000000b0: 5c23 702f a00d c733 bc04 d932 13cb 8d32
000000c0: 3132 7032 d3b8 0e34

exp_avg f4 [10]
-9.371433e-12 -4.3015466e-11 -5.3638358e-11 4.1705788e-11 4.2353347e-11 -2.9103803e-13 -8.396456e-12 2.8521754e-11
4.64388e-12 2.1071173e-11
00000000: 2fdd 24ad 1c2f 3dae 6ce7 6bae 8b6c 372e
00000010: a145 3a2e 00d7 a3aa 47b6 13ad 48e1 fa2d
00000020: 5a64 a32c 1058 b92d

exp_avg_sq f4 [10]
2.0308467e-23 3.5573356e-22 1.2990607e-21 1.1405867e-21 2.135316e-22 1.387441e-22 7.462833e-23 9.829488e-23
3.9266565e-24 2.7077966e-23
00000000: 5469 c419 1a07 d71b fa4e c41c 505c ac1c
00000010: 6a12 811b 38bb 271b b370 b41a 95a9 ed1a
00000020: b9e7 9718 e6f0 021a

exp_avg f4 [10]
0.00012241685 -7.378994e-05 7.680736e-05 -0.00025459717 -0.000196529 0.00031411648 0.00050477707 7.478652e-05
-0.00010489673 -0.00046301924
00000000: 065d 0039 acbf 9ab8 a313 a138 747b 85b9
00000010: 5a13 4eb9 00b0 a439 0453 043a b5d6 9c38
00000020: 01fc dbb8 64c1 f2b9

exp_avg_sq f4 [10]
7.4920203e-10 2.975748e-09 6.7176864e-10 1.105087e-08 5.61338e-09 1.7968901e-08 1.0417245e-08 7.6525515e-09
6.573331e-10 8.775221e-09
00000000: 68f0 4d30 ea7d 4c31 84a7 3830 3eda 3d32
00000010: d0df c031 085a 9a32 87f7 3232 4778 0332
00000020: b4af 3430 d5c1 1632

exp_avg f4 [10]
-4.9881426e-05 -5.8593534e-05 0.00038449944 -6.22504e-05 3.866694e-05 -0.00018887171 1.1589142e-05 -9.362094e-05
-5.530813e-05 0.00028043782
00000000: c637 51b8 54c2 75b8 a496 c939 6e8c 82b8
00000010: 502e 2238 dd0b 46b9 fc6e 4237 5c56 c4b8
00000020: a7fa 67b8 ba07 9339

exp_avg_sq f4 [10]
3.1121328e-10 2.566167e-09 7.969321e-09 1.6033976e-08 9.62479e-10 2.4964268e-09 8.082265e-10 6.5682837e-09
1.4672581e-10 3.1943057e-09
00000000: 6017 ab2f 7d58 3031 72e9 0832 16bb 8932
00000010: 3848 8430 9b8d 2b31 e229 5e30 3caf e131
00000020: a553 212f d282 5b31

exp_avg f4 [5, 10]
-0.0001516058 0.000100358084 0.0009335752 0.00034578232 0.0011658946 0.00024353413 0.0004995641 3.2157404e-05
-0.00069659285 0.000844273 -1.5756017e-05 -3.96259e-06 -6.9085763e-07 1.32428295e-05 -2.8007507e-05 -2.2332597e-07
-4.3691593e-06 -9.525351e-06 -7.053196e-06 -3.1980002e-05 -0.0004976622 0.0006198856 0.00018695933 4.3455802e-05
0.00063183776 6.560377e-05 -0.0010060179 -0.00015291176 -1.1440745e-05 0.0011294341 4.8120462e-05 0.000104732484
0.0009027879 0.00057084893 0.0010831378 5.2600644e-05 9.05525e-05 -0.0004175306 -0.00074256957 0.0006086455
-0.00046968425 2.528519e-05 -0.00058823545 -0.000491282 -0.0010277412 0.00089131645 0.0004017873 0.0007421088
-0.00017900382 -0.00089499005
00000000: 5ff8 1eb9 5677 d238 2cbb 743a 1e4a b539
00000010: eed0 983a 325d 7f39 2ef5 023a c0e0 0638
00000020: 8e9b 36ba 3452 5d3a ca2b 84b7 64f6 84b6
00000030: 6073 39b5 852d 5e37 aaf1 eab7 60cb 6fb4
00000040: cb9a 92b6 12cf 1fb7 7eaa ecb6 4422 06b8
00000050: 8b75 02ba d27f 223a 830a 4439 5044 3638
00000060: eaa1 253a c194 8938 5cdc 83ba f056 20b9
00000070: a0f1 3fb7 8509 943a f4d4 4938 d3a3 db38
00000080: 12a9 6c3a 06a5 153a 13f8 8d3a 839f 5c38
00000090: 01e7 bd38 02e8 dab9 00a9 42ba 828d 1f3a
000000a0: f43f f6b9 881b d437 d033 1aba 60c9 00ba
000000b0: 46b5 86ba 3ca7 693a fba6 d239 148a 423a
000000c0: f9b2 3bb9 c49d 6aba

exp_avg_sq f4 [5, 10]
1.5964716e-09 5.620643e-09 1.4423668e-07 9.580184e-09 7.045825e-08 3.325094e-09 4.3714923e-08 1.0429374e-09
2.51238e-08 3.0255432e-08 3.4694103e-10 1.2961879e-12 6.777231e-10 7.960246e-11 1.4738112e-10 1.6855153e-10
1.8680948e-10 6.0141167e-12 3.138609e-12 6.449432e-11 1.1059872e-08 5.97176e-08 1.4705239e-09 2.170472e-08
1.8678257e-08 4.233281e-09 4.792974e-08 1.5018198e-08 1.04487885e-08 5.305011e-08 1.13352e-10 5.00948e-10
3.4054665e-08 1.37899185e-08 4.8366413e-08 1.3231631e-09 2.029766e-09 9.058029e-09 2.8306502e-08 1.5901266e-08
1.1276044e-08 4.484601e-09 1.7774568e-07 6.206599e-08 1.7833801e-07 2.2528893e-07 3.9858087e-08 1.4383883e-07
3.882675e-09 6.0102096e-08
00000000: da6a db30 b31f c131 7adf 1a34 1896 2432
00000010: d54e 9733 ac7f 6431 11c1 3b33 1957 8f30
00000020: d2cf d732 33f2 0133 9cbb be2f 176c b62b
00000030: 864a 3a30 330c af2e 190c 222f 0a53 392f
00000040: 3266 4d2f 599a d32c 27dc 5c2c 13d3 8d2e
00000050: d501 3e32 193e 8033 761b ca30 2f71 ba32
00000060: ec71 a032 5574 9131 4edb 4d33 5e01 8132
00000070: 4282 3332 36d9 6333 8143 f92e 15b3 0930
00000080: 8043 1233 b4e8 6c32 6fbb 4f33 aada b530
00000090: 057c 0b31 a29d 1b32 a826 f332 4197 8832
000000a0: 91b8 4132 f816 9a31 5cda 3e34 2449 8533
000000b0: 2e7d 3f34 f3e6 7134 6e30 2b33 1e72 1a34
000000c0: 5f68 8531 7a11 8133

exp_avg f4 [5]
-6.357549e-11 4.2850844e-12 -2.56754e-10 -5.13046e-11 -8.28586e-11
00000000: d2cd 8bae 9cc4 962c ea26 8daf d8a3 61ae
00000010: 3f35 b6ae

exp_avg_sq f4 [5]
1.9922463e-21 3.3926407e-24 3.2820634e-21 2.116161e-22 8.125984e-22
00000000: a687 161d 163f 8318 57fc 771d 03d4 7f1b
00000010: c297 751c

exp_avg f4 [5]
1.7894106e-07 2.0729343e-09 5.657263e-07 2.9869645e-07 8.845851e-07
00000000: f222 4034 7273 0e31 6adc 1735 875c a034
00000010: 3a74 6d35

exp_avg_sq f4 [5]
2.14956e-15 7.6626946e-19 6.218139e-14 5.1905645e-15 4.423721e-14
00000000: 62e4 1a27 af29 6221 2105 8c29 8202 bb27
00000010: 083a 4729

exp_avg f4 [5]
-0.0003323384 2.5113368e-07 0.0016790738 -0.00024452969 0.0008063545
00000000: b43d aeb9 8dd3 8634 5e14 dc3a 3834 80b9
00000010: 8961 533a

exp_avg_sq f4 [5]
6.7599943e-09 2.454462e-13 1.2518225e-07 2.670409e-09 2.663307e-08
00000000: 8a45 e831 862c 8a2a d669 0634 5582 3731
00000010: bec6 e432

exp_avg f4 [5]
-0.0011823032 3.3211276e-05 -0.0064000073 -0.0006006998 0.0016603591
00000000: 83f7 9aba 564c 0b38 27b7 d1bb 4878 1dba
00000010: 68a0 d93a

exp_avg_sq f4 [5]
7.679973e-08 9.235381e-11 1.6978515e-06 1.5442442e-08 1.1610595e-07
00000000: 19ed a433 9316 cb2e bce1 e335 4aa6 8432
00000010: ec55 f933

exp_avg f4 [5]
-0.00097268657 3.1283656e-05 -0.006373212 -0.0005159097 0.0016291144
00000000: e4fb 7eba 9236 0338 61d6 d0bb 1d3e 07ba
00000010: 0288 d53a

exp_avg_sq f4 [5]
5.7735722e-08 7.897806e-11 1.6845523e-06 1.1504822e-08 1.1389598e-07
00000000: 19f9 7733 b2ac ad2e c718 e235 bea6 4532
00000010: fa96 f433

exp_avg f4 [5]
0.00015407104 -5.7661005e-06 0.0011492932 0.000110853216 -0.00025886527
00000000: 218e 2139 6d7a c1b6 e1a3 963a de79 e838
00000010: 4fb8 87b9

exp_avg_sq f4 [5]
1.3023428e-09 2.7868645e-12 5.472003e-08 5.260011e-10 2.8243516e-09
00000000: 1dfe b230 b01b 442c 4f05 6b33 0996 1030
00000010: 8516 4231

exp_avg f4 [5]
-5.12473e-05 7.9334757e-07 -4.7605587e-05 -2.2578286e-05 2.732333e-05
00000000: 5ff2 56b8 6ef6 5435 1cac 47b8 8066 bdb7
00000010: 6834 e537

exp_avg_sq f4 [5]
1.0900932e-10 6.7619724e-14 9.1884264e-11 2.076506e-11 3.083799e-11
00000000: cbb6 ef2e 1e44 9829 3e0e ca2e c2a6 b62d
00000010: 7da0 072e

exp_avg f4 [3, 5]
-0.004802427 -0.008672197 -0.009962222 -0.005422461 -0.0039335936 -0.005115045 -0.008822332 -0.010527926
-0.005739346 -0.00364774 0.0 0.0 0.0 0.0 0.0
00000000: ad5d 9dbb d515 0ebc 9638 23bc e6ae b1bb
00000010: 60e5 80bb 1b9c a7bb 8b8b 10bc 527d 2cbc
00000020: 2011 bcbb ec0e 6fbb 0000 0000 0000 0000
00000030: 0000 0000 0000 0000 0000 0000

exp_avg_sq f4 [3, 5]
1.0006469e-06 3.153228e-06 4.074679e-06 1.2765694e-06 8.5529996e-07 1.0691145e-06 3.1822726e-06 4.551475e-06
1.3556527e-06 5.766278e-07 0.0 0.0 0.0 0.0 0.0
00000000: f74d 8635 0b9c 5336 3ab9 8836 9756 ab35
00000010: c497 6535 7f7e 8f35 078f 5536 dfb8 9836
00000020: dff3 b535 90c9 1a35 0000 0000 0000 0000
00000030: 0000 0000 0000 0000 0000 0000

exp_avg f4 [3]
-0.07377313 -0.078639925 0.0
00000000: 5e16 97bd f80d a1bd 0000 0000

exp_avg_sq f4 [3]
0.00022201541 0.00025137083 0.0
00000000: cfcc 6839 6cca 8339 0000 0000
