lightning_logs/version_80/checkpoints/epoch=3-step=8.ckpt (torch, 28460 bytes, 56 tensors)

layers.0.weight f4 [5]
1.0034235 0.99890023 1.0094227 0.993486 0.99373853
00000000: 2e70 803f edb7 7f3f c334 813f 1955 7e3f
00000010: a665 7e3f

layers.0.bias f4 [5]
-0.00010232466 0.000117554555 4.0990122e-05 -1.9585543e-05 6.836057e-05
00000000: 2297 d6b8 9f87 f638 cfec 2b38 a24b a4b7
00000010: cd5c 8f38

layers.0.running_mean f4 [5]
65.79548 65.7735 65.80279 65.778755 65.806946
00000000: 4997 8342 088c 8342 079b 8342 b98e 8342
00000010: 289d 8342

layers.0.running_var f4 [5]
0.56166613 0.5535122 0.5616009 0.5496637 0.5667388
00000000: 5ac9 0f3f fab2 0d3f 14c5 0f3f c3b6 0c3f
00000010: cb15 113f

layers.1.weight f4 [10, 5]
-0.4375122 -0.3796036 0.106601246 -0.29961488 0.09420813 0.38604328 0.10965504 -0.2661221
-0.29778427 0.016710255 -0.3305131 -0.33626238 0.14124663 -0.22532457 -0.29390356 -0.35622433
0.21812277 0.04584697 0.13479438 0.2459613 0.33627707 0.17037815 0.38397923 0.27172604
-0.31981802 -0.022752836 0.37923613 0.30048242 0.23478891 0.3168055 -0.17241238 -0.24680631
0.15842505 -0.11709804 0.3947424 0.1945677 -0.24858539 -0.11373356 0.082430206 -0.07549443
0.06598485 0.04890569 0.25583497 -0.061226808 -0.30422136 0.10182966 -0.040787045 -0.44230732
0.17354614 0.096343175
00000000: 9901 e0be 675b c2be c151 da3d 1f67 99be
00000010: 31f0 c03d 77a7 c53e d292 e03d 2841 88be
00000020: 2e77 98be f2e3 883c 0339 a9be 952a acbe
00000030: f5a2 103e 7cbb 66be 877a 96be 0963 b6be
00000040: 935b 5f3e 08ca 3b3d 8a07 0a3e 47dd 7b3e
00000050: 822c ac3e 9c77 2e3e ed98 c43e ad1f 8b3e
00000060: 30bf a3be 2864 babc 3d2b c23e d5d8 993e
00000070: 816c 703e 5534 a23e df8c 30be cbba 7cbe
00000080: 2d3a 223e 19d1 efbd ad1b ca3e c13c 473e
00000090: 2b8d 7ebe 24ed e8bd 2bd1 a83d d39c 9abd
000000a0: 1123 873d 5551 483d cdfc 823e f6c8 7abd
000000b0: e7c2 9bbe 128c d03d 5110 27bd 1b76 e2be
000000c0: 14b6 313e 924f c53d

layers.1.bias f4 [10]
0.3377723 0.02117453 -0.42680907 0.1620451 -0.3935555 0.15435523 0.10740187 0.24672306
-0.33420017 0.29633212
00000000: 7ef0 ac3e 3576 ad3c b886 dabe 27ef 253e
00000010: 1b80 c9be 4c0f 1e3e 83f5 db3d f8a4 7c3e
00000020: 491c abbe d8b8 973e

layers.2.weight f4 [10]
0.990773 0.99055886 1.0046817 1.0070379 0.9964247 1.0056574 1.0073582 1.0017666
1.0099016 0.9927437
00000000: 4da3 7d3f 4495 7d3f 6999 803f 9ee6 803f
00000010: b015 7f3f 62b9 803f 1df1 803f e339 803f
00000020: 7544 813f 7324 7e3f

layers.2.bias f4 [10]
-0.009725217 -0.00089460565 0.009788954 0.00805677 0.002062992 0.0019060627 -4.7458045e-05 0.0098600825
0.009579807 0.009715602
00000000: 8456 1fbc f883 6aba d961 203c 8b00 043c
00000010: 4333 073b dad4 f93a b00d 47b8 2f8c 213c
00000020: 9ff4 1c3c 302e 1f3c

layers.2.running_mean f4 [10]
0.22003412 0.013791803 -0.2780273 0.10555448 -0.25637883 0.100574955 0.069976315 0.16075274
-0.21768074 0.19298965
00000000: a050 613e 04f7 613c 9859 8ebe f22c d83d
00000010: 1644 83be 3efa cd3d be4f 8f3d 5e9c 243e
00000020: b3e7 5ebe 149f 453e

layers.2.running_var f4 [10]
0.6461992 0.5771267 0.6093593 0.508588 0.63993627 0.6045094 0.534904 0.4292522
0.45655105 0.51575834
00000000: 506d 253f 93be 133f f9fe 1b3f d332 023f
00000010: ddd2 233f 21c1 1a3f 78ef 083f f2c6 db3e
00000020: 0fc1 e93e bd08 043f

layers.4.weight f4 [5, 10]
-0.24216442 -0.0776212 0.12608229 -0.01421579 -0.20370744 0.20328327 0.2998141 -0.3203061
-0.17342556 0.29533774 -0.047017876 0.058039162 0.23635186 0.012311853 0.28569108 -0.08906655
-0.12113536 -0.09964756 -0.13764992 -0.30868182 -0.26795658 -0.23699236 0.058302253 -0.25836384
-0.110905685 0.044348005 -0.17377968 -0.24420485 0.21968336 0.10967227 -0.26361483 0.19461885
0.17137767 0.18997057 -0.15035662 0.28056285 0.028846499 -0.09807441 0.14816234 0.15172225
0.18059047 0.2113575 -0.011609384 -0.013316199 -0.12043443 -0.094731025 -0.2352801 -0.20026445
-0.28405175 0.2188163
00000000: f3f9 77be ddf7 9ebd b71b 013e 58e9 68bc
00000010: af98 50be 7d29 503e 3c81 993e 29ff a3be
00000020: 7896 31be 8236 973e d195 40bd 79ba 6d3d
00000030: 3906 723e a7b7 493c 1a46 923e 8668 b6bd
00000040: d115 f8bd 0514 ccbd 1af4 0cbe 8b0b 9ebe
00000050: 9b31 89be 20ae 72be 58ce 6e3d 4448 84be
00000060: 8522 e3bd 41a6 353d 4df3 31be d610 7abe
00000070: adf4 603e db9b e03d 86f8 86be 2a4a 473e
00000080: a17d 2f3e a587 423e 16f7 19be efa5 8f3e
00000090: 7e4f ec3c 3cdb c8bd deb7 173e 145d 1b3e
000000a0: b5ec 383e 1a6e 583e 4935 3ebc 302c 5abc
000000b0: 54a6 f6bd 5702 c2bd 44ed 70be 2012 4dbe
000000c0: 3b6f 91be 6111 603e

layers.4.bias f4 [5]
0.040413532 -0.052400716 -0.22828896 0.2650321 -0.064192265
00000000: a988 253d 22a2 56bd 95c4 69be 4ab2 873e
00000010: 3c77 83bd

layers.5.weight f4 [5]
0.9938534 0.9974366 0.9907392 0.9906591 0.9930879
00000000: 2d6d 7e3f 0158 7f3f 16a1 7d3f d69b 7d3f
00000010: 023b 7e3f

layers.5.bias f4 [5]
0.009364327 0.008310349 -0.009539804 -0.009948024 0.009915186
00000000: d66c 193c 2128 083c d74c 1cbc 09fd 22bc
00000010: 4e73 223c

layers.5.running_mean f4 [5]
0.00619159 -0.08866216 -0.3793198 0.34006795 -0.13510454
00000000: d2e2 ca3b 8294 b5bd 3436 c2be 631d ae3e
00000010: d858 0abe

layers.5.running_var f4 [5]
0.43280238 0.39594567 0.405989 0.39514923 0.41636056
00000000: 4698 dd3e 64b9 ca3e cadd cf3e 0051 ca3e
00000010: 362d d53e

layers.7.weight f4 [5]
1.0097947 1.0099094 0.98996425 0.9899429 1.0099401
00000000: f440 813f b644 813f 4c6e 7d3f e66c 7d3f
00000010: b845 813f

layers.7.bias f4 [5]
0.009970874 0.010025475 -0.00993935 -0.00996796 0.010033452
00000000: e05c 233c e441 243c a8d8 22bc a850 23bc
00000010: 5963 243c

layers.7.running_mean f4 [5]
0.26240242 0.26321712 0.25838265 0.25473362 0.2709246
00000000: 9c59 863e 65c4 863e bb4a 843e 726c 823e
00000010: a1b6 8a3e

layers.7.running_var f4 [5]
0.5448803 0.51549524 0.52905494 0.6398388 0.56360906
00000000: 467d 0b3f 7ff7 033f 2570 073f 7acc 233f
00000010: af48 103f

layers.8.rho f4 [5]
1.4824462 1.4735651 1.0207388 1.5438511 1.756008
00000000: ccc0 bd3f c89d bc3f 92a7 823f ea9c c53f
00000010: dfc4 e03f

layers.8.gam f4 [5]
1.6894498 1.6658999 1.7470771 1.082052 1.3627524
00000000: e43f d83f 353c d53f 39a0 df3f ae80 8a3f
00000010: ac6e ae3f

layers.9.weight f4 [3, 5]
0.26651672 0.15291086 -0.15978384 -0.35267338 0.17952894 0.29361564 -0.38386115 0.14036262
-0.33321667 -0.009218605 -0.23491946 -0.22826308 0.34882462 -0.16658592 0.12882927
00000000: e174 883e aa94 1c3e 609e 23be 9b91 b4be
00000010: 6fd6 373e ca54 963e 7389 c4be 38bb 0f3e
00000020: 609b aabe a209 17bc ba8e 70be ccbd 69be
00000030: 2499 b23e 8095 2abe d2eb 033e

layers.9.bias f4 [3]
0.2009791 -0.36269885 -0.32114297
00000000: 77cd 4d3e aab3 b9be da6c a4be

exp_avg f4 [5]
-0.00021798213 1.9827829e-05 -0.0009805218 9.436616e-05 0.0010925088
00000000: 2292 64b9 f053 a637 da84 80ba 72e6 c538
00000010: 8332 8f3a

exp_avg_sq f4 [5]
9.634242e-09 9.281836e-09 2.5683466e-08 2.994577e-09 3.5191842e-08
00000000: d883 2532 f275 1f32 8a9e dc32 28c9 4d31
00000010: d725 1733

exp_avg f4 [5]
6.959916e-11 -6.042103e-11 -3.4526538e-11 -6.736857e-11 -7.0811315e-11
00000000: d80c 992e 04de 84ae 6dd9 17ae 2225 94ae
00000010: 3ab7 9bae

exp_avg_sq f4 [5]
3.44168e-22 6.0066303e-22 8.4452657e-22 3.6837214e-22 8.254024e-22
00000000: 6b09 d01b 0d8a 351c 143e 7f1c d4aa de1b
00000010: 6b76 791c

exp_avg f4 [10, 5]
-0.0011373871 0.001122721 0.0012753536 0.0006393348 -0.00036581332 0.00039316033 0.00025318665 0.0016652658
-0.00079079106 0.00082802196 0.001130193 -0.0011127179 0.00021695919 0.00047611387 -0.00021770416 -0.00028540596
-0.00049059925 0.0014886755 -0.0015282904 0.0004963901 -0.0020981496 -0.0017639243 0.00072974805 0.0015839924
-0.00082835037 0.0014508864 1.21597e-05 -0.000597339 -2.1848887e-06 0.0006196276 -0.00019625221 0.00042425696
-0.001977037 0.00079683244 0.0011700096 -0.0021933878 -0.0017887454 -0.0005710224 -0.0007656465 0.00059523317
0.003049594 0.0013012773 -0.0012479752 -0.0011449372 0.00016131822 0.002659221 -0.0001569012 0.00080780115
-7.786684e-05 0.0007864217
00000000: 6114 95ba 4428 933a c429 a73a 0899 273a
00000010: a2ca bfb9 1621 ce39 23be 8439 0c45 da3a
00000020: 174d 4fba 9d0f 593a fc22 943a 9ed8 91ba
00000030: 8a7f 6339 ec9e f939 8447 64b9 8aa2 95b9
00000040: 8f9b 00ba a91f c33a eb50 c8ba 2d20 023a
00000050: 1c81 09bb 7a33 e7ba 904c 3f3a f79d cf3a
00000060: a725 59ba ab2b be3a 8401 4c37 be96 1cba
00000070: 1aa0 12b6 816e 223a 0dc9 4db9 ce6e de39
00000080: 2d91 01bb 85e2 503a 025b 993a f1be 0fbb
00000090: 5674 eaba aab0 15ba abb5 48ba 6c09 1c3a
000000a0: b2db 473b 9f8f aa3a 1993 a3ba b811 96ba
000000b0: 8827 2939 5346 2e3b d885 24b9 9ec2 533a
000000c0: 714c a3b8 de27 4e3a

exp_avg_sq f4 [10, 5]
3.648984e-08 3.2146612e-08 4.2632482e-08 3.990447e-08 3.9383412e-08 1.8696294e-08 2.2410696e-08 8.4054115e-08
2.1733438e-08 3.1744555e-08 3.761875e-08 3.494867e-08 1.0238278e-08 2.508872e-08 1.5725456e-09 1.1055567e-08
2.3484521e-08 5.8844492e-08 6.2903005e-08 6.8402928e-09 1.4602917e-07 8.298044e-08 3.2737717e-08 8.2312894e-08
2.984977e-08 7.212576e-08 1.1230032e-09 1.103198e-08 1.8539317e-09 1.3372637e-08 2.1825462e-08 8.201785e-08
9.708374e-08 2.1385016e-08 8.85932e-08 1.2955478e-07 1.13906914e-07 1.1998112e-08 2.056488e-07 9.482089e-09
2.5047493e-07 4.9655135e-08 5.749302e-08 5.31494e-08 4.836857e-09 2.0333658e-07 1.1516798e-08 1.7336198e-08
8.916925e-09 5.5726545e-08
00000000: 01b9 1c33 9311 0a33 e91a 3733 6e63 2b33
00000010: 8526 2933 9699 a032 a481 c032 3d81 b433
00000020: 56b0 ba32 8257 0833 4192 2133 781a 1633
00000030: 6ce4 2f32 ae82 d732 0821 d830 e6ee 3d32
00000040: 02bb c932 34bc 7c33 4b15 8733 da07 eb31
00000050: 31cc 1c34 fb32 b233 809b 0c33 fec3 b033
00000060: 2b34 0033 8ee3 9a33 2a58 9a30 2987 3d32
00000070: 6ccd fe30 7bbd 6532 b37a bb32 ca21 b033
00000080: 5a7c d033 26b2 b732 a040 be33 bf1b 0b34
00000090: fd9c f433 4120 4e32 50d0 5c34 abe6 2232
000000a0: 0379 8634 6644 5533 3eee 7633 6246 6433
000000b0: 7231 a631 bc54 5a34 6adb 4532 b4ea 9432
000000c0: 0d31 1932 fc57 6f33

exp_avg f4 [10]
-3.175471e-11 4.3117218e-11 -7.2106314e-12 -1.3031723e-10 -8.791118e-11 -6.019239e-11 3.1117012e-11 1.4850607e-11
5.374022e-11 -3.223061e-11
00000000: a0a8 0bae aca1 3d2e 98b3 fdac 0a49 0faf
00000010: 9851 c1ae 4e5d 84ae a4da 082e 98a0 822d
00000020: 1c5a 6c2e 71c0 0dae

exp_avg_sq f4 [10]
4.1568325e-22 5.978034e-22 2.8589857e-22 2.0657168e-21 3.8922496e-22 1.3992773e-21 3.2920546e-22 2.947452e-21
1.1537015e-21 4.2172807e-22
00000000: de43 fb1b ccac 341c a9d0 ac1b c614 1c1d
00000010: a545 eb1b eb73 d31c 14fe c61b 03b4 5e1d
00000020: aa57 ae1c 42eb fe1b

exp_avg f4 [10]
0.00073454116 0.0012296103 -9.695058e-05 -0.00031948386 0.00010073863 -0.00012466255 -0.0003027331 -0.00017226985
-0.0010795143 6.5317414e-05
00000000: 398e 403a e02a a13a f251 cbb8 6680 a7b9
00000010: a443 d338 d9b7 02b9 26b8 9eb9 56a3 34b9
00000020: 7d7e 8dba 05fb 8838

exp_avg_sq f4 [10]
1.604914e-08 4.101795e-08 1.521684e-09 5.49484e-09 5.407117e-09 5.4701577e-09 5.2596607e-09 2.8977243e-09
2.7115059e-08 1.1226592e-09
00000000: 6fdc 8932 b72b 3033 7f23 d130 20cd bc31
00000010: 81c9 b931 04f4 bb31 77b8 b431 4e21 4731
00000020: a5ea e832 0f4c 9a30

exp_avg f4 [10]
0.0007590072 0.00013662214 -0.0003370297 -0.00023603618 -0.00016927217 0.000103816856 0.00013329531 -0.0009838778
-0.00044905036 -0.0004115691
00000000: 1cf8 463a 3a42 0f39 5cb3 b0b9 7b80 77b9
00000010: a77e 31b9 40b8 d938 30c5 0b39 76f5 80ba
00000020: 856e ebb9 dfc7 d7b9

exp_avg_sq f4 [10]
1.557721e-08 2.8133265e-09 2.7924196e-09 3.4587984e-09 5.253846e-09 5.4105e-10 1.4437964e-09 2.271221e-08
5.0524553e-09 3.8357837e-09
00000000: a6ce 8532 9054 4131 c4e4 3f31 d3af 6d31
00000010: 5185 b431 02b9 1430 126f c630 ae18 c332
00000020: de99 ad31 e9cb 8331

exp_avg f4 [5, 10]
-0.0009997357 0.0007931097 9.044012e-05 -2.7484908e-05 7.3921838e-06 0.0008919119 -0.00093486893 0.000845816
0.0009089984 0.00105635 0.00036462373 0.00016319202 0.0013426834 0.00074946875 0.00022149863 -3.5813406e-05
0.00085118087 0.0014671938 -9.955878e-05 0.0005609633 -0.0003615567 0.00013123755 -0.00128916 -0.00048822392
-0.0008607461 3.206643e-05 -0.0009188205 -0.00070155837 -0.0030622582 0.00080887455 -0.0015948885 0.0045549423
-0.00219718 -0.0026384157 -1.0357366e-05 -0.0011717653 0.0001256788 0.00050189986 -0.0004442923 -0.00032851181
-0.00014684464 0.0018273615 -0.00012252718 -0.0016188162 0.0005361035 -0.00010777384 0.00041259849 -0.000507737
0.0008080087 -0.00059392845
00000000: 9009 83ba b1e8 4f3a abaa bd38 648f e6b7
00000010: 600a f836 32cf 693a fe11 75ba c0b9 5d3a
00000020: da49 6e3a 3975 8a3a f82a bf39 861e 2b39
00000030: fbfc af3a ff77 443a 1642 6839 5a36 16b8
00000040: c821 5f3a db4e c03a 37ca d0b8 9c0d 133a
00000050: 528f bdb9 d09c 0939 08f9 a8ba 4ef8 ffb9
00000060: b1a3 61ba 117f 0638 00dd 70ba c9e8 37ba
00000070: 2bb0 48bb a70a 543a 940b d1ba a041 953b
00000080: 90fe 0fbb 45e9 2cbb 8cc4 2db7 eb95 99ba
00000090: a5c8 0339 ee91 033a e7ef e8b9 1c3c acb9
000000a0: 4ffa 19b9 1484 ef3a a47a 00b9 752e d4ba
000000b0: 4c89 0c3a a404 e2b8 0852 d839 a719 05ba
000000c0: 8cd0 533a ddb1 1bba

exp_avg_sq f4 [5, 10]
5.5201657e-08 1.778137e-08 5.52424e-09 8.0036635e-09 1.5402463e-08 7.7071796e-08 4.5485685e-08 1.6956525e-08
1.941334e-08 3.069897e-08 3.1591632e-08 6.9650934e-09 5.4097583e-08 1.4282468e-08 2.7681054e-08 9.262635e-09
2.586241e-08 5.2822124e-08 1.46521195e-08 1.11213465e-08 1.3106273e-08 1.3415688e-08 5.967012e-08 9.39758e-09
2.579193e-08 4.196155e-09 2.0676055e-08 1.5487037e-08 2.421884e-07 3.4352116e-08 7.1719235e-08 5.5519797e-07
1.2861805e-07 2.1719725e-07 5.495046e-09 5.3227488e-08 1.7799422e-08 8.6174424e-08 6.0861325e-09 1.7193756e-08
6.4101977e-09 7.888366e-08 1.2019799e-08 7.3777976e-08 7.1174604e-09 1.6337221e-08 4.6212794e-09 2.1127137e-08
1.5486876e-08 9.495102e-09
00000000: dd16 6d33 a5bd 9832 bbcf bd31 7c80 0932
00000010: 604e 8432 ab82 a533 0a5c 4333 cba7 9132
00000020: 63c2 a632 e0d9 0333 5eaf 0733 9c51 ef31
00000030: ec58 6833 f55e 7532 48c7 ed32 8021 1f32
00000040: 0b28 de32 8ade 6233 b4b8 7b32 3310 3f32
00000050: 002a 6132 d27a 6632 ff23 8033 fe72 2132
00000060: 0e8d dd32 c52d 9031 209b b132 5b08 8532
00000070: 1f06 8234 8d8a 1333 1104 9a33 ea08 1535
00000080: 431a 0a34 ba36 6934 f0ce bc31 3e9c 6433
00000090: 58e5 9832 e40e b933 301e d131 78b1 9332
000000a0: b240 dc31 c066 a933 a37f 4e32 df6f 9e33
000000b0: d88d f431 ee55 8c32 34c9 9e31 117b b532
000000c0: 0008 8532 e61f 2332

exp_avg f4 [5]
8.935368e-12 -9.97888e-11 8.6917435e-12 -1.8413672e-10 5.034553e-11
00000000: 5231 1d2d 1a70 dbae 22e8 182d e175 4aaf
00000010: 076c 5d2e

exp_avg_sq f4 [5]
1.1942476e-21 1.8430176e-21 2.6064863e-21 2.8685065e-21 1.92595e-21
00000000: 3778 b41c 2541 0b1d c7f0 441d fcbc 581d
00000010: 4a85 111d

exp_avg f4 [5]
3.077198e-06 5.2477617e-07 2.8821735e-06 8.092966e-06 3.1283332e-06
00000000: dc81 4e36 58de 0c35 5d6b 4136 06c7 0737
00000010: 5bf0 5136

exp_avg_sq f4 [5]
2.6522716e-13 1.5196903e-14 2.024905e-13 1.5336465e-12 2.4362286e-13
00000000: 434f 952a ace1 8828 eafb 632a 70d7 d72b
00000010: c125 892a

exp_avg f4 [5]
-0.0006208667 -0.00017152223 0.0005332031 0.0014897855 -0.00059463514
00000000: a9c1 22ba a6da 33b9 a8c6 0b3a e844 c33a
00000010: 4ae1 1bba

exp_avg_sq f4 [5]
1.0077578e-08 1.2341932e-09 7.2694277e-09 5.286924e-08 8.408809e-09
00000000: a821 2d32 50a0 a930 90c6 f931 5812 6333
00000010: 5576 1032

exp_avg f4 [5]
-0.0056616026 -0.004128263 0.0041164695 0.0057526673 -0.0036508492
00000000: f784 b9bb 6146 87bb 73e3 863b df80 bc3b
00000010: 1643 6fbb

exp_avg_sq f4 [5]
7.7226065e-07 3.9404185e-07 4.1032578e-07 7.9635885e-07 3.062753e-07
00000000: 594d 4f35 b38c d334 bf4a dc34 5dc5 5535
00000010: 286e a434

exp_avg f4 [5]
-0.0048953723 -0.0035082076 0.0037552041 0.0051543377 -0.0033191286
00000000: 5c69 a0bb f5e9 65bb df19 763b b8e5 a83b
00000010: bd85 59bb

exp_avg_sq f4 [5]
5.653469e-07 2.8423878e-07 3.4121203e-07 6.362642e-07 2.5317001e-07
00000000: 58c2 1735 7b99 9834 d32f b734 becb 2a35
00000010: 6ceb 8734

exp_avg f4 [5]
0.0008505159 0.00062392274 -0.00074339303 -0.0008897635 0.00051169435
00000000: 28f5 5e3a bf8e 233a 43e0 42ba 053f 69ba
00000010: 3a23 063a

exp_avg_sq f4 [5]
1.7362806e-08 8.973364e-09 1.34444065e-08 1.9129187e-08 5.998311e-09
00000000: 3725 9532 4629 1a32 20f9 6632 8751 a432
00000010: b419 ce31

exp_avg f4 [5]
-0.00014803137 -0.000100593505 7.1450624e-05 0.0002093162 -0.00010030754
00000000: de38 1bb9 baf5 d2b8 c3d7 9538 e47b 5b39
00000010: 335c d2b8

exp_avg_sq f4 [5]
5.465811e-10 2.340267e-10 1.24678e-10 1.0841316e-09 2.3474078e-10
00000000: 3a3e 1630 54a8 802f bd15 092f 7d00 9530
00000010: d40c 812f

exp_avg f4 [3, 5]
-0.021358272 -0.02356242 -0.024306934 -0.017294735 -0.018603962 0.0 0.0 0.0
0.0 0.0 0.0 0.0 0.0 0.0 0.0
00000000: 8bf7 aebc fa05 c1bc 561f c7bc b0ad 8dbc
00000010: 5667 98bc 0000 0000 0000 0000 0000 0000
00000020: 0000 0000 0000 0000 0000 0000 0000 0000
00000030: 0000 0000 0000 0000 0000 0000

exp_avg_sq f4 [3, 5]
1.0807965e-05 1.2894896e-05 1.4084903e-05 7.110445e-06 8.064714e-06 0.0 0.0 0.0
0.0 0.0 0.0 0.0 0.0 0.0 0.0
00000000: db53 3537 2857 5837 334e 6c37 4296 ee36
00000010: af4d 0737 0000 0000 0000 0000 0000 0000
00000020: 0000 0000 0000 0000 0000 0000 0000 0000
00000030: 0000 0000 0000 0000 0000 0000

exp_avg f4 [3]
-0.17232756 0.0 0.0
00000000: a376 30be 0000 0000 0000 0000

exp_avg_sq f4 [3]
0.0006981508 0.0 0.0
00000000: 1b04 373a 0000 0000 0000 0000
