lightning_logs/version_33/checkpoints/epoch=3-step=8.ckpt (torch, 28460 bytes, 56 tensors)

layers.0.weight f4 [5]
000000 ae 18 80 3f cf 83 80 3f 8e d9 7d 3f 21 be 7e 3f
       1.0007532 1.0040225 0.9916009 0.99508864
000010 01 25 81 3f
       1.0089418

layers.0.bias f4 [5]
000000 b6 ad ac 38 38 d9 0d b6 4c a1 97 37 aa 7e 87 36
       8.233955e-05 -2.1137075e-06 1.8075712e-05 4.038059e-06
000010 a8 bc 7e b8
       -6.073402e-05

layers.0.running_mean f4 [5]
000000 a3 86 83 42 04 9c 83 42 12 9b 83 42 22 89 83 42
       65.76296 65.80472 65.80287 65.76784
000010 a7 87 83 42
       65.764946

layers.0.running_var f4 [5]
000000 b3 72 10 3f 51 fc 0f 3f fb b5 16 3f c1 81 0e 3f
       0.5642502 0.5624438 0.5887143 0.5566674
000010 97 2a 14 3f
       0.57877487

layers.1.weight f4 [10, 5]
000000 bd 85 38 3e c4 10 84 be fb c7 6d be 34 d2 63 be
       0.18019767 -0.2579404 -0.23220818 -0.22248155
000010 3d 58 c4 3e fc 40 bf 3e a2 5f 94 be 87 86 26 3e
       0.3834857 0.37354267 -0.28979212 0.16262256
000020 f8 57 90 3e 8c b2 7d be 5a ce 99 3e b6 35 c0 3e
       0.28192115 -0.24775141 0.30040246 0.37540978
000030 8b 0c c1 be af 77 25 be a0 2d be 3d 75 38 87 3d
       -0.37704882 -0.16158937 0.09286046 0.06602565
000040 20 b3 d8 3e 3f 55 73 3e 62 8c 92 3e fd 2d 94 be
       0.42324162 0.23762988 0.2862273 -0.28941336
000050 16 e1 b4 be e2 7e ba 3d f5 bc b8 be b5 46 8d be
       -0.35327977 0.09106232 -0.36081663 -0.27593008
000060 81 5e 6e 3e 48 c1 6b 3d 9e 46 a1 be 11 47 10 3e
       0.23278238 0.057557374 -0.3149919 0.1408961
000070 35 a7 dc 3e ca d9 48 3d 07 d0 87 bd 30 0e d6 3e
       0.4309632 0.049035825 -0.06631475 0.418077
000080 a0 cf d9 bd 29 78 c4 be 96 70 2b be a5 e8 63 3d
       -0.106353045 -0.38372925 -0.16742167 0.05564179
000090 76 62 3b be 78 fc bd 3e 20 77 06 be 2f db 0c 3d
       -0.18299279 0.3710668 -0.1313138 0.034388717
0000a0 35 93 d5 3e f0 16 3a 3e b4 c6 8a be 87 1d 11 3e
       0.41713873 0.18172812 -0.27104723 0.1417142
0000b0 e8 17 d8 be b0 84 79 bd bc 41 d2 be 79 5f 89 be
       -0.4220574 -0.060917556 -0.41065776 -0.26830652
0000c0 a9 59 ad 3e 6b cd 82 3e
       0.33857468 0.25547346

layers.1.bias f4 [10]
000000 00 09 9e bc ff 56 49 3e 5c 8f c4 3e 80 43 ab be
       -0.0192914 0.19662093 0.38390625 -0.33449936
000010 06 3d 41 be c3 c3 91 be c1 5e 1c be 65 c2 c8 be
       -0.18870935 -0.28469667 -0.15270521 -0.3921081
000020 60 9c c9 be 2b bd 1d bd
       -0.39377117 -0.038510483

layers.2.weight f4 [10]
000000 42 0a 80 3f c7 7b 7e 3f 2d b2 7f 3f 9f 9b 7f 3f
       1.000313 0.9940762 0.9988125 0.99846834
000010 5f e0 7d 3f f8 0b 81 3f 92 3c 81 3f d2 0b 81 3f
       0.9917049 1.0081778 1.009661 1.0081732
000020 0e d8 80 3f 68 75 7d 3f
       1.0065935 0.9900727

layers.2.bias f4 [10]
000000 2e fb 11 3c df e3 0a bc 09 39 13 3b 94 bc 96 bb
       0.008909984 -0.00847718 0.0022464416 -0.004600117
000010 ff 7e 08 bc 0b 28 02 3c 71 8e 19 3c f0 0f 17 3c
       -0.0083310595 0.007944117 0.00937234 0.009220108
000020 4c 80 cf 3b 11 2e 21 3c
       0.006332433 0.009837643

layers.2.running_mean f4 [10]
000000 31 af 4e bc 75 1e 03 3e 8e 08 80 3e 3a 13 5f be
       -0.012615011 0.12804587 0.25006527 -0.21784678
000010 0c b1 fb bd 74 d8 3d be 76 a5 cb bd 05 c4 82 be
       -0.122896284 -0.18539602 -0.099436685 -0.25540176
000020 93 4e 83 be 19 b5 cd bc
       -0.25645885 -0.025110768

layers.2.running_var f4 [10]
000000 1e 89 10 3f 00 22 18 3f 4f 66 1f 3f 08 7f 18 3f
       0.56459224 0.5942688 0.62265486 0.59568834
000010 a0 53 15 3f 04 a0 0f 3f 56 a9 1a 3f a1 02 f2 3e
       0.58330727 0.5610354 0.60414636 0.4726763
000020 75 e9 2b 3f fb 82 22 3f
       0.671531 0.6348111

layers.4.weight f4 [5, 10]
000000 b9 ac d9 bd 13 04 c0 3d d0 d0 69 bc 34 ca 92 be
       -0.10628647 0.09375777 -0.014270976 -0.28669894
000010 d9 cd 12 3e 34 bf 3f 3e 82 c1 2a be 97 20 2d bd
       0.14336337 0.18725282 -0.1667538 -0.04226741
000020 78 24 bd bc c4 6b 88 3e a7 f7 3c be 32 7d 39 3d
       -0.023088679 0.2664472 -0.18453847 0.04528541
000030 43 56 6b 3e b9 66 2a 3e 85 f3 52 be 43 38 9d be
       0.22982125 0.16640748 -0.20600708 -0.30706987
000040 6b 52 d5 bd 17 02 47 be c8 1f 83 bd 72 82 7e be
       -0.104161106 -0.19434391 -0.06402546 -0.24854448
000050 b2 0f 2d 3e a4 c4 48 be 88 0c 76 be a4 56 1e 3e
       0.16900519 -0.19606262 -0.24028218 0.15462738
000060 ea 87 87 3e e4 c3 74 3e 60 07 7b be 14 91 a8 3d
       0.26470882 0.23902851 -0.24514532 0.082307965
000070 70 b6 ae bd 02 cb 83 3d fc e2 fb 3c dd 87 aa 3c
       -0.08530891 0.06435205 0.030747883 0.020816738
000080 15 93 65 be b3 82 a1 3e 1b 4a 11 3d 19 8f 7f be
       -0.22419389 0.31545028 0.035471063 -0.24956931
000090 2f 3c a6 3e 94 83 c1 3d 74 5a 5f be d7 b0 7e be
       0.3246779 0.09448925 -0.21811849 -0.24872147
0000a0 1b 13 84 3e db cc 4c be 66 1b 9a bd 3d ba ef 3b
       0.25795826 -0.20000021 -0.07524757 0.0073159025
0000b0 84 23 79 be 55 8e e1 3d 09 b4 2d 3e 6d 38 07 3e
       -0.24329954 0.11013476 0.16963209 0.13205118
0000c0 c4 ec d4 bd 38 44 54 3e
       -0.10396722 0.20729148

layers.4.bias f4 [5]
000000 82 49 80 3e b0 a0 e4 3d af ca 8b be c4 cc 91 3d
       0.25056082 0.11163461 -0.27303073 0.07119134
000010 27 c2 2d be
       -0.16968594

layers.5.weight f4 [5]
000000 8c 32 7e 3f e4 c2 7d 3f 58 45 7e 3f e1 d0 7d 3f
       0.9929588 0.99125504 0.9932456 0.9914685
000010 d6 29 7e 3f
       0.99282587

layers.5.bias f4 [5]
000000 e3 51 20 3c 81 64 21 bc c4 58 22 3c 8a 8a 1e bc
       0.009785148 -0.009850622 0.009908859 -0.009676585
000010 2e 6d 23 3c
       0.009974761

layers.5.running_mean f4 [5]
000000 1c ba 3d 3e a3 e6 2c be f6 71 f4 bd 8b ae 0e 3c
       0.18528026 -0.16884856 -0.11935799 0.0087086065
000010 48 91 ec bc
       -0.02887787

layers.5.running_var f4 [5]
000000 c1 43 e6 3e e4 58 ea 3e 9c b3 db 3e 88 70 f4 3e
       0.44973567 0.45770943 0.4291047 0.47742105
000010 ff 5c c7 3e
       0.38938138

layers.7.weight f4 [5]
000000 3b 44 81 3f 0c 8b 7d 3f 8a 45 81 3f 7b 9e 7d 3f
       1.0098947 0.99040294 1.0099347 0.99069947
000010 0f 45 81 3f
       1.00992

layers.7.bias f4 [5]
000000 a4 11 24 3c e1 cb 1f bc 1e 51 24 3c b0 65 1a bc
       0.0100139715 -0.009753198 0.0100291055 -0.009423658
000010 21 1a 24 3c
       0.010015995

layers.7.running_mean f4 [5]
000000 d3 5a 86 3e 6f f5 84 3e 41 83 83 3e 8b d3 86 3e
       0.26241168 0.259685 0.25686076 0.2633327
000010 0d e4 81 3e
       0.253693

layers.7.running_var f4 [5]
000000 e8 9c 1d 3f d6 e5 03 3f c8 b0 0e 3f 70 b0 06 3f
       0.61567545 0.51522577 0.55738497 0.5261297
000010 74 6d 22 3f
       0.6344826

layers.8.rho f4 [5]
000000 a7 e6 de 3f 2c 85 91 3f 81 9e cb 3f 9e d5 cd 3f
       1.741414 1.1368766 1.5907747 1.6080816
000010 06 8c a8 3f
       1.3167732

layers.8.gam f4 [5]
000000 bc 37 d7 3f 04 60 c0 3f 82 9d ae 3f 82 2c 9d 3f
       1.6813884 1.5029302 1.3641818 1.2279208
000010 90 84 e6 3f
       1.8009205

layers.9.weight f4 [3, 5]
000000 b8 3b c2 3e f8 69 80 be 55 89 ad 3e f7 0d 81 3b
       0.37936187 -0.25080848 0.3389384 0.0039384323
000010 f8 8e 82 3e 6e fd b0 3e 20 99 8e be 14 f0 85 3e
       0.25499701 0.34568352 -0.278512 0.26159728
000020 af ef ce be c3 66 dd be b1 f4 97 3e fd 4a 98 3d
       -0.4041724 -0.43242463 0.29678872 0.07436178
000030 52 b8 d8 3e 39 eb b0 be f2 c5 14 bc
       0.42328125 -0.3455446 -0.009080397

layers.9.bias f4 [3]
000000 42 8a cb 3c d7 9d e4 be 9a cd 96 bd
       0.0248462 -0.44651672 -0.07363434

exp_avg f4 [5]
000000 31 91 93 38 92 31 e2 b9 14 8b 95 3a 14 ef b9 39
       7.03655e-05 -0.00043143012 0.0011409246 0.00035464077
000010 28 47 93 ba
       -0.0011236416

exp_avg_sq f4 [5]
000000 40 d1 dd 31 0e 5c 13 33 b6 42 7f 33 28 74 03 32
       6.4557355e-09 3.4309828e-08 5.9432487e-08 7.6516145e-09
000010 39 90 11 33
       3.3891613e-08

exp_avg f4 [5]
000000 02 9c 49 ad 61 75 20 2f a7 93 27 2e b6 28 52 ae
       -1.1460168e-11 1.4593617e-10 3.8102545e-11 -4.778463e-11
000010 75 ff 83 2e
       6.0025686e-11

exp_avg_sq f4 [5]
000000 9e 85 be 1b dc 7c 36 1d 14 89 9d 1b e0 31 60 1d
       3.1519211e-22 2.415205e-21 2.6062056e-22 2.9671938e-21
000010 c8 da 74 1c
       8.1015596e-22

exp_avg f4 [10, 5]
000000 cd d3 24 bb f5 15 b0 ba eb 74 93 bb 19 55 9e 3a
       -0.0025150657 -0.0013434278 -0.0045000217 0.0012079804
000010 7f 88 f5 ba c0 57 2c 38 8c 15 45 38 95 18 11 3b
       -0.0018732696 4.108972e-05 4.6988527e-05 0.0022139896
000020 a0 56 d0 3a 5e ea 5e 3b 08 68 be b9 a2 4c 59 ba
       0.0015894957 0.0034014205 -0.00036317133 -0.0008289312
000030 00 67 97 b8 95 b2 d7 ba 9e e0 9c 3a f3 22 8c ba
       -7.219426e-05 -0.001645642 0.0011968797 -0.0010691568
000040 a6 30 69 ba ac c4 42 b9 5a f3 76 3a f4 cd 3b ba
       -0.0008895494 -0.00018574548 0.00094204175 -0.00071641733
000050 9d 5a 07 bb dd 39 45 bb 46 3a 5c b9 43 23 26 3b
       -0.0020653375 -0.0030094304 -0.00021002544 0.0025350607
000060 80 eb 18 3a 2a 63 b8 3a 6c 4e 22 bb 95 fd b3 bb
       0.0005833432 0.0014067639 -0.0024765981 -0.005492876
000070 82 42 90 b9 2c d1 4c b9 be 80 24 39 16 85 40 ba
       -0.00027515372 -0.00019532879 0.00015688219 -0.000734405
000080 09 d5 f2 ba 58 e7 82 ba 03 1e dc 3a 0c 25 9e ba
       -0.0018526624 -0.0009987159 0.0016793612 -0.0012065484
000090 b6 ac 04 ba cb f1 49 b9 ae d4 2d ba 6d 39 d7 ba
       -0.00050611363 -0.00019258929 -0.0006631118 -0.0016420312
0000a0 10 b7 e6 37 20 3c a0 b8 be bd 32 38 ce ae 17 b9
       2.7503382e-05 -7.640594e-05 4.261522e-05 -0.00014465602
0000b0 b4 05 a6 b8 ca 11 c8 3a 6d 90 7c 3a ea 6a 80 ba
       -7.916559e-05 0.0015264091 0.0009634558 -0.0009797488
0000c0 ea 75 c4 b8 35 fd 76 3a
       -9.3679715e-05 0.0009421886

exp_avg_sq f4 [10, 5]
000000 9a c9 49 34 1c ba 9d 33 f9 de 0c 35 5c 3f 9c 33
       1.8792926e-07 7.344735e-08 5.247853e-07 7.275841e-08
000010 80 5e cd 33 6a 90 19 33 ce 9c aa 32 2e 9a 14 34
       9.563246e-08 3.5754432e-08 1.9861911e-08 1.3839664e-07
000020 1d a2 be 33 ac ea a5 34 24 c0 3c 32 9b 27 4e 33
       8.877053e-08 3.090439e-07 1.0986728e-08 4.7999134e-08
000030 ca 8e a1 32 12 4e a7 33 02 24 49 33 28 60 07 33
       1.88078e-08 7.7907444e-08 4.683171e-08 3.151959e-08
000040 e2 ee 01 33 d3 49 65 32 fa c8 2c 33 72 2c 90 32
       3.0252416e-08 1.334634e-08 4.0229658e-08 1.6784018e-08
000050 ae 18 1e 34 e4 fb 64 34 82 61 23 33 ea 73 65 34
       1.4723875e-07 2.1325792e-07 3.8040078e-08 2.1369456e-07
000060 fe 65 4e 33 fa 25 c7 33 26 e9 7f 34 e1 cc 61 35
       4.8055874e-08 9.2735675e-08 2.3833545e-07 8.411717e-07
000070 d6 24 8e 33 e1 f4 1d 33 37 af d1 32 06 44 04 33
       6.619091e-08 3.6777127e-08 2.441048e-08 3.0795512e-08
000080 f4 07 f4 33 a8 45 2d 33 0a fc a7 33 92 e6 70 33
       1.1363582e-07 4.0343053e-08 7.822389e-08 5.6089057e-08
000090 8d f5 98 32 ce ae 27 32 df 99 ff 32 cf e0 ae 33
       1.7806792e-08 9.760425e-09 2.975588e-08 8.143399e-08
0000a0 98 60 c6 30 0e 89 6d 31 4c 04 6b 30 e7 d1 94 30
       1.443385e-09 3.4565946e-09 8.549861e-10 1.0828075e-09
0000b0 d3 57 af 30 e2 71 b5 33 0b 1b 61 33 8a 21 e2 33
       1.2757887e-09 8.4491845e-08 5.241149e-08 1.0530046e-07
0000c0 56 2a 39 32 4f 04 1f 33
       1.0778043e-08 3.702399e-08

exp_avg f4 [10]
000000 5d e8 66 ae 1d 55 b0 ad 36 c1 85 ad 43 41 70 2d
       -5.2502325e-11 -2.0046681e-11 -1.5206152e-11 1.36569115e-11
000010 9c 04 0c 2e e3 36 f7 2d 6e 62 d6 2d 16 60 b3 2d
       3.183641e-11 2.8105024e-11 2.4372695e-11 2.0392615e-11
000020 00 47 5d 2b d1 01 43 ae
       7.8613505e-13 -4.433948e-11

exp_avg_sq f4 [10]
000000 53 0d 44 1d 56 f8 68 1c b7 bc ed 1c 6c b9 2e 1c
       2.5947272e-21 7.708333e-22 1.5732126e-21 5.7811423e-22
000010 c2 d6 62 1d 6a a0 77 1d e4 40 42 1c 89 c1 55 1c
       3.0021878e-21 3.277311e-21 6.4273085e-22 7.0725927e-22
000020 80 64 9a 19 45 b3 4f 1d
       1.5963818e-23 2.7488902e-21

exp_avg f4 [10]
000000 94 e6 3e 39 ee d4 82 39 a6 dc 9a 38 96 98 9b b8
       0.00018205709 0.00024954177 7.384391e-05 -7.419397e-05
000010 8f 98 88 3a cd 4b 6e ba 4f 9b 97 ba 00 ac 08 ba
       0.0010421443 -0.00090902747 -0.0011566671 -0.0005213618
000020 82 4f 0e b9 f0 de a9 3a
       -0.00013571794 0.0012960117

exp_avg_sq f4 [10]
000000 86 99 5e 32 86 d6 12 32 99 4d bc 31 0c 4a 2e 31
       1.2957008e-08 8.5470955e-09 5.480342e-09 2.5362423e-09
000010 cb 1d 56 33 63 33 40 33 ef ce 0e 33 68 74 25 32
       4.9852854e-08 4.475022e-08 3.3250156e-08 9.630732e-09
000020 1f 0b a7 30 88 d3 42 33
       1.215401e-09 4.536153e-08

exp_avg f4 [10]
000000 4e e4 4c ba de 5c c5 39 09 d2 44 b9 b0 a8 d7 37
       -0.00078160025 0.0003764396 -0.00018770261 2.5708548e-05
000010 73 98 6b 3a 91 d5 29 ba 0e 93 ba ba 2a 40 a6 b9
       0.0008987255 -0.0006478662 -0.00142345 -0.00031709793
000020 1a c0 5c b9 a9 31 76 ba
       -0.00021052398 -0.0009391555

exp_avg_sq f4 [10]
000000 d5 84 96 32 a1 aa 25 32 02 5f 7b 32 0e 0b 17 32
       1.7522703e-08 9.643061e-09 1.4631725e-08 8.79187e-09
000010 b2 aa 26 33 a2 fa e4 32 d2 a8 82 33 d2 2e 9c 31
       3.8805133e-08 2.6656668e-08 6.084305e-08 4.5455204e-09
000020 4f 04 2d 31 c7 55 bd 32
       2.5177262e-09 2.2041503e-08

exp_avg f4 [5, 10]
000000 aa f7 95 3a 90 ba 01 b9 63 9a ec 3a d7 c3 99 3a
       0.0011441607 -0.00012371899 0.0018051382 0.0011731338
000010 9e 37 75 ba 6e a0 0c 3b c7 ed 03 3b 88 72 ac b8
       -0.0009354296 0.0021457928 0.002013074 -8.222932e-05
000020 a0 ee 70 b8 86 43 fb 3a 32 44 60 39 10 13 b9 b9
       -5.7442696e-05 0.0019169904 0.0002138771 -0.00035300152
000030 63 38 87 b9 7c 6f a3 b8 36 24 d3 39 2a aa 83 39
       -0.00025791218 -7.793211e-05 0.00040272035 0.0002511305
000040 18 17 db b9 80 39 1f b9 eb c6 9b ba 0d ee 02 ba
       -0.0004178814 -0.00015184842 -0.0011884844 -0.0004994579
000050 c8 be 3a 3a f7 bf 13 bb e0 e1 85 b8 69 ea 03 3b
       0.00071237655 -0.002254484 -6.384007e-05 0.0020128733
000060 75 50 b4 3b 5c 78 b4 bb 9d 1a 36 3b cf 81 a5 bb
       0.0055027553 -0.005507512 0.002778686 -0.005050875
000070 d8 c4 57 3b b8 9e 61 3b a4 68 b9 3a 9b 9c 09 ba
       0.0032923725 0.003442688 0.0014145565 -0.0005249471
000080 a6 df 50 ba 71 ce 6e b9 d6 d7 68 39 12 a2 ba 39
       -0.00079678965 -0.00022774354 0.0002220565 0.00035597436
000090 b0 66 bd ba 71 1a d8 3a 3b 64 4b ba f2 a5 72 b9
       -0.0014450159 0.0016487372 -0.0007758771 -0.00023140738
0000a0 a3 8a 26 3a df d5 61 3a bc c7 2d 3a 72 4b 06 3b
       0.0006353056 0.0008614938 0.0006629189 0.0020491746
0000b0 6a b1 83 3a a6 3f 96 3a a4 91 b7 3a 97 6d 26 bb
       0.001004738 0.001146306 0.0014005196 -0.002539491
0000c0 99 0a a7 3a 54 bc d5 3a
       0.0012744247 0.0016306737

exp_avg_sq f4 [5, 10]
000000 8e 31 07 34 36 9c ed 33 54 72 c0 33 5a f5 24 33
       1.2590883e-07 1.1064587e-07 8.961493e-08 3.840737e-08
000010 5c cf b6 33 66 6d 21 34 d9 04 d5 33 a0 b4 9b 33
       8.512754e-08 1.5034092e-07 9.919467e-08 7.2506054e-08
000020 2d 43 8b 33 a4 13 fd 33 bd 0a 9d 32 4c a1 f2 31
       6.484911e-08 1.1784803e-07 1.8282089e-08 7.0614643e-09
000030 ee a7 16 33 ef 59 21 33 b0 61 22 32 1d 2e c3 32
       3.5077328e-08 3.7567528e-08 9.451853e-09 2.2721958e-08
000040 9b 55 d3 32 5e 1f 0b 31 a8 3f 33 33 ca b5 e5 31
       2.4602562e-08 2.0244992e-09 4.173458e-08 6.685444e-09
000050 0a 03 c8 34 91 c5 91 34 08 20 e4 33 90 f8 58 34
       3.7255114e-07 2.7152103e-07 1.0622904e-07 2.0206994e-07
000060 dd 1e 88 35 52 d1 83 35 fb 87 69 34 a3 25 63 35
       1.0141772e-06 9.821181e-07 2.1749285e-07 8.461886e-07
000070 b4 85 92 34 e6 98 c8 34 b9 52 80 33 77 ff 05 32
       2.72919e-07 3.736415e-07 5.9755116e-08 7.799705e-09
000080 9a 58 9a 32 bf ce c5 31 43 32 71 31 5d 42 93 31
       1.796825e-08 5.756959e-09 3.5098686e-09 4.2858077e-09
000090 5c 58 7b 33 1a 79 b7 33 a3 c8 93 32 09 a8 bb 30
       5.8520854e-08 8.54363e-08 1.7204291e-08 1.3653799e-09
0000a0 60 7a 36 33 ec 94 ff 32 88 88 53 33 44 32 de 33
       4.2486477e-08 2.9753629e-08 4.925144e-08 1.0346824e-07
0000b0 e1 f0 13 33 2a 29 84 33 ce 3c 53 33 d0 2c 69 34
       3.4445183e-08 6.154217e-08 4.9182567e-08 2.1716119e-07
0000c0 73 2b 55 33 93 f6 c8 33
       4.9632444e-08 9.358077e-08

exp_avg f4 [5]
000000 e0 4b 30 ae 20 2c 1d ad 70 8b 83 ad 5b a4 3f 2d
       -4.0085157e-11 -8.9342145e-12 -1.4954898e-11 1.0893587e-11
000010 80 e7 55 af
       -1.9454482e-10

exp_avg_sq f4 [5]
000000 6f 64 65 1e af 3d bc 1b de 0d fc 1d c6 bf db 1b
       1.2143928e-20 3.1141853e-22 6.6718183e-21 3.6354442e-22
000010 2d 7d 59 1d
       2.8784425e-21

exp_avg f4 [5]
000000 78 b4 1f 37 d8 39 6b 36 bf a2 13 37 5e f7 a6 35
       9.519157e-06 3.5051398e-06 8.799775e-06 1.2439957e-06
000010 c1 92 a0 36
       4.785456e-06

exp_avg_sq f4 [5]
000000 4a b3 1b 2c 0e 73 ad 2a 96 f4 0f 2c 8a fe 45 29
       2.212635e-12 3.0810809e-13 2.0457295e-12 4.3963565e-14
000010 c5 15 1a 2b
       5.4742e-13

exp_avg f4 [5]
000000 40 31 f4 ba f4 7f 24 3a d2 87 f0 ba 76 79 64 39
       -0.00186304 0.000627517 -0.0018351024 0.00021789022
000010 73 56 6e ba
       -0.00090918614

exp_avg_sq f4 [5]
000000 40 cd b5 33 33 94 1f 32 86 b4 be 33 72 de a3 30
       8.465804e-08 9.288715e-09 8.8804015e-08 1.1923034e-09
000010 f1 cd a8 32
       1.9651425e-08

exp_avg f4 [5]
000000 5b cb 3c bc b9 c6 05 3a 9c 68 6a bc 32 da c7 39
       -0.011523093 0.00051031593 -0.014307167 0.00038118806
000010 8e 4b 63 bb
       -0.0034682485

exp_avg_sq f4 [5]
000000 05 71 4e 36 33 6c e8 31 d5 42 9d 36 12 32 94 31
       3.0762178e-06 6.7643895e-09 4.686745e-06 4.3130592e-09
000010 8b 8b 96 34
       2.8041208e-07

exp_avg f4 [5]
000000 fe 53 18 bc 3e 4c 90 3a 48 5d 46 bc ad c3 0d 3a
       -0.009297369 0.001100905 -0.012107201 0.0005407881
000010 ae 14 4e bb
       -0.0031445432

exp_avg_sq f4 [5]
000000 1d e4 05 36 80 40 fb 32 62 5d 63 36 d7 99 08 32
       1.9951324e-06 2.9249577e-08 3.3879992e-06 7.951221e-09
000010 5c 2e 78 34
       2.3113665e-07

exp_avg f4 [5]
000000 44 a5 cd 3a 23 e5 b9 b8 24 b7 0b 3b f9 28 6c b8
       0.0015689512 -8.8641675e-05 0.0021318877 -5.6304943e-05
000010 39 f1 10 3a
       0.0005529109

exp_avg_sq f4 [5]
000000 72 2d 74 33 24 8d 61 2f 4b e0 de 33 da 00 d0 2e
       5.685201e-08 2.0513774e-10 1.0378479e-07 9.458896e-11
000010 b3 04 f4 31
       7.101869e-09

exp_avg f4 [5]
000000 e2 ca c6 b9 3e a1 14 b8 b7 78 f9 b9 50 91 84 b7
       -0.00037916662 -3.543612e-05 -0.0004758292 -1.5803293e-05
000010 1f 09 9a b8
       -7.344991e-05

exp_avg_sq f4 [5]
000000 74 c2 67 31 4f 07 02 2e ce 8a b1 31 fb a4 de 2c
       3.3725458e-09 2.956507e-11 5.1671583e-09 6.327936e-12
000010 ad dd 0a 2f
       1.2629782e-10

exp_avg f4 [3, 5]
000000 71 ee 88 bc 2d b3 74 ba 99 bd 87 bc 02 ed 37 bc
       -0.01671526 -0.00093345606 -0.0165699 -0.011225941
000010 5e 0c 7d bc 00 00 00 00 00 00 00 00 00 00 00 00
       -0.015444843 0.0 0.0 0.0
000020 00 00 00 00 00 00 00 00 ad 7e 99 bc d6 65 66 b9
       0.0 0.0 -0.018737162 -0.00021972446
000030 1e 69 97 bc b0 49 ff b9 10 79 80 bc
       -0.018482741 -0.00048692292 -0.015682727

exp_avg_sq f4 [3, 5]
000000 6d 8a da 36 fe 1c d6 32 66 ac d4 36 1d b2 45 36
       6.513021e-06 2.4926063e-08 6.338162e-06 2.9458963e-06
000010 21 32 bb 36 00 00 00 00 00 00 00 00 00 00 00 00
       5.57887e-06 0.0 0.0 0.0
000020 00 00 00 00 00 00 00 00 24 ac 08 37 1d 0e 17 31
       0.0 0.0 8.146311e-06 2.1981414e-09
000030 78 2e 03 37 9d 0c f0 31 2a 8a be 36
       7.819028e-06 6.9863533e-09 5.6785257e-06

exp_avg f4 [3]
000000 37 9a 0e be 00 00 00 00 5c 11 4e bd
       -0.13926016 0.0 -0.050309524

exp_avg_sq f4 [3]
000000 f4 c8 ed 39 00 00 00 00 06 b0 73 38
       0.00045353884 0.0 5.809965e-05
