lightning_logs/version_60/checkpoints/epoch=3-step=8.ckpt (torch, 28460 bytes, 56 tensors)

layers.0.weight f4 [5]
00000000: 2b61 7d3f a073 7d3f f435 813f 0b38 7f3f
00000010: 902b 813f
0.9897639 0.99004555 1.009459 0.9969489 1.0091419

layers.0.bias f4 [5]
00000000: 7803 e5b7 efab b138 0ed0 2e3a e180 0339
00000010: af0d 4bb9
-2.7300543e-05 8.472043e-05 0.0006668576 0.00012541145 -0.00019364686

layers.0.running_mean f4 [5]
00000000: 2488 8342 cb8d 8342 e595 8342 8f96 8342
00000010: 4899 8342
65.7659 65.77694 65.79276 65.79406 65.79938

layers.0.running_var f4 [5]
00000000: d5a1 0e3f d0e4 0c3f 4148 103f c946 133f
00000010: c3ff 0f3f
0.55715686 0.5503664 0.5636025 0.57529885 0.56249636

layers.1.weight f4 [10, 5]
00000000: ba4b e5be 8649 2d3d 8dda 7b3c 1643 3dbd
00000010: 1a9e cbbe 4101 c83c a58e 28be 4bc9 bf3e
00000020: cf95 d9bc ba0d a13d 9071 a0be ded8 463e
00000030: e359 d2be 3c8a 01bd 2269 ca3e d476 9fbe
00000040: 9112 c03e 8910 7f3e c98c f5bd 0e39 38be
00000050: dbf3 7c3e 39ec 8a3e 6302 863e e022 de3d
00000060: f2fb b73d 5fae 41be 9a9c 8f3e 48cc bfbe
00000070: c6e1 4bbe be7c e7be 19fc 1fbe 3599 8fbe
00000080: a5be 413d 6bc5 c4be 0348 dfbd 6797 163e
00000090: 0fa1 5b3e 1b6f da3d 01b5 503d 4ddb a73e
000000a0: 165d 1e3e ab16 8ebe 667c 1dbe 3335 673e
000000b0: 8155 303e a9fc b2be 6bca 333d 574b 46be
000000c0: f641 e2be 6eef 51be
-0.44784337 0.042306446 0.015371931 -0.046206556 -0.3976906 0.02441466 -0.16460665 0.37458262
-0.026560692 0.07863946 -0.3133664 0.19418666 -0.41084203 -0.03162597 0.39533335 -0.31145346
0.37514165 0.24908651 -0.11989743 -0.17990515 0.24702398 0.2713335 0.26173696 0.10846496
0.08983602 -0.18914174 0.28049165 -0.37460542 -0.19910344 -0.45212358 -0.15623511 -0.28046575
0.047300953 -0.38431868 -0.10902407 0.14706193 0.21448158 0.10665723 0.05095387 0.327845
0.15465197 -0.2775167 -0.15379485 0.22578888 0.17220117 -0.3495839 0.043894213 -0.19364677
-0.4419095 -0.20501491

layers.1.bias f4 [10]
00000000: a032 8d3e f7af b2be c671 88be 2ec4 0bbd
00000010: d5b4 263e b36e d3be f300 dc3e 7b1f a6bd
00000020: 8a26 c2bd f41b 2abe
0.27577686 -0.34899876 -0.26649302 -0.03412264 0.1627992 -0.41295394 0.42969474 -0.08111473
-0.09480007 -0.16612226

layers.2.weight f4 [10]
00000000: c504 803f 44bd 803f 7266 7d3f 4a08 813f
00000010: b1da 7d3f a98e 7f3f a0e9 803f 4b62 803f
00000020: 9abc 803f 657a 7e3f
1.0001456 1.0057759 0.98984444 1.0080655 0.9916182 0.9982706 1.0071297 1.0029997
1.0057557 0.9940551

layers.2.bias f4 [10]
00000000: 5dc1 843b 8e61 1f3c 9593 ff3b 0e36 d23b
00000010: 09fd 5ebb a765 933a 94de 683b 8f96 9dbb
00000020: 333c c23b 3069 073c
0.004051371 0.009727849 0.0077995756 0.006415135 -0.0034025332 0.0011245505 0.0035533058 -0.0048092077
0.0059275865 0.008264825

layers.2.running_mean f4 [10]
00000000: dcf9 373e e6aa 68be b4ca 31be b2ba b5bc
00000010: 8942 d93d d1c0 89be 0e4c 8f3e 6536 58bd
00000020: 3568 7dbd b8a5 ddbd
0.17966408 -0.22721443 -0.17362481 -0.02218375 0.10608394 -0.2690492 0.27987713 -0.05278625
-0.061866958 -0.10822624

layers.2.running_var f4 [10]
00000000: 96ab 123f 7a11 ee3e a1aa 2a3f 8cbf 113f
00000010: 5dbb fa3e df1e 2d3f a3ba 013f f9b0 ed3e
00000020: 91df f83e f397 1a3f
0.5729307 0.4649771 0.6666661 0.569329 0.48971072 0.6762523 0.5067541 0.46424082
0.48608068 0.60388106

layers.4.weight f4 [5, 10]
00000000: ea9d 9a3d 3ac3 043e 5372 f2bd fb00 d13d
00000010: fde3 253e 0cac 8f3d 0d52 c03d 9b40 72be
00000020: 3994 943d c717 4ebe b4af 69be 17a9 683e
00000030: d887 273e e0fd 81be 4764 dabd 4b8c e33d
00000040: 6728 873e b24d d83b 2f0d 7b3d fc82 8fbe
00000050: 0cd4 28be d517 393e 029f 323e 7aa2 95be
00000060: f857 b53d 2fd2 04be c57b 823e 92b8 12be
00000070: 7430 31bd 1093 9b3d b236 e7bc 1fae 17bc
00000080: 14cb ff3d 76c9 ad3c 6028 4cbe 255b b13d
00000090: 96a3 31be 48f4 5fbb 70a8 64bd 053f 99be
000000a0: 4f93 26bc 2243 b63b d0aa 773e ab17 97be
000000b0: 5106 8c3e 198e 7c3e 83d8 b1bc 634f 98be
000000c0: 3c7d 963e 7d5a 8d3e
0.07549651 0.12965098 -0.11838212 0.10205265 0.16200252 0.07015237 0.0939065 -0.23657458
0.07254834 -0.20126258 -0.22820932 0.22720753 0.16360414 -0.25389004 -0.10663658 0.11110743
0.26398012 0.006601059 0.06129187 -0.2802962 -0.1648714 0.18075497 0.17443469 -0.29225522
0.08854669 -0.12970804 0.25485054 -0.1432822 -0.0432591 0.07596409 -0.028224323 -0.009257822
0.12489906 0.021214228 -0.19937277 0.086599626 -0.1734756 -0.0034172703 -0.055824697 -0.29930893
-0.010166957 0.005562202 0.24186254 -0.29510245 0.2734857 0.24663581 -0.021709686 -0.29748067
0.2939242 0.276081

layers.4.bias f4 [5]
00000000: db33 743e 3d6e 32be 47d8 823e 17ff 3bbe
00000010: aa45 273c
0.23847906 -0.17424865 0.25555632 -0.18359028 0.01020948

layers.5.weight f4 [5]
00000000: 97d9 7d3f 623c 7e3f b79c 7d3f 973e 7e3f
00000010: 846e 7e3f
0.9916014 0.99310887 0.9906725 0.99314255 0.99387383

layers.5.bias f4 [5]
00000000: ecb7 203c e230 233c 0ee8 1ebc d826 233c
00000010: 8033 133c
0.009809475 0.009960385 -0.009698881 0.009957992 0.0089844465

layers.5.running_mean f4 [5]
00000000: b20f 4f3e 242d f0bd 96dd 263e 5e1d 82be
00000010: 3b65 4f3e
0.20220831 -0.1172736 0.16295466 -0.2541303 0.2025346

layers.5.running_var f4 [5]
00000000: 7961 c23e 6b6d da3e c7df d23e ea76 c03e
00000010: 1bf2 d33e
0.3796499 0.42661604 0.41186354 0.37590724 0.4139565

layers.7.weight f4 [5]
00000000: 51f9 7e3f e344 813f 096b 7d3f c645 813f
00000010: 0844 813f
0.99599177 1.0099148 0.9899145 1.0099418 1.0098886

layers.7.bias f4 [5]
00000000: 9b02 183c d677 243c fce4 22bc 9e46 243c
00000010: f8dd 203c
0.009277965 0.010038337 -0.009942289 0.010026602 0.0098185465

layers.7.running_mean f4 [5]
00000000: 67ea 833e 6501 813e a68a 763e 3c23 833e
00000010: 979e 873e
0.25764772 0.25196376 0.24076328 0.2561282 0.26488182

layers.7.running_var f4 [5]
00000000: 0289 0b3f 0cdd 063f 69af 0d3f 0de6 053f
00000010: 2db0 183f
0.5450593 0.5268104 0.5534578 0.52304155 0.5964382

layers.8.rho f4 [5]
00000000: ea7e b63f 1648 893f e26d 9c3f fd9e ad3f
00000010: 2b4d 803f
1.4257481 1.0725124 1.2221034 1.3564144 1.002355

layers.8.gam f4 [5]
00000000: 0abc 983f 3acc d93f ca06 e73f a9e3 f23f
00000010: 0f8e b03f
1.1932385 1.701545 1.8048947 1.8975726 1.3793353

layers.9.weight f4 [3, 5]
00000000: 08a7 11be 0663 42be 78eb 42be 0870 58be
00000010: fc40 86be 6314 6c3e dd9c 2a3d 6f34 50be
00000020: ab56 d8bd 4e65 e83e 5acb 64be ed3a 033e
00000030: f9f6 113e 580c d63e 6443 973e
-0.14223874 -0.18983087 -0.19035137 -0.21136487 -0.26221454 0.23054652 0.041653503 -0.20332502
-0.105634056 0.4538979 -0.22343197 0.12815447 0.14254369 0.41806293 0.29543602

layers.9.bias f4 [3]
00000000: 5478 a0be 8bb1 213e 0640 a13e
-0.31341803 0.15790384 0.31494159

exp_avg f4 [5]
00000000: 3e3a 9f3a b11d 883a 1e1f 0cbb 3356 d739
00000010: 46b1 02ba
0.0012148095 0.0010384825 -0.0021380852 0.0004107222 -0.0004985522

exp_avg_sq f4 [5]
00000000: 3ed8 0b33 f38a dd32 67f8 f533 6ddb 5832
00000010: cba2 1432
3.256013e-08 2.5790973e-08 1.1453886e-07 1.2622746e-08 8.651749e-09

exp_avg f4 [5]
00000000: 755f 3aad 7762 e32d 4dfd a2af cf3d 04ae
00000010: f0a6 122f
-1.0594072e-11 2.585064e-11 -2.964761e-10 -3.0068222e-11 1.3337931e-10

exp_avg_sq f4 [5]
00000000: af8d a51c ef17 021d 8f5e d81d 66c4 b71c
00000010: f233 781c
1.0955408e-21 1.721773e-21 5.7272495e-21 1.2160692e-21 8.2123455e-22

exp_avg f4 [10, 5]
00000000: 72fe 8138 44b8 8338 fa5d fe39 56eb f338
00000010: 2e60 54b8 2a63 6bb9 6d11 1e3a 4ff9 c139
00000020: f863 5dba 19a9 60ba 0d45 1fbb 2128 d739
00000030: 71a5 853a 46f7 8638 7e16 92ba 4b65 cb3a
00000040: 4131 123b b816 d937 874a 453b 3d3b 2539
00000050: e55e 09bb b7ac 663a 763e 813a f0d5 d3b8
00000060: db1d 4239 c3c3 96bb 6e3f bd39 22a7 053b
00000070: 7b4f dcba e923 a93a 7898 453a 0cf7 ba38
00000080: bc2c 26ba 714a 88b9 1331 21ba 9c7f 853a
00000090: 9aa8 55b9 aa20 2dbb 5828 eeba ebb1 453a
000000a0: a0c2 03bb 384d cd38 220e 103b a667 333b
000000b0: 1660 5239 87bc 1abb 0693 a2ba 9638 853b
000000c0: f1eb 093a c035 88ba
6.1985935e-05 6.280889e-05 0.00048516673 0.00011630978 -5.0634313e-05 -0.00022448288 0.00060298183 0.00036997578
-0.00084453775 -0.00085701194 -0.0024302632 0.00041037894 0.00101964 6.435676e-05 -0.0011145619 0.0015517859
0.002230719 2.5878995e-05 0.0030104236 0.00015757694 -0.0020961103 0.000879954 0.0009860534 -0.00010101113
0.00018512404 -0.0046009733 0.00036096148 0.0020393808 -0.0016808355 0.0012904379 0.0007537673 8.915187e-05
-0.00063390634 -0.00025995405 -0.0006148975 0.0010185125 -0.00020376072 -0.0026417174 -0.0018169982 0.00075414655
-0.002010502 9.789545e-05 0.002198108 0.0027375012 0.00020062955 -0.0023610906 -0.0012403436 0.0040655835
0.0005261293 -0.0010391995

exp_avg_sq f4 [10, 5]
00000000: 3337 0730 f13d d130 f1b9 0332 a65f b92f
00000010: 7eeb 1b30 fd02 a332 8c7d 7332 6f4b 6d31
00000020: 1208 8b32 44ce 0e33 af98 1a34 52b1 2432
00000030: 3ee9 eb32 5c37 0533 60a1 9733 a929 ee33
00000040: ddb1 2534 9d0f c932 c1ec 7434 7104 a732
00000050: d281 8c34 b5dc c532 6e51 1834 458f 8d33
00000060: 13cc 1133 723e 1935 0a50 b233 a768 cd33
00000070: 26d6 0c34 16ee 4e33 9b7e 1333 1bbb fe30
00000080: 6e67 4432 2354 bf31 93ae 0834 5c83 9733
00000090: 39aa f233 b6ba 7f34 c9ef 0434 898e 3a33
000000a0: aa43 8e34 7e46 4734 1fff 0534 60e7 7e34
000000b0: fd55 b032 277a 4b34 67bc a134 cc93 c734
000000c0: 83bd 2b33 4bbb 2033
4.9191157e-10 1.5224356e-09 7.667482e-09 3.3719266e-10 5.6723326e-10 1.8977056e-08 1.4173008e-08 3.4530918e-09
1.61854e-08 3.324955e-08 1.4397914e-07 9.586374e-09 2.7463667e-08 3.1016825e-08 7.0608394e-08 1.10903166e-07
1.5431529e-07 2.340658e-08 2.2810401e-07 1.9443378e-08 2.617149e-07 2.3034184e-08 1.4185727e-07 6.591885e-08
3.3946048e-08 5.708781e-07 8.30333e-08 9.5650925e-08 1.3116423e-07 4.817965e-08 3.434125e-08 1.8534111e-09
1.1432219e-08 5.568397e-09 1.2729497e-07 7.0553796e-08 1.12999665e-07 2.381665e-07 1.2380691e-07 4.3436135e-08
2.6498793e-07 1.8558964e-07 1.2479403e-07 2.3739767e-07 2.05282e-08 1.8950287e-07 3.0125668e-07 3.7174175e-07
3.99864e-08 3.7423245e-08

exp_avg f4 [10]
00000000: d0b3 662b 3679 4f2e e242 3e2f 62e7 c7ad
00000010: e8ea 37ae 70b8 792c 2ed4 212e 7131 452e
00000020: 5085 86af cc5e 7e2d
8.1961955e-13 4.7174008e-11 1.7304161e-10 -2.2726435e-11 -4.181802e-11 3.5487412e-12 3.6795615e-11 4.4836527e-11
-2.4469182e-10 1.44592775e-11

exp_avg_sq f4 [10]
00000000: 4a3f 8d1a 1245 321c 777f 341d 1901 f71c
00000010: e3f6 5e1c da45 511c 4ec1 8f1b a39e 7d1c
00000020: 7551 e61d bfb1 471d
5.841848e-23 5.898453e-22 2.38887e-21 1.6345373e-21 7.377273e-22 6.924258e-22 2.3782286e-22 8.391571e-22
6.0964718e-21 2.6429323e-21

exp_avg f4 [10]
00000000: 3383 f6b7 2732 44b8 7780 913a a439 60ba
00000010: b7f9 bb39 001f e4b7 d9d6 4eb9 60dd 79b9
00000020: 02c2 75ba 0c63 6a3a
-2.938658e-05 -4.677675e-05 0.0011100908 -0.0008553511 0.00035853471 -2.7194154e-05 -0.00019725728 -0.00023828959
-0.0009374918 0.0008941151

exp_avg_sq f4 [10]
00000000: d20f cf2e feeb 8a2f 2c46 ed32 78c1 e232
00000010: 34ab b131 be7a d632 bbf2 0b31 9ca6 9331
00000020: 209d cf33 4460 a633
9.4160804e-11 2.5269736e-10 2.7622342e-08 2.6397842e-08 5.1708415e-09 2.4968696e-08 2.0365138e-09 4.2972044e-09
9.6677695e-08 7.747488e-08

exp_avg f4 [10]
00000000: 1072 89b8 87fa 45b8 02f3 3fb9 f39c 40ba
00000010: 8868 473a 23a0 bfb9 b58c ddb8 30c1 f339
00000020: 727f 27ba da67 99ba
-6.553915e-05 -4.7201782e-05 -0.00018305707 -0.0007347606 0.0007606824 -0.0003654967 -0.0001056431 0.00046492508
-0.0006389535 -0.0011703924

exp_avg_sq f4 [10]
00000000: 3f8d 902f 47a3 942e 2650 3931 0026 0d33
00000010: 56cc 4433 1e30 ac32 86d9 6630 f8c3 f832
00000020: bea0 2633 4de1 2f33
2.629381e-10 6.759265e-11 2.6966602e-09 3.286368e-08 4.582065e-08 2.0045317e-08 8.398263e-10 2.8960116e-08
3.879608e-08 4.0950273e-08

exp_avg f4 [5, 10]
00000000: 1564 663a d750 90ba 0e71 9539 c478 e13a
00000010: 4098 733a 1c96 413a fe01 72ba 2451 5039
00000020: d6a8 04ba 778d 2d3a 491f c939 d993 273a
00000030: e1aa 2bba f1a7 c939 6344 d939 d0cb 923a
00000040: cf70 a83a 61df 05ba 8dd3 1ebb 7206 123a
00000050: 58ca 2f38 5ed1 bcb9 ee59 fbb9 2f08 a6b9
00000060: 21b8 f5b9 b05c a7b9 2dfb e738 d0f8 f6b9
00000070: 3e55 593a 581f 01b9 6f9b 6dba fc11 643b
00000080: 9698 ce3b a0cf 7cb7 0fbd 9c3a 2c59 8139
00000090: fca1 293b e0c5 b73a 9494 343a b224 fe39
000000a0: 3c1b b53b 5d7a 243b 00cd 063b 0eeb 6a3b
000000b0: 8049 f53a 7a86 93ba 9eea 383b de2a 683a
000000c0: 0fa0 1dbb bfe2 9a3b
0.0008788717 -0.001101042 0.00028503727 0.0017202129 0.00092924014 0.0007384734 -0.0009231864 0.00019866653
-0.0005060559 0.0006620506 0.00038361017 0.00063925755 -0.0006548595 0.00038462834 0.00041440417 0.0011199657
0.0012851002 -0.00051068334 -0.002423498 0.00055704184 4.19117e-05 -0.00036014145 -0.00047941454 -0.00031668085
-0.00046867228 -0.0003192178 0.000110617235 -0.00047106156 0.0008290595 -0.00012314075 -0.0009063994 0.0034800759
0.0063048108 -1.5068712e-05 0.0011958199 0.00024671236 0.0025883904 0.0014020763 0.0006888595 0.00048473995
0.005526928 0.0025097348 0.0020568967 0.003584567 0.0018713921 -0.0011255287 0.0028216015 0.00088564854
-0.0024051701 0.0047267373

exp_avg_sq f4 [5, 10]
00000000: 9257 9c32 9cb1 2433 3d5d f930 d4e5 9633
00000010: 8668 da32 ba1f 6332 a8dc ec32 dc95 a130
00000020: 72d6 2d32 4d8a 3432 44c9 6831 7803 8232
00000030: c126 2f32 a829 7c31 66ea c132 7b42 fd32
00000040: aea5 4f33 1070 0a32 172f 2634 398f 1232
00000050: 344b fa31 ec3f 2d32 c793 2432 7f49 3331
00000060: ba25 2332 41ca 0032 bb6a c432 8869 5032
00000070: 2c8f ae32 f5ae c431 0a02 9f32 db8a 9e34
00000080: 6c96 7235 ce28 c830 d53e 1633 0a69 2033
00000090: c065 2534 475b 9733 cbe8 9133 3616 8d32
000000a0: 5d4d e335 936f 1d34 b1ed cf33 dabe df34
000000b0: 6fda 1234 46a2 ac34 1cb5 5835 477a 9433
000000c0: 203e 9335 8da3 cf35
1.8200613e-08 3.834576e-08 1.8143634e-09 7.026725e-08 2.5426072e-08 1.3220353e-08 2.7574359e-08 1.1756884e-09
1.0118685e-08 1.0508825e-08 3.387485e-09 1.513557e-08 1.0195152e-08 3.6694505e-09 2.257475e-08 2.9483308e-08
4.8346628e-08 8.058137e-09 1.5477086e-07 8.5308836e-09 7.284507e-09 1.00844595e-08 9.579657e-09 2.6089706e-09
9.496427e-09 7.496568e-09 2.2865938e-08 1.21311885e-08 2.0321373e-08 5.724241e-09 1.8510963e-08 2.9530824e-07
9.037092e-07 1.4563513e-09 3.4981742e-08 3.7348435e-08 1.5403839e-07 7.048089e-08 6.7944335e-08 1.642466e-08
1.6935334e-06 1.4662355e-07 9.6824245e-08 4.167585e-07 1.3676775e-07 3.2155566e-07 8.072982e-07 6.914029e-08
1.0970434e-06 1.5470301e-06

exp_avg f4 [5]
00000000: 3f8c 67ae ee56 142e fc43 a3ac 5693 e92e
00000010: 4af6 c1ae
-5.2647883e-11 3.3728513e-11 -4.6402864e-12 1.06217854e-10 -8.8203736e-11

exp_avg_sq f4 [5]
00000000: 6e2e 7e1b e754 b51c 7596 0a1c 0063 361e
00000010: 46f4 531e
2.102539e-22 1.1999522e-21 4.585483e-22 9.6554725e-21 1.12207616e-20

exp_avg f4 [5]
00000000: f8e3 7435 54fd 1f36 8365 c335 9436 8936
00000010: cffa 2937
9.122882e-07 2.3840303e-06 1.4558176e-06 4.089272e-06 1.0131581e-05

exp_avg_sq f4 [5]
00000000: 4a68 b328 701b 192a 34c8 5c29 4c93 e02a
00000010: 515e 4e2c
1.991822e-14 1.3598649e-13 4.902346e-14 3.98926e-13 2.9326717e-12

exp_avg f4 [5]
00000000: dcc8 33b9 029f f4b9 cb69 9939 366b 51ba
00000010: d2f9 12bb
-0.00017145596 -0.00046657777 0.00029261256 -0.0007988693 -0.0022426737

exp_avg_sq f4 [5]
00000000: f19a 4030 8d59 b131 96d5 2231 ac7d 8232
00000010: c345 2334
7.006938e-10 5.1615587e-09 2.3695512e-09 1.519114e-08 1.5205937e-07

exp_avg f4 [5]
00000000: 685f 93b8 b711 3cbb e6da fc3a c669 8bbb
00000010: 213c 3bbc
-7.027277e-05 -0.0028697082 0.0019291311 -0.0042545525 -0.01142791

exp_avg_sq f4 [5]
00000000: cf30 eb2f 9458 4a34 68e3 bc33 cc0d df34
00000010: 4aaf 4d36
4.2780932e-10 1.884494e-07 8.795797e-08 4.1547025e-07 3.0649412e-06

exp_avg f4 [5]
00000000: 82ae 84b9 afea 32bb e806 d43a 1f91 88bb
00000010: 1f55 28bc
-0.0002530702 -0.0027300527 0.0016176375 -0.0041676904 -0.010274201

exp_avg_sq f4 [5]
00000000: 2466 cd30 0264 3634 afd2 8733 af66 d734
00000010: 6af0 2c36
1.4944743e-09 1.6986453e-07 6.3247505e-08 4.0121583e-07 2.5769937e-06

exp_avg f4 [5]
00000000: d8a7 4037 f34c 073a 5846 a5b9 c98a 2d3a
00000010: e60b 103b
1.1483171e-05 0.00051613076 -0.00031523663 0.0006620107 0.0021979748

exp_avg_sq f4 [5]
00000000: e490 452d a7db d031 ad01 2231 2f44 2c32
00000010: 7da6 f233
1.1230326e-11 6.0785683e-09 2.3575055e-09 1.0027221e-08 1.1299287e-07

exp_avg f4 [5]
00000000: 56d8 d537 820d 57b8 669d 3f38 fb32 73b8
00000010: ae7c bfb9
2.5492318e-05 -5.1272575e-05 4.5684537e-05 -5.7983194e-05 -0.00036523252

exp_avg_sq f4 [5]
00000000: 490e a62d 42a8 842e c95d 4e2e d6ba a82e
00000010: 6f4a 6a31
1.8878359e-11 6.0325536e-11 4.6922275e-11 7.672944e-11 3.4093792e-09

exp_avg f4 [3, 5]
00000000: 0000 0000 0000 0000 0000 0000 0000 0000
00000010: 0000 0000 e94f aebc c086 b2bc 9aa2 aabc
00000020: aeb3 bdbc 5bcc 9abc a1aa b3bc 7347 90bc
00000030: afc6 8dbc 9329 7dbc e54b 83bc
0.0 0.0 0.0 0.0 0.0 -0.021278339 -0.02179277 -0.020829488
-0.023156967 -0.018896272 -0.021931948 -0.017612195 -0.017306654 -0.015451807 -0.0160274

exp_avg_sq f4 [3, 5]
00000000: 0000 0000 0000 0000 0000 0000 0000 0000
00000010: 0000 0000 ede8 3137 7189 3537 ae8c 2637
00000020: 3479 5137 1224 0b37 5f9e 3d37 b238 f236
00000030: f0bd ec36 5e26 ba36 2b43 c836
0.0 0.0 0.0 0.0 0.0 1.0604254e-05 1.0820441e-05 9.927126e-06
1.2485591e-05 8.293444e-06 1.13021515e-05 7.218762e-06 7.0554597e-06 5.5476985e-06 5.968284e-06

exp_avg f4 [3]
00000000: 0000 0000 a901 37be c923 1bbe
0.0 -0.17871727 -0.1515037

exp_avg_sq f4 [3]
00000000: 0000 0000 2620 443a d4a2 0d3a
0.0 0.0007481597 0.00054029864
