lightning_logs/version_15/checkpoints/epoch=2-step=3.ckpt (torch, 28460 bytes, 56 tensors)

layers.0.weight f4 [5]
00000000: ea56 803f 1045 7f3f 485f 803f 255b 803f
00000010: 3659 803f
1.0026524 0.99714756 1.0029078 1.0027815 1.0027225

layers.0.bias f4 [5]
00000000: 4219 3838 ffa8 9fb7 64dc b8b7 de45 eb37
00000010: bd7f 92b8
4.389254e-05 -1.9032972e-05 -2.2037137e-05 2.8046717e-05 -6.9856156e-05

layers.0.running_mean f4 [5]
00000000: 504a 1d45 cbb2 ea44 1939 0f45 d4d7 7a44
00000010: 8592 6944
2516.6445 1877.5873 2291.5686 1003.3723 934.28937

layers.0.running_var f4 [5]
00000000: 8017 5f4d 96db 274d d0f0 4b4d 3b89 b04c
00000010: 9c5f a34c
2.339287e+08 1.7601162e+08 2.138473e+08 9.2555736e+07 8.565475e+07

layers.1.weight f4 [10, 5]
00000000: 7e66 9dbe be39 e3bc d6db e23c e62b 5b3e
00000010: 5ce3 c93e 941b 9e3d 08a9 20bd 3183 99bd
00000020: 933a 813e 225c af3e b1bd 89bd 27c6 e03d
00000030: d70d a53c 63df 363d b94e a7be 073a af3c
00000040: 7f01 df3d 4d47 c9be ac00 38bd ae3b 8cbe
00000050: a57f 73be e75a 933d 75f2 81be 04b4 423b
00000060: 6b92 b33e 2391 653e 1a1a b63e c349 8bbe
00000070: 4104 89be 03f3 a9be 668b 983e dfbe 073e
00000080: 1c58 e1bd 4d17 a43e 7105 8cbe 229b f8bd
00000090: 40b9 9f3e a374 013e 6a7d a0be 3613 7cbe
000000a0: 44c7 2ebd 72e8 32be fb1c b2be 433e e63e
000000b0: 729a 03be 1014 eebd 3713 b53e 8c7f 573e
000000c0: 95e5 cfbe 6140 82be
-0.30742258 -0.027737495 0.027692717 0.21403465 0.39431274 0.07720104 -0.0392237 -0.07495726
0.2524 0.3424998 -0.06725634 0.109752946 0.0201482 0.044646632 -0.32677248 0.021389974
0.10888957 -0.3931221 -0.044922516 -0.27389282 -0.23779161 0.071950726 -0.25380293 0.0029709348
0.35072646 0.22418647 0.3556679 -0.27204713 -0.26761058 -0.33193216 0.29793853 0.13256405
-0.11003134 0.32049027 -0.273479 -0.12138964 0.31196022 0.1264215 -0.31345683 -0.24616703
-0.042670503 -0.17471483 -0.34787735 0.44969377 -0.12851885 -0.1162492 0.35366222 0.21044749
-0.40604845 -0.25439742

layers.1.bias f4 [10]
00000000: 2a17 163d e4b6 053e d387 663e fa82 9f3e
00000010: 5e6b 193c fee2 b8be 4e6e aa3e 0d68 a53e
00000020: 7abc 983e a177 ffbc
0.036643185 0.13058048 0.2251275 0.31154615 0.009363977 -0.3611068 0.3328728 0.32305947
0.29831296 -0.031184973

layers.2.weight f4 [10]
00000000: 374f 7f3f c057 803f fb59 803f 9352 803f
00000010: b142 7f3f b944 7f3f b45f 803f b285 7f3f
00000020: 635b 803f 5f5c 7f3f
0.9973025 1.0026779 1.002746 1.00252 0.9971114 0.9971424 1.0029206 0.9981338
1.0027889 0.9975032

layers.2.bias f4 [10]
00000000: 702f 35bb 0c96 353b f684 363b 1274 3fbb
00000010: cdba 3cbb 2259 38bb a177 2abb 7c1e 413b
00000020: e0ec 383b b663 b9ba
-0.0027646683 0.0027707843 0.0027850247 -0.002921347 -0.0028797865 -0.00281293 -0.0026011246 0.0029467633
0.002821736 -0.0014144096

layers.2.running_mean f4 [10]
00000000: ea96 8c3c 6096 7a3d ab0e d83d e677 153e
00000010: 51a5 8f3b 7542 2dbe 4ac1 1f3e c601 1b3e
00000020: 6925 0f3e 0621 6fbc
0.017161805 0.061178565 0.10549673 0.14596519 0.004383721 -0.16919883 0.15601078 0.15137395
0.13979115 -0.014595276

layers.2.running_var f4 [10]
00000000: ba19 2a3f 64ce 1f3f 71e5 173f 9952 253f
00000010: b3bb 243f 6e33 363f 8a89 2b3f aa4c 263f
00000020: cbb7 303f 171c 333f
0.66445506 0.624243 0.59334475 0.6457916 0.64348906 0.71172225 0.6700674 0.6496073
0.69030446 0.69964737

layers.4.weight f4 [5, 10]
00000000: 890d 4c3a 6f57 90be 661a 0c3e e8ab 98be
00000010: 3e67 36be b596 1d3e cbdd 21be 5e8a 81be
00000020: fde5 c1bd 75a0 5abe 5dbd 3d3d ca1b 63be
00000030: 508a c03d 0a1f 3d3e c0b7 6e3e 6b1d f23d
00000040: fc66 1ebe 3501 663e 31c1 023d a4c4 29bd
00000050: 7c8e 6e3e 41da 283e 04b7 9ebd e012 8f3e
00000060: 1502 5e3d 57ae dfbd 8895 8e3d 5645 8cbb
00000070: 9aa2 a13e be55 cabd 9f74 2d3d 1e9e 8e3d
00000080: 7d00 873d a7f7 11be c591 913e d2b7 263e
00000090: 0ed2 07bd 0cf2 223e afa5 0c3e b934 3c3e
000000a0: 7a42 203e 6184 06bd 68da 583c 645d 54be
000000b0: 495b 803d 6e59 a0be 0ad8 973c 2552 85be
000000c0: 2095 1b3e be66 963e
0.00077839993 -0.28191707 0.13681945 -0.29818654 -0.17812821 0.15389521 -0.15807264 -0.25300878
-0.09467695 -0.21350272 0.04632317 -0.2217857 0.09401381 0.18468872 0.23312283 0.11822017
-0.15468973 0.22461398 0.031922523 -0.041447297 0.23296541 0.16489507 -0.07749751 0.27944088
0.054201204 -0.109219246 0.069621146 -0.0042807264 0.31569368 -0.09879635 0.042347547 0.06963752
0.0659189 -0.14254628 0.28431526 0.1628106 -0.033159308 0.15912646 0.13735078 0.18379487
0.15650359 -0.03284109 0.013235666 -0.2073875 0.06267411 -0.3131823 0.018535633 -0.26039234
0.15193605 0.2937526

layers.4.bias f4 [5]
00000000: 1773 adbd 0f05 9fbe 5042 903e b39b 65be
00000010: ca67 9e3e
-0.08469217 -0.31058547 0.28175592 -0.22422676 0.3093856

layers.5.weight f4 [5]
00000000: 2143 7f3f 68dc 7f3f ba7a 7f3f f9c3 7f3f
00000010: d262 7f3f
0.99711806 0.9994569 0.9979664 0.99908406 0.9976016

layers.5.bias f4 [5]
00000000: 4046 353b 6c15 393b f45d 35bb 5e77 433b
00000010: a72e 37bb
0.002766028 0.0028241528 -0.0027674409 0.0029825787 -0.002795139

layers.5.running_mean f4 [5]
00000000: 29fa 3cbe 761e aabd b0f8 693e 5407 7c3b
00000010: 23ef f83d
-0.18454804 -0.08306591 0.22848773 0.0038456516 0.12154987

layers.5.running_var f4 [5]
00000000: 7398 213f 1a0c 133f f066 273f 50e7 1a3f
00000010: 24c0 143f
0.63123244 0.5744034 0.65391445 0.60509205 0.58105683

layers.7.weight f4 [5]
00000000: 213b 7f3f 815b 803f c448 7f3f ad60 803f
00000010: 1043 7f3f
0.996996 1.0027925 0.99720407 1.0029503 0.99711704

layers.7.bias f4 [5]
00000000: 3a4b 43bb 183a 383b 4a52 35bb fa19 423b
00000010: e6ca 3abb
-0.0029799477 0.0028110798 -0.0027667456 0.0029617534 -0.0028502285

layers.7.running_mean f4 [5]
00000000: 277a 083e fc95 c23d 49e6 bc3d ccaf 093e
00000010: 7ef1 f53d
0.13327847 0.095012635 0.09223611 0.13445967 0.120089516

layers.7.running_var f4 [5]
00000000: 147f 0c3f fbc6 4d3f 56c4 703f 803e 683f
00000010: 3577 3b3f
0.54881406 0.80381745 0.94049585 0.9072037 0.7322877

layers.8.rho f4 [5]
00000000: 0225 0040 148f 8c3f 0477 e13f c826 8a3f
00000010: 399d f73f
2.0022588 1.0981164 1.7614446 1.0793085 1.9344856

layers.8.gam f4 [5]
00000000: 680b c13f df5e b93f fab5 bc3f 9d5d a43f
00000010: a55b 923f
1.5081606 1.4482077 1.4743035 1.2841069 1.1434218

layers.9.weight f4 [3, 5]
00000000: 578f 663e fdb0 d0bd 4274 82bd 3b69 20be
00000010: e8c1 9ebc c82a 42be d075 973e 0f44 d6bd
00000020: 6066 1c3e ed26 84bc e494 a0be b961 c83e
00000030: d01c 0abe 4613 0f3e f643 26be
0.22515617 -0.10190008 -0.06369831 -0.15665142 -0.019379571 -0.18961632 0.2958207 -0.104622
0.15273428 -0.016131843 -0.31363595 0.39137056 -0.13487554 0.13972196 -0.16236863

layers.9.bias f4 [3]
00000000: 2e3f c3be ada2 293d 9fcd 783e
-0.3813414 0.041414905 0.24297188

exp_avg f4 [5]
00000000: 59d7 07b9 ea12 da3a 564d 5ab9 589e 1fba
00000010: 5e72 3bba
-0.00012954827 0.0016637717 -0.0002081891 -0.0006088964 -0.0007150526

exp_avg_sq f4 [5]
00000000: 2235 c530 efe2 3334 9e05 fe30 dc80 c332
00000010: bc3e 1b33
1.4348738e-09 1.6753232e-07 1.8482529e-09 2.2759586e-08 3.6145806e-08

exp_avg f4 [5]
00000000: 643b 84ad 8f97 6e2d fdd4 f8ab 6064 3bab
00000010: cdcc cc2c
-1.5033037e-11 1.35623865e-11 -1.7680576e-12 -6.6575044e-13 5.820766e-12

exp_avg_sq f4 [5]
00000000: be3e c01a d25a 411a 93ff ee1a c03f aa1a
00000010: 5816 911c
7.9510704e-23 3.998483e-23 9.8847395e-23 7.0413346e-23 9.601071e-22

exp_avg f4 [10, 5]
00000000: c00d 9e38 0676 e0b9 90b6 213a ff0b dbba
00000010: 24f9 643a 1a71 8b38 7a56 44b9 e6dc 4b39
00000020: 5267 f939 5691 b8b9 9fbc dc37 b796 033b
00000030: 68dd 82ba 47f2 013a db3f 383a ffec 67b8
00000040: 1514 bf3a 68d9 aab9 8694 7cb8 bc1e 8d3a
00000050: 3d22 0339 e4cc fe3a 81ef 8239 4c72 99b9
00000060: 015a 1bb9 9255 1039 fa30 973a e94a 8539
00000070: 45c6 3539 4feb 823a 2320 93b9 3321 dcba
00000080: fcdc 62b8 c926 7ab9 85b9 b0ba 7653 0a39
00000090: f34d 4f3b b04b 88bb 10b4 5337 9512 f53a
000000a0: 0dcf 0139 be5a 97b9 98b9 f4b9 8fe5 fbb9
000000b0: 537f 30b8 c168 8138 fcb6 bdb9 8692 433a
000000c0: 3e80 1f39 a5de 1bb9
7.536588e-05 -0.00042812544 0.00061688665 -0.0016711949 0.00087346346 6.649103e-05 -0.00018724232 0.0001944188
0.0004756996 -0.000352035 2.6313877e-05 0.0020078847 -0.0009984197 0.00049570616 0.0007028558 -5.529541e-05
0.0014578128 -0.00032586907 -6.0219805e-05 0.0010766606 0.00012505888 0.0019439724 0.00024973977 -0.00029267592
-0.00014815481 0.00013764788 0.0011534982 0.0002542355 0.00017335366 0.000998834 -0.0002806197 -0.0016794562
-5.4088407e-05 -0.00023856307 -0.0013483024 0.00013191797 0.0031632155 -0.0041594133 1.2618504e-05 0.0018697554
0.00012379531 -0.00028868573 -0.00046677585 -0.00048045485 -4.208025e-05 6.170711e-05 -0.00036185223 0.00074604934
0.00015211196 -0.00014864893

exp_avg_sq f4 [10, 5]
00000000: 7072 ab30 01ac 3b32 84bd e432 8315 3834
00000010: 2291 6d33 4810 7530 2419 8731 1016 5531
00000020: 28a0 7c32 9d88 1132 8440 512e 997a 8a34
00000030: c522 2f33 25c5 8732 c303 1133 7260 9530
00000040: d07e 2334 abca e031 4737 392f 0d09 a733
00000050: abd1 8030 f607 7f34 7297 7c31 e770 d631
00000060: 89e4 dd30 d7f9 9030 eed4 b633 1a8c 8031
00000070: f01f f430 524b 8b33 5d26 bb31 5571 4534
00000080: c070 302f 9ab5 8631 1d62 0234 1244 3431
00000090: 2c49 1035 2ce3 3e35 edb1 8f31 c2a2 a034
000000a0: 93e0 7530 beb2 b331 7496 6532 2f43 7532
000000b0: 4069 0730 dda8 8b2f e44c b931 93ed 2e33
000000c0: 62fa e930 ef3d f031
1.2474413e-09 1.0923942e-08 2.6628875e-08 1.7144161e-07 5.531286e-08 8.915362e-10 3.9318753e-09 3.100812e-09
1.4704746e-08 8.471173e-09 4.75784e-11 2.5793705e-07 4.0776985e-08 1.580572e-08 3.3763865e-08 1.0868588e-09
1.5226692e-07 6.5422987e-09 1.684529e-10 7.77819e-08 9.372817e-10 2.3751622e-07 3.6756913e-09 6.2410552e-09
1.614482e-09 1.0548388e-09 8.513767e-08 3.741218e-09 1.7762414e-09 6.4863926e-08 5.4467777e-09 1.8388285e-07
1.6047164e-10 3.920559e-09 1.2142887e-07 2.623214e-09 5.375066e-07 7.1111094e-07 4.1820756e-09 2.9920744e-07
8.944962e-10 5.2299063e-09 1.3363763e-08 1.4276153e-08 4.9262283e-10 2.5403937e-10 5.39295e-09 4.0728604e-08
1.7024144e-09 6.9919603e-09

exp_avg f4 [10]
00000000: e67a 94ac f3d2 fbad 4a0c 422d 9418 5cae
00000010: a145 de2d 0681 89ad 0000 8d2e 32b2 1dad
00000020: aaf1 ca2d 508d 572e
-4.2200575e-12 -2.8629077e-11 1.1030352e-11 -5.004404e-11 2.52694e-11 -1.5632395e-11 6.4119376e-11 -8.963984e-12
2.3072062e-11 4.901085e-11

exp_avg_sq f4 [10]
00000000: fc8a 431b 7f44 611c fe4e 9319 3d83 f71b
00000010: 5ba2 021c 77e5 191a ae26 b61b 6e98 e11b
00000020: dcb3 481c 4618 c71b
1.617493e-22 7.4534784e-22 1.5231348e-23 4.0947533e-22 4.322323e-22 3.182502e-23 3.013437e-22 3.7321633e-22
6.640691e-22 3.2937475e-22

exp_avg f4 [10]
00000000: 2ab5 6f39 bc38 a1b9 e4a9 a0b9 9a09 95b8
00000010: ddfc 193a 64f1 f439 95af bbb8 9435 82b8
00000020: f98a 25ba b317 4639
0.00022860305 -0.00030750583 -0.00030644157 -7.106662e-05 0.00058741664 0.00046719157 -8.9495596e-05 -6.208863e-05
-0.0006314959 0.0001889158

exp_avg_sq f4 [10]
00000000: 6371 a431 903f 0432 7e08 db31 c6c9 3030
00000010: 7e8d a432 0ed8 5f32 0b2c c72f 66e3 ca31
00000020: 7fff cf32 ab89 3b31
4.7859188e-09 7.697864e-09 6.3747043e-09 6.4315164e-10 1.9156456e-08 1.30294335e-08 3.6229184e-10 5.904826e-09
2.4214158e-08 2.7290337e-09

exp_avg f4 [10]
00000000: b3e1 a739 863f 16ba bfeb 42b9 0220 d439
00000010: f661 493a 26ae 8539 a982 2638 9d33 d1b9
00000020: 6bbf f7b9 bd07 e038
0.0003202088 -0.00057315116 -0.00018589104 0.0004045964 0.0007682139 0.00025497488 3.969917e-05 -0.0003990204
-0.0004725413 0.00010682594

exp_avg_sq f4 [10]
00000000: 90b2 f531 4597 c132 e8c4 1c31 6cb6 0132
00000010: 4008 0633 a462 8931 4397 402f c83d f631
00000020: 236d 6532 d78d a430
7.1507387e-09 2.2536947e-08 2.2812916e-09 7.550266e-09 3.120681e-08 3.998439e-09 1.7516037e-10 7.166566e-09
1.3354369e-08 1.1972884e-09

exp_avg f4 [5, 10]
00000000: 3b24 c939 5f22 dd39 ade4 0cba 03d4 10ba
00000010: 7f15 e339 1ddd 75b9 6f6d 5ab9 214f 3cb9
00000020: d2ed 6cb9 f98c 23b9 7ba1 b63a 7f0a b33a
00000030: f5ec 3fbb e03f 98ba f08a 113b 6fb7 a63a
00000040: 4891 f9b7 a092 a139 aecf 8eba daa1 1339
00000050: e6c6 163a 66f0 c039 f9ac 03ba 8200 98b9
00000060: 5d67 503a a7d6 aab9 be06 43ba 6c95 8ab9
00000070: 686a 33ba 629e 82b9 7059 1737 0213 8539
00000080: 85a8 ee38 806a 1d3a e810 bb38 e59c 683a
00000090: 789b 6e3a 6c8b a8b9 bb53 3e3a 26e8 43ba
000000a0: 7485 1a39 7f13 68ba 2d58 a0ba 1310 2eba
000000b0: e4c9 8b3a a456 0aba 1ce9 45bb c44b 023a
000000c0: 687f 5ebb e701 713a
0.000383647 0.00042178013 -0.00053746515 -0.0005524756 0.0004331283 -0.00023447392 -0.00020830867 -0.00017958555
-0.00022595309 -0.00015597408 0.0013933623 0.0013659744 -0.0029285525 -0.0011615716 0.0022208057 0.0012719462
-2.9750765e-05 0.00030817557 -0.0010895634 0.00014079307 0.0005751684 0.00036800205 -0.00050230284 -0.00028992078
0.00079499726 -0.00032584855 -0.00074396643 -0.0002643274 -0.0006844164 -0.00024913537 9.021125e-06 0.000253819
0.000113801136 0.00060049444 8.920004e-05 0.0008873477 0.0009102146 -0.00032147334 0.00072604016 -0.00074732525
0.000147363 -0.0008853003 -0.001223331 -0.00066399685 0.0010665026 -0.00052771927 -0.0030198758 0.00049703964
-0.0033950452 0.0009193704

exp_avg_sq f4 [5, 10]
00000000: fa85 3832 012b 5432 bf4a b232 660a b632
00000010: 6ce5 5d32 9e2f 8031 725b 4a31 1179 2031
00000020: 73f7 8131 11f7 e330 b026 1834 b177 0234
00000030: 17ef 1b35 d4f9 e133 227c a834 bb60 c933
00000040: 52da bb30 da5b 9a32 552f bf33 ae84 a832
00000050: 9dc6 c232 2bde 1e32 0ef2 9432 620c c631
00000060: ab1e 3a33 0741 fa31 4341 2333 31be a431
00000070: 7314 0a33 035f 9231 80d1 1e31 1529 ec31
00000080: 5d98 9930 24c7 a332 503e d431 0686 3a33
00000090: c9ee 3133 94a0 d331 8bc6 d832 f0de c932
000000a0: 4d35 8032 5cb6 0f33 86cc e233 d6c2 c932
000000b0: 2586 1234 d3b6 9d32 c5e6 0a35 886d ec32
000000c0: 0288 2935 289c 7733
1.0740672e-08 1.2349802e-08 2.0755918e-08 2.1192317e-08 1.2916058e-08 3.7307037e-09 2.944685e-09 2.3351883e-09
3.782526e-09 1.6586644e-09 1.4170178e-07 1.2150737e-07 5.808992e-07 1.05228224e-07 3.1382757e-07 9.377387e-08
1.3668091e-09 1.7969729e-08 8.90274e-08 1.961811e-08 2.2674891e-08 9.247326e-09 1.7339541e-08 5.763966e-09
4.3334392e-08 7.2833504e-09 3.801075e-08 4.7946505e-09 3.2149227e-08 4.259961e-09 2.3111113e-09 6.8731745e-09
1.1175519e-09 1.9066256e-08 6.177096e-09 4.3428393e-08 4.1428198e-08 6.159164e-09 2.5235996e-08 2.350086e-08
1.49254e-08 3.3460637e-08 1.0561148e-07 2.348808e-08 1.3646111e-07 1.8360344e-08 5.174482e-07 2.7523825e-08
6.3155323e-07 5.7651192e-08

exp_avg f4 [5]
00000000: c420 70ae 8fc2 dbaf 3623 fb2d 2db2 9dac
00000010: c2f5 502e
-5.4598784e-11 -3.997411e-10 2.8551033e-11 -4.48199e-12 4.7512e-11

exp_avg_sq f4 [5]
00000000: 64be 201d 2140 4f1e 9ea3 ce1a eda7 9119
00000010: 1c3e 9a1c
2.1274253e-21 1.097175e-20 8.546394e-23 1.5060473e-23 1.020692e-21

exp_avg f4 [5]
00000000: ae1f e135 332c 3835 4170 4734 84d9 cf34
00000010: 13d7 a634
1.6773026e-06 6.860966e-07 1.8574157e-07 3.8715018e-07 3.1076397e-07

exp_avg_sq f4 [5]
00000000: cc04 242a b9fe 3229 e065 9627 eb8b 1a28
00000010: fa8a 2128
1.456779e-13 3.9744876e-14 4.1743817e-15 8.579057e-15 8.967431e-15

exp_avg f4 [5]
00000000: d148 b1b9 4409 93ba 1c60 bd39 a87f d2b9
00000010: d6f2 023a
-0.00033814323 -0.0011217971 0.00036120496 -0.00040149433 0.0004995292

exp_avg_sq f4 [5]
00000000: b60b 0932 16b5 a233 4c07 1a32 61c3 e931
00000010: 7c52 8a32
7.977112e-09 7.576652e-08 8.965639e-09 6.8034045e-09 1.6102824e-08

exp_avg f4 [5]
00000000: afff 8a3b 2315 7fba c962 8e39 1e5e d1b9
00000010: 1a8e 743a
0.0042419056 -0.00097306276 0.0002715795 -0.0003993371 0.0009329036

exp_avg_sq f4 [5]
00000000: 2ead 4f35 6d0d 7633 817e ad31 3701 e931
00000010: f996 5033
7.736552e-07 5.728855e-08 5.0493445e-09 6.7813306e-09 4.8566083e-08

exp_avg f4 [5]
00000000: 0e85 aa3b 4e35 d8ba d76b 0a3a d78a 20ba
00000010: b750 9f3a
0.0052038496 -0.0016495378 0.00052803516 -0.00061242044 0.0012154792

exp_avg_sq f4 [5]
00000000: da44 9a35 11bb 3534 89ab a432 a402 8e32
00000010: 2ec1 b233
1.1493933e-06 1.6924993e-07 1.9170118e-08 1.6532177e-08 8.32391e-08

exp_avg f4 [5]
00000000: 7731 0bba 5b63 3839 e3d2 1bb8 dcd1 9b38
00000010: d321 03b9
-0.00053098 0.0001758462 -3.7151283e-05 7.430065e-05 -0.00012505734

exp_avg_sq f4 [5]
00000000: 2782 5032 cf84 0031 00e1 cf2e 79f3 802f
00000010: 4e1d 7030
1.2136787e-08 1.8701944e-09 9.453238e-11 2.3456062e-10 8.7353136e-10

exp_avg f4 [5]
00000000: 18d7 51b7 489c ec37 69c4 97b7 7acd a735
00000010: 4969 e2b7
-1.2507451e-05 2.8206166e-05 -1.8092063e-05 1.2502271e-06 -2.6990327e-05

exp_avg_sq f4 [5]
00000000: 1e07 d630 8ee2 bc2e 46cb cc2d 2a4d d52b
00000010: 788e 362e
1.5572572e-09 8.5894944e-11 2.3282386e-11 1.5155978e-12 4.1508547e-11

exp_avg f4 [3, 5]
00000000: 0000 0000 0000 0000 0000 0000 0000 0000
00000010: 0000 0000 6d47 d6ba b78d 41bb 2590 89ba
00000020: 7815 5cbb 5003 65bb 2a96 fabb 08a1 1bbb
00000030: 94c3 7aba b910 38bb 7230 44bb
0.0 0.0 0.0 0.0 0.0 -0.0016348191 -0.0029533932 -0.0010495229
-0.0033582132 -0.0034944601 -0.0076472955 -0.0023747105 -0.00095658866 -0.002808614 -0.0029936102

exp_avg_sq f4 [3, 5]
00000000: 0000 0000 0000 0000 0000 0000 0000 0000
00000010: 0000 0000 dbab 1134 6ed0 c534 0302 4c33
00000020: be04 f734 5795 2335 fe20 5836 10d0 7f34
00000030: eb27 2633 c87d ac34 1994 ec34
0.0 0.0 0.0 0.0 0.0 1.3566698e-07 3.6845762e-07 4.749928e-08
4.6010786e-07 6.093955e-07 3.2205712e-06 2.3824418e-07 3.8686192e-08 3.2129014e-07 4.406618e-07

exp_avg f4 [3]
00000000: 0000 0000 0080 97bd f6f0 93bd
0.0 -0.07397461 -0.07223694

exp_avg_sq f4 [3]
00000000: 0000 0000 bcb0 6939 20f9 5f39
0.0 0.0002228645 0.00021359744
