lightning_logs/version_17/checkpoints/epoch=3-step=8.ckpt (torch, 28460 bytes, 56 tensors)

layers.0.weight f4 [5]
0.99890316 0.9907055 1.0092735 0.9965579 1.0003409
00000000: 1eb8 7f3f e09e 7d3f e02f 813f 6b1e 7f3f
00000010: 2c0b 803f

layers.0.bias f4 [5]
0.00012723819 -2.7527567e-05 -0.00012285214 4.2381893e-05 0.00014132421
00000000: 3e6b 0539 00eb e6b7 dfd1 00b9 36c3 3138
00000010: 6e30 1439

layers.0.running_mean f4 [5]
65.78371 65.78521 65.7853 65.80844 65.7888
00000000: 4291 8342 0792 8342 1392 8342 ec9d 8342
00000010: de93 8342

layers.0.running_var f4 [5]
0.56269807 0.5445182 0.5722533 0.54928195 0.56002676
00000000: fb0c 103f 8b65 0b3f 317f 123f be9d 0c3f
00000010: ea5d 0f3f

layers.1.weight f4 [10, 5]
0.38014886 -0.022304904 0.44691885 -0.22643206 -0.14199865 0.25742763 0.06698455 -0.085455984
0.14292559 0.42838365 0.20979604 -0.31758484 -0.14711402 -0.28931615 0.15347905 -0.30574504
-0.21311827 -0.1444302 0.37072557 -0.18838745 0.071499646 -0.037060283 0.16198727 -0.4352626
-0.27626815 0.09996419 -0.34045494 0.25772744 0.41934386 -0.12026837 0.14538442 -0.26102632
0.40277824 0.41442358 -0.24560954 0.007175636 0.07769817 -0.020073613 -0.14072227 -0.24126719
-0.1226759 0.36556754 0.18714069 0.38498998 0.32715344 0.44674075 0.30340552 -0.25694677
0.25287282 0.09616515
00000000: dfa2 c23e c6b8 b6bc 8cd2 e43e cedd 67be
00000010: 1868 11be 8ecd 833e 322f 893d 8c03 afbd
00000020: 165b 123e 1a55 db3e c6d4 563e 7b9a a2be
00000030: 0fa5 16be 3f21 94be 9d29 1d3e 9d8a 9cbe
00000040: ad3b 5abe 83e5 13be becf bd3e a4e8 40be
00000050: 686e 923d 86cc 17bd fedf 253e bdda debe
00000060: 0573 8dbe 06ba cc3d 1c50 aebe daf4 833e
00000070: 3db4 d63e 434f f6bd a7df 143e 3ea5 85be
00000080: f338 ce3e 542f d43e 1181 7bbe 9921 eb3b
00000090: 3820 9f3d 6b71 a4bc 8019 10be bf0e 77be
000000a0: 813d fbbd ab2b bb3e cfa1 3f3e 681d c53e
000000b0: a880 a73e 34bb e43e f857 9b3e 878e 83be
000000c0: 8c78 813e 3cf2 c43d

layers.1.bias f4 [10]
0.09484602 -0.44333142 -0.10557776 0.015564067 0.048624713 -0.08266434 -0.1438561 -0.2731501
0.26279932 -0.44573185
00000000: a13e c23d 56fc e2be 2739 d8bd 6e00 7f3c
00000010: b52a 473d ec4b a9bd 034f 13be 54da 8bbe
00000020: a28d 863e f736 e4be

layers.2.weight f4 [10]
0.99178123 1.0094355 1.0064917 0.99045354 0.9915881 0.9958607 0.99181825 1.0093964
1.0095195 1.0029471
00000000: 60e5 7d3f 2f35 813f b8d4 803f 5d8e 7d3f
00000010: b8d8 7d3f baf0 7e3f cde7 7d3f e733 813f
00000020: ef37 813f 9260 803f

layers.2.bias f4 [10]
-0.009044735 0.009559844 0.0021720363 0.005877883 -0.008555076 0.00018216184 -0.0048101004 0.008848408
0.008961661 0.005513918
00000000: 5e30 14bc e4a0 1c3c b958 0e3b 429b c03b
00000010: 972a 0cbc b202 3f39 0c9e 9dbb eaf8 103c
00000020: eed3 123c 19ae b43b

layers.2.running_mean f4 [10]
0.06175934 -0.28873342 -0.06871819 0.010107757 0.031684376 -0.05389911 -0.0937163 -0.17788614
0.1711665 -0.2903163
00000000: 5df7 7c3d ded4 93be 1fbc 8cbd 019b 253c
00000010: 7ac7 013d 50c5 5cbd 55ee bfbd c927 36be
00000020: 4546 2f3e 57a4 94be

layers.2.running_var f4 [10]
0.60064405 0.5520856 0.5303083 0.55704784 0.5358968 0.60952955 0.6754054 0.40428814
0.6350892 0.6381466
00000000: cfc3 193f 7b55 0d3f 49c2 073f b09a 0e3f
00000010: 8830 093f 210a 1c3f 5ee7 2c3f dbfe ce3e
00000020: 3595 223f 935d 233f

layers.4.weight f4 [5, 10]
-0.20496304 0.2623198 -0.09893175 0.054782648 -0.2420386 -0.009245288 0.24491033 -0.068737246
0.31116748 -0.1704531 -0.26905409 0.3002882 -0.2521113 0.27323917 0.24472855 -0.1087715
0.24318114 0.005103526 0.26143202 0.003420865 0.11592895 -0.29935884 -0.30037323 0.17663364
0.14207965 0.19103737 0.0049766474 0.13650419 -0.19296008 0.12865269 -0.03217415 0.15119988
-0.11829932 0.23155056 -0.097550295 0.30011156 -0.2963104 0.10577114 -0.22662738 -0.30651146
-0.14802134 0.23596862 0.12703703 0.2606348 -0.32120335 -0.25511634 0.035251588 0.27039146
0.25696856 0.28106245
00000000: d5e1 51be c84e 863e bb9c cabd c563 603d
00000010: f7d8 77be 8c79 17bc c6c9 7a3e 1dc6 8cbd
00000020: 5851 9f3e 428b 2ebe 75c1 89be 60bf 993e
00000030: bb14 81be 01e6 8b3e 1f9a 7a3e 98c3 debd
00000040: 7a04 793e 7b3b a73b 6bda 853e 9730 603b
00000050: 286c ed3d 9045 99be 85ca 99be 73df 343e
00000060: 547d 113e 4d9f 433e 2513 a33b c1c7 0b3e
00000070: 5497 45be 88bd 033e 0bc9 03bd 24d4 1a3e
00000080: ea46 f2bd 971b 6d3e 73c8 c7bd 39a8 993e
00000090: ffb5 97be 8a9e d83d 0211 68be 12ef 9cbe
000000a0: e892 17be c2a1 713e ff15 023e ed71 853e
000000b0: c474 a4be 9c9e 82be f863 103d c070 8a3e
000000c0: 6291 833e 6be7 8f3e

layers.4.bias f4 [5]
-0.24208517 0.2219492 -0.16434684 -0.008761019 -0.2058727
00000000: 2de5 77be a746 633e 8a4a 28be 618a 0fbc
00000010: 4bd0 52be

layers.5.weight f4 [5]
0.99093527 0.99292195 0.9967641 0.9934408 0.9932125
00000000: efad 7d3f 2230 7e3f ef2b 7f3f 2352 7e3f
00000010: 2d43 7e3f

layers.5.bias f4 [5]
-0.009956041 -0.009689547 0.008794694 0.009849643 0.009605776
00000000: aa1e 23bc e8c0 1ebc 9f17 103c 6660 213c
00000010: 8b61 1d3c

layers.5.running_mean f4 [5]
-0.1387075 0.32900104 -0.07756455 -0.076398075 0.0708429
00000000: 5709 0ebe d372 a83e 2ada 9ebd 9876 9cbd
00000010: 1516 913d

layers.5.running_var f4 [5]
0.48451063 0.4286349 0.45520487 0.4014549 0.47504
00000000: c711 f83e 0976 db3e 9d10 e93e 7f8b cd3e
00000010: 7138 f33e

layers.7.weight f4 [5]
0.99059814 1.0097694 1.009935 1.0098988 1.009842
00000000: d797 7d3f 2040 813f 8d45 813f 5d44 813f
00000010: 8142 813f

layers.7.bias f4 [5]
-0.009750758 0.0097318 0.010046065 0.010006121 0.0099793635
00000000: a5c1 1fbc 2172 1f3c 4098 243c b7f0 233c
00000010: 7c80 233c

layers.7.running_mean f4 [5]
0.25559723 0.2624658 0.27068767 0.25548568 0.26206163
00000000: a4dd 823e eb61 863e 9397 8a3e 05cf 823e
00000010: f12c 863e

layers.7.running_var f4 [5]
0.5510594 0.5887227 0.54185057 0.594475 0.59705
00000000: 3b12 0d3f 88b6 163f b8b6 0a3f 832f 183f
00000010: 45d8 183f

layers.8.rho f4 [5]
1.3625492 1.8019451 1.1367105 1.1571314 1.1738812
00000000: 0368 ae3f 23a6 e63f bb7f 913f e21c 943f
00000010: bd41 963f

layers.8.gam f4 [5]
1.4655511 1.9644549 1.9027222 1.7637838 1.10658
00000000: 2e97 bb3f 4273 fb3f 678c f33f abc3 e13f
00000010: 6aa4 8d3f

layers.9.weight f4 [3, 5]
-0.29482743 -0.06865745 0.190833 0.27902865 0.3234164 0.11572388 0.41813746 0.05453566
-0.1080635 0.27607176 -0.38123035 0.20099935 -0.09136234 -0.22425885 -0.013700845
00000000: 9ff3 96be 479c 8cbd ba69 433e d8dc 8e3e
00000010: d696 a53e a400 ed3d 1d16 d63e c960 5f3d
00000020: 6550 ddbd 4759 8d3e a030 c3be c6d2 4d3e
00000030: 2e1c bbbd 1da4 65be 8279 60bc

layers.9.bias f4 [3]
-0.03406242 -0.26821947 -0.092806265
00000000: 0985 0bbd 1054 89be 3611 bebd

exp_avg f4 [5]
-5.2398464e-05 0.0012820528 -0.0016960494 0.0005740047 -9.2848975e-05
00000000: 6cc6 5bb8 8e0a a83a f94d deba ce78 163a
00000010: eab7 c2b8

exp_avg_sq f4 [5]
7.8124955e-09 5.2071456e-08 9.1150994e-08 3.733573e-08 3.9240207e-09
00000000: b837 0632 2ca5 5f33 cabe c333 125b 2033
00000010: 0dd4 8631

exp_avg f4 [5]
-6.6223575e-11 -1.1281438e-10 3.2314408e-11 -7.0799526e-11 -3.0594957e-11
00000000: 8fa0 91ae da14 f8ae ca1e 0e2e 97b0 9bae
00000010: dc8e 06ae

exp_avg_sq f4 [5]
7.985323e-22 1.4423806e-21 8.3414904e-22 1.924869e-21 8.872798e-22
00000000: 7257 711c 66f7 d91c 281b 7c1c 6270 111d
00000010: fa14 861c

exp_avg f4 [10, 5]
0.00089118246 0.00071274396 -0.00070277526 -0.00018149361 0.00043423072 0.0010847669 -0.0018849268 0.0005534807
0.00057632633 -0.0004644414 -0.001229843 -0.0002487598 -0.0004292626 -9.801269e-05 0.0005158633 0.0006261608
-0.0022112967 0.0019403336 7.505854e-05 0.00024725942 0.0007250548 0.00015409323 -0.0004869978 0.00061090477
-0.0010367014 -0.0004955414 7.061312e-05 -0.0017025373 0.0014135224 0.000835779 -0.0010634888 -0.001522737
-0.00074643083 -0.0017444298 -0.0030256603 0.0015853845 -0.00070461887 0.00208465 -0.001806153 0.0008120155
9.429466e-06 0.00012238362 0.00052007206 0.0011988066 -0.0018799629 -0.00023784778 0.0015797956 0.001573675
0.000169369 -0.00027169735
00000000: 3e9e 693a 70d7 3a3a 733a 38ba 524f 3eb9
00000010: 76a9 e339 bd2e 8e3a a60f f7ba 7617 113a
00000020: 9b14 173a 4580 f3b9 af32 a1ba fa6b 82b9
00000030: a70e e1b9 2a8c cdb8 003b 073a f124 243a
00000040: 67eb 10bb cb52 fe3a bf68 9d38 99a2 8139
00000050: 9b11 3e3a 1694 2139 bd53 ffb9 2025 203a
00000060: ede1 87ba 38e7 01ba 2116 9438 ac27 dfba
00000070: f145 b93a 2e18 5b3a c364 8bba 9396 c7ba
00000080: 20ac 43ba 5aa5 e4ba 284a 46bb adcc cf3a
00000090: 2cb6 38ba a09e 083b 70bc ecba 70dd 543a
000000a0: 4033 1e37 1a54 0039 7255 083a 4621 9d3a
000000b0: 1669 f6ba c766 79b9 2511 cf3a c543 ce3a
000000c0: a598 3139 9a72 8eb9

exp_avg_sq f4 [10, 5]
2.5194021e-08 4.4702244e-08 1.3661278e-08 9.70254e-09 1.9500064e-08 7.532968e-08 2.2764581e-07 4.249054e-08
3.782273e-08 2.8774984e-08 5.388228e-08 9.833917e-09 1.7415967e-08 3.8401037e-08 4.5497895e-08 5.981629e-08
2.508601e-07 1.3958189e-07 1.3256159e-08 6.946862e-08 1.9852738e-08 3.8059182e-09 1.3373973e-08 2.041191e-08
5.4701456e-08 2.2590584e-08 4.0314947e-09 8.208035e-08 5.5882673e-08 5.1423957e-08 3.2660317e-08 8.103742e-08
4.941038e-08 9.0622414e-08 2.4823774e-07 1.1130553e-07 4.308512e-08 1.3229659e-07 1.0457561e-07 3.12251e-08
4.958291e-08 5.0759205e-08 3.5678383e-08 6.7407846e-08 9.872669e-08 5.2559948e-09 7.2956944e-08 7.339629e-08
2.1618838e-08 3.772708e-08
00000000: 3d6a d832 a3fe 3f33 f0b2 6a32 39b0 2632
00000010: 1881 a732 eec4 a133 ce6e 7434 d87e 3633
00000020: 8872 2233 dc2c f732 326c 6733 06f2 2832
00000030: 1e9a 9532 63ee 2433 7769 4333 5a74 8033
00000040: f3ad 8634 fadf 1534 34bd 6332 c72e 9533
00000050: a288 aa32 36c5 8231 5bc3 6532 4456 af32
00000060: e3f0 6a33 380d c232 6785 8a31 2644 b033
00000070: a603 7033 3ddd 5c33 6646 0c33 cb06 ae33
00000080: 4a37 5433 339c c233 8945 8534 dd06 ef33
00000090: 970c 3933 690d 0e34 0d93 e033 5c1c 0633
000000a0: fcf4 5433 5602 5a33 cc3c 1933 dbc1 9033
000000b0: 9203 d433 3898 b431 81ac 9c33 0a9e 9d33
000000c0: 54b4 b932 5d09 2233

exp_avg f4 [10]
-3.2800963e-11 -4.948026e-11 1.3308148e-11 1.01474384e-13 2.8377696e-11 -8.2958196e-11 7.595504e-12 -2.992987e-11
-5.3270822e-11 -1.3500134e-10
00000000: 9a42 10ae d29d 59ae 921e 6a2d 0080 e429
00000010: e49c f92d 506d b6ae 1c9f 052d 0aa2 03ae
00000020: 9d49 6aae 806f 14af

exp_avg_sq f4 [10]
3.4066111e-22 9.66626e-22 2.5456458e-22 4.1777725e-22 2.97612e-22 1.3796888e-21 1.433853e-21 1.518665e-21
2.7646218e-21 8.505121e-22
00000000: c1ea cd1b 8812 921c f6df 991b e687 fc1b
00000010: 3ae5 b31b 207e d01c 80ad d81c 827e e51c
00000020: 90e3 501d 9886 801c

exp_avg f4 [10]
0.0003465716 -0.001064772 -0.00023918005 0.0015599923 0.00019092624 0.00052039087 0.001514874 -0.00051040883
-0.0021322588 -0.00013241236
00000000: 0eb4 b539 d28f 8bba 68cc 7ab9 a878 cc3a
00000010: 5f33 4839 d76a 083a bd8e c63a f5cc 05ba
00000020: 5ebd 0bbb 2cd8 0ab9

exp_avg_sq f4 [10]
4.0796233e-09 3.076835e-08 2.9916507e-09 6.979946e-08 1.6847688e-09 2.2559615e-08 8.473564e-08 8.117319e-09
1.2869853e-07 3.531063e-09
00000000: bf2c 8c31 2926 0433 ad95 4d31 a9e4 9533
00000010: 888d e730 1ec9 c132 e9f7 b533 5974 0b32
00000020: 6230 0a34 1ea7 7231

exp_avg f4 [10]
0.00029979707 -0.0014126776 -0.00010384293 -0.00042378454 0.0005486335 -2.9307856e-05 0.00041249904 -0.00019689357
-0.00085403264 -0.0002017417
00000000: 152e 9d39 9829 b9ba 40c6 d9b8 662f deb9
00000010: 2cd2 0f3a 24da f5b7 af44 d839 3775 4eb9
00000020: 29e1 5fba a08a 53b9

exp_avg_sq f4 [10]
2.6964748e-09 5.4637404e-08 4.932294e-09 7.49862e-09 1.28664706e-08 7.3439033e-09 1.5908668e-08 2.1567135e-09
3.0792243e-08 2.3109323e-09
00000000: e34c 3931 76aa 6a33 eb78 a931 48d3 0032
00000010: 560b 5d32 a855 fc31 88a7 8832 4e35 1431
00000020: 6e40 0433 5ace 1e31

exp_avg f4 [5, 10]
-7.5318865e-05 -0.0011002577 -0.0004700153 0.0038656357 -0.0006091768 0.003692953 0.003112318 -0.00062051514
-0.0030070685 0.00023078968 -0.0003309987 -0.00397331 -0.0007398351 0.005368815 0.0007114298 0.0022042391
0.0021448673 0.0022700797 -0.004296668 -0.0034192563 0.002808264 0.00066518754 0.0012139833 -0.00053830777
-0.00015474219 0.0031157834 0.0029930994 -0.0018499906 0.0005860008 0.0003690465 -0.00017074496 0.002338639
1.2870747e-05 0.0010878954 -0.00063392817 0.00075503776 -0.00049142656 -0.0013981897 0.00280524 0.0009950516
0.00073869067 0.00088963064 -0.00094694423 -0.0012972043 0.00057744887 0.00027433783 0.0006571667 -0.0007376971
0.0023496943 0.000542057
00000000: 82f4 9db8 8636 90ba 636c f6b9 9b56 7d3b
00000010: 2ab1 1fba 7805 723b 08f8 4b3b 11aa 22ba
00000020: 3d12 45bb 2200 7239 e589 adb9 8a32 82bb
00000030: 7ef1 41ba e2ec af3b 3f7f 3a3a ff74 103b
00000040: e790 0c3b 9ec5 143b 10cb 8cbb 9a15 60bb
00000050: da0a 383b fb5f 2e3a 851e 9f3a 391d 0dba
00000060: 4a42 22b9 2c32 4c3b e027 443b 627b f2ba
00000070: d99d 193a 957c c139 000a 33b9 da43 193b
00000080: 70ef 5737 b697 8e3a 332e 26ba baed 453a
00000090: 14d3 00ba 7643 b7ba 1ed8 373b 646c 823a
000000a0: b1a4 413a 1a36 693a 5a3c 78ba f406 aaba
000000b0: f05f 173a 00d5 8f39 b645 2c3a 0462 41ba
000000c0: 54fd 193b d418 0e3a

exp_avg_sq f4 [5, 10]
2.0230491e-08 6.0660554e-08 9.931579e-09 3.9921653e-07 9.124164e-09 3.7574455e-07 2.8617904e-07 1.1056131e-08
2.3475361e-07 3.235383e-08 6.621772e-09 4.3198986e-07 2.736257e-08 7.62839e-07 2.0029452e-08 1.8256196e-07
1.5065511e-07 1.3922585e-07 5.984897e-07 3.6328748e-07 2.2967646e-07 1.3316659e-08 3.808645e-08 3.625943e-08
2.3488763e-08 2.4021676e-07 2.2451204e-07 9.336379e-08 1.8032992e-08 1.5220062e-08 1.3588119e-08 1.4674282e-07
9.816619e-09 2.9349955e-08 2.5692568e-08 8.8757396e-08 1.0837017e-07 6.8624715e-08 2.10745e-07 2.9205085e-08
2.1323737e-08 4.1194365e-08 4.329683e-08 7.3890654e-08 1.1307397e-08 1.7994948e-08 1.8606011e-08 2.6464372e-08
1.4047403e-07 4.3921784e-08
00000000: 52c7 ad32 7e44 8233 8c9f 2a32 e753 d634
00000010: 7fc0 1c32 f0b9 c934 26a4 9934 61f1 3d32
00000020: 9510 7c34 6af5 0a33 b985 e331 3cec e734
00000030: ee0a eb32 e6c5 4c35 3b0d ac32 4006 4434
00000040: c3c3 2134 1c7e 1534 e6a7 2035 da09 c334
00000050: fc9c 7634 49c7 6432 7f94 2333 aabb 1b33
00000060: 56c4 c932 24f7 8034 6611 7134 497f c833
00000070: f8e6 9a32 45bd 8232 2e71 6932 5c90 1d34
00000080: f2a5 2832 3c1d fc32 8eb2 dc32 e59a be33
00000090: 22b9 e833 d65e 9333 2549 6234 a9de fa32
000000a0: 652b b732 afed 3033 5ef5 3933 d1ad 9e33
000000b0: 7542 4232 4f93 9a32 0dd3 9f32 c553 e332
000000c0: 35d5 1634 83a4 3c33

exp_avg f4 [5]
7.484045e-11 2.698217e-11 -8.315083e-11 1.05840677e-10 4.9291994e-11
00000000: 6e93 a42e 7256 ed2d c2d9 b6ae 01bf e82e
00000010: dac9 582e

exp_avg_sq f4 [5]
3.115591e-21 9.625377e-22 1.4598122e-21 4.981869e-21 4.5951264e-21
00000000: 4b68 6b1d 6074 911c c099 dc1c ae35 bc1d
00000010: 5699 ad1d

exp_avg f4 [5]
3.933636e-06 2.5639038e-06 7.847454e-07 2.9650732e-06 3.7468697e-06
00000000: adfd 8336 880f 2c36 4ba7 5235 92fb 4636
00000010: bb72 7b36

exp_avg_sq f4 [5]
3.6571289e-13 1.5530006e-13 2.0117202e-14 2.3126856e-13 3.5833755e-13
00000000: c8e0 cd2a 32da 2e2a 1c33 b528 5031 822a
00000010: e2b9 c92a

exp_avg f4 [5]
0.0007314413 0.00052822125 -0.0001911936 -0.0005730279 -0.00076326524
00000000: 32be 3f3a 5478 0a3a 247b 48b9 4037 16ba
00000010: dd15 48ba

exp_avg_sq f4 [5]
1.2776677e-08 7.119706e-09 1.0819802e-09 8.22121e-09 1.5231961e-08
00000000: 6b80 5b32 99a1 f431 cbb4 9430 443d 0d32
00000010: 70d7 8232

exp_avg f4 [5]
0.00082752836 -0.004230299 -0.004828717 -0.0046300567 -0.0063113677
00000000: 7dee 583a 529e 8abb 373a 9ebb bbb7 97bb
00000010: 97cf cebb

exp_avg_sq f4 [5]
2.1508585e-08 4.3306363e-07 5.3501714e-07 4.990512e-07 9.225095e-07
00000000: e1c1 b832 d07f e834 199e 0f35 8af6 0535
00000010: 5fa2 7735

exp_avg f4 [5]
0.0014342262 -0.0022145673 -0.0039235353 -0.0036513186 -0.0050246585
00000000: a5fc bb3a 4622 11bb 0091 80bb f64a 6fbb
00000010: e4a5 a4bb

exp_avg_sq f4 [5]
5.3465005e-08 1.2182304e-07 3.5130114e-07 3.10672e-07 5.8442015e-07
00000000: 65a1 6533 76ce 0234 769a bc34 6fca a634
00000010: 0ce1 1c35

exp_avg f4 [5]
-0.00013105656 0.0005493304 0.00082742417 0.0007948393 0.0011579904
00000000: 3a6c 09b9 f000 103a 7fe7 583a c35c 503a
00000010: b6c7 973a

exp_avg_sq f4 [5]
5.4414145e-10 7.2818165e-09 1.5661099e-08 1.46614125e-08 3.0964415e-08
00000000: 8d92 1530 8933 fa31 1f87 8632 93e1 7b32
00000010: bcfd 0433

exp_avg f4 [5]
-6.174258e-05 -0.0002088244 -0.00010714055 -0.00013799556 -0.0003127658
00000000: cc7b 81b8 dff7 5ab9 a5b0 e0b8 e7b2 10b9
00000010: b7fa a3b9

exp_avg_sq f4 [5]
8.7472356e-11 1.0263848e-09 2.7032074e-10 4.477143e-10 2.2814097e-09
00000000: 8f5a c02e b410 8d30 439c 942f 3022 f62f
00000010: fcc6 1c31

exp_avg f4 [3, 5]
-0.004556032 -0.0078097396 -0.024514826 -0.020292282 -0.013621647 -0.014094053 -0.015445838 -0.0017615949
-0.0030790013 -0.0113573335 0.0 0.0 0.0 0.0 0.0
00000000: c44a 95bb d8e8 ffbb 51d3 c8bc 003c a6bc
00000010: 542d 5fbc beea 66bc 8a10 7dbc 51e5 e6ba
00000020: 12c9 49bb 1c14 3abc 0000 0000 0000 0000
00000030: 0000 0000 0000 0000 0000 0000

exp_avg_sq f4 [3, 5]
5.4264297e-07 1.5997356e-06 1.4006249e-05 9.630698e-06 4.3319596e-06 4.7161307e-06 5.6128565e-06 8.6340684e-08
2.5687666e-07 3.0276208e-06 0.0 0.0 0.0 0.0 0.0
00000000: 24aa 1135 7fb6 d635 62fc 6a37 8893 2137
00000010: 405b 9136 413f 9e36 1256 bc36 4b6a b933
00000020: dce8 8934 212e 4b36 0000 0000 0000 0000
00000030: 0000 0000 0000 0000 0000 0000

exp_avg f4 [3]
-0.08098684 -0.023102824 0.0
00000000: 6edc a5bd 2242 bdbc 0000 0000

exp_avg_sq f4 [3]
0.00015178353 1.2673061e-05 0.0
00000000: 1528 1f39 629e 5437 0000 0000
