lightning_logs/version_62/checkpoints/epoch=0-step=2.ckpt (torch, 28015 bytes, 56 tensors)

layers.0.weight f4 [5]
00000000: af1e 803f 9187 7f3f 857c 7f3f cfeb 7f3f
00000010: 5727 803f
1.0009364 0.9981623 0.99799377 0.9996919 1.0012006

layers.0.bias f4 [5]
00000000: 8e93 f5b7 49d2 9c37 0fac 6cb8 f216 2ab8
00000010: b910 29b8
-2.9274986e-05 1.869457e-05 -5.6427027e-05 -4.0552528e-05 -4.0308314e-05

layers.0.running_mean f4 [5]
00000000: 9e8e 9941 8a8e 9941 e093 9941 8096 9941
00000010: 6c85 9941
19.194637 19.1946 19.197205 19.198486 19.190147

layers.0.running_var f4 [5]
00000000: 5b90 5f3f c4b4 5e3f 5e2b 613f 877e 5e3f
00000010: 4c82 5e3f
0.87329644 0.86994576 0.879568 0.86911815 0.8691757

layers.1.weight f4 [10, 5]
00000000: 970a 023e 207a 0fbb d21c b03e dc3d 4ebe
00000010: f5d3 f73d 945d 37bd 2176 0e3e b8fe a8be
00000020: 2cd1 8bbe 5e64 a13d 2e51 5d3e 6479 3dbd
00000030: 789c 35be 3209 ca3e 9a52 f83d e2d5 85be
00000040: 997e 2d3d cc0c aabd 9d8f 303e 98a1 58be
00000050: ae72 69be a551 873d 8370 cbbc e187 663e
00000060: e92f d53e 4d4f 133e 34e5 5c3e 818e d73e
00000070: a14c c53e 1830 843e 5064 b93e 4e35 c93e
00000080: 6fca 4bbd 0103 3d3e 28b3 1c3e b1ab 82be
00000090: c7b1 e43d dd73 cebd 7f94 3dbe 0ef3 81be
000000a0: 2dfe b3be 53aa dc3e 9d27 0cbc 46b2 e03e
000000b0: 7512 d0be f58f 863d 54f6 783c 67ba b13e
000000c0: 2fb9 a9be e2b7 c83e
0.12699352 -0.002189286 0.34396988 -0.20140785 0.121009745 -0.044766977 0.1391225 -0.33006835
-0.27308023 0.07880472 0.21612999 -0.046258345 -0.1773547 0.3946014 0.1212513 -0.26139742
0.04235706 -0.08303222 0.17242284 -0.21155393 -0.22797653 0.06607369 -0.024833923 0.22512771
0.41638115 0.1438572 0.21571809 0.4210091 0.38535026 0.25817943 0.36209345 0.3929848
-0.049753603 0.18458177 0.15302718 -0.25521615 0.11166721 -0.10080693 -0.18513678 -0.2538075
-0.35154858 0.43098697 -0.008554366 0.43886012 -0.40639082 0.065704264 0.015195448 0.34712526
-0.33149096 0.3920279

layers.1.bias f4 [10]
00000000: 06af 903e 0966 913e 6b2d 9cbe b30d 463e
00000010: 69e9 9fbe cb18 593e fd94 0c3e 3f3f 903e
00000020: 9291 333d 062e 9bbd
0.28258532 0.2839816 -0.305034 0.19341163 -0.31232765 0.21200864 0.1372871 0.28173253
0.04384 -0.07577138

layers.2.weight f4 [10]
00000000: 687c 7f3f 007d 7f3f 8d40 803f 1a7c 7f3f
00000010: c287 7f3f e140 803f 567e 7f3f 0f91 7f3f
00000020: 483b 803f f17c 7f3f
0.99799204 0.9980011 1.0019699 0.9979874 0.99816525 1.00198 0.9980215 0.99830717
1.0018091 0.9980002

layers.2.bias f4 [10]
00000000: 661f 03bb 0a69 fcba a085 023b 8c3f 02bb
00000010: e9a3 01bb 55ea 023b f316 f1ba 4846 a8ba
00000020: 0a64 fcba acf8 023b
-0.0020007729 -0.0019257378 0.0019916072 -0.0019874303 -0.0019781536 0.0019976099 -0.001839368 -0.0012838328
-0.0019255888 0.0019984646

layers.2.running_mean f4 [10]
00000000: f2f2 5b3d 5006 5d3d 445b 6dbd 0d75 163d
00000010: 4805 73bd fff9 243d 1da3 d53c 8e30 5b3d
00000020: e275 083c 95e3 6bbc
0.053698488 0.0539611 -0.057948366 0.036732722 -0.05933121 0.040277477 0.026078755 0.053513102
0.008328887 -0.0143975215

layers.2.running_var f4 [10]
00000000: 5492 593f c57d 593f 1f10 5b3f 0773 573f
00000010: 7fd4 5c3f c662 643f ddf9 5f3f 4e16 583f
00000020: 0a05 723f ed32 643f
0.84988904 0.84957534 0.85571474 0.8415989 0.86261743 0.89213216 0.87490636 0.84409034
0.9453894 0.89140207

layers.4.weight f4 [5, 10]
00000000: f1a3 6d3d c96f f13d 7625 47bd f196 63be
00000010: 0d21 35be 4d79 0a3e b75b 72be dc82 75be
00000020: cbe2 cfbc 87ab 6b3e 3636 0e3e a5eb 15be
00000030: 194b 533e 95de cf3d fc39 89be 2a6b 023e
00000040: 8fc8 87bd 74ac 533e 5cf8 16be e2e8 283d
00000050: d7b3 4fbd ddc1 47be a192 5f3e 8b59 38be
00000060: fcd9 32bd ca19 873d 1cd8 6ebc bd54 193e
00000070: 1976 5bbe b56f 6e3d e605 17bb 50f9 74be
00000080: e234 be3d 05d7 c23d 94a2 463d 4e7a 343a
00000090: 5fbc 86bd bae9 15be 671a 0e3e 3571 563d
000000a0: 857c ce3c 7128 2d3e 7236 043e a2f0 9abe
000000b0: 62c1 9b3d 5fae 593e da1a babb 43e1 f53d
000000c0: a813 f83d 96c5 b1bd
0.058017675 0.117888995 -0.04861971 -0.22225548 -0.17688389 0.13522835 -0.23667799 -0.239757
-0.025376698 0.23014651 0.13887867 -0.14640673 0.20634116 0.10149876 -0.2680205 0.12736192
-0.066300504 0.20671254 -0.14743179 0.04123772 -0.050708618 -0.19507547 0.21833278 -0.18002908
-0.043664917 0.06596716 -0.014577892 0.14973731 -0.2143177 0.058212 -0.0023044287 -0.2392323
0.0928743 0.09513668 0.04849489 0.000688468 -0.06578898 -0.14639941 0.13877259 0.052354056
0.02520586 0.16909958 0.12911394 -0.30261713 0.07605244 0.21257924 -0.0056794705 0.12005856
0.12113124 -0.08680265

layers.4.bias f4 [5]
00000000: 7a6b 563e 1d90 ff3d 8577 623e 571e 4ebe
00000010: 67a0 a23b
0.20939437 0.12478659 0.22115906 -0.20128761 0.004962969

layers.5.weight f4 [5]
00000000: c70b 803f 8f86 7f3f 7337 803f 1a06 803f
00000010: 9b0a 803f
1.0003594 0.99814695 1.0016922 1.0001862 1.0003237

layers.5.bias f4 [5]
00000000: b8a3 013b 465f ffba 1877 63ba 78d2 02bb
00000010: 2e53 ff3a
0.0019781422 -0.001948335 -0.0008677109 -0.0019961875 0.0019479746

layers.5.running_mean f4 [5]
00000000: 2ad3 0f3c 69e1 1e3d 520a d23c c872 23bd
00000010: 8dd8 123d
0.008778373 0.038789187 0.025639687 -0.039904386 0.03585105

layers.5.running_var f4 [5]
00000000: f370 553f f0db 513f 80bc 513f 70cc 513f
00000010: 7471 513f
0.8337547 0.81976223 0.81928253 0.8195257 0.8181374

layers.7.weight f4 [5]
00000000: e640 803f c37b 7f3f ed40 803f ce3e 803f
00000010: b440 803f
1.0019805 0.9979822 1.0019814 1.0019166 1.0019746

layers.7.bias f4 [5]
00000000: cd21 033b ea20 03bb 0fa1 013b 18e3 d4b9
00000010: 3885 023b
0.002000916 -0.0020008632 0.0019779836 -0.0004060499 0.001991583

layers.7.running_mean f4 [5]
00000000: 6c8c 9a3d 6ad7 9a3d c234 983d 4e88 953d
00000010: 0c71 993d
0.075463146 0.07560618 0.07431938 0.07301389 0.07492265

layers.7.running_var f4 [5]
00000000: d35a 5f3f 4c7d 5c3f 9e72 5d3f acbb 5b3f
00000010: 44f8 623f
0.8724796 0.8612869 0.86503017 0.8583324 0.88660073

layers.8.rho f4 [5]
00000000: 8239 ec3f d82e 923f 41da ba3f 0e10 b13f
00000010: c854 a53f
1.845505 1.1420546 1.4597856 1.3833025 1.2916498

layers.8.gam f4 [5]
00000000: 413b e23f 7d2e 983f 4e7b cc3f c2a4 fc3f
00000010: d84d f73f
1.7674333 1.1889187 1.597513 1.973778 1.9320631

layers.9.weight f4 [3, 5]
00000000: de51 dd3d 1d52 69be f154 60be 22dc c6be
00000010: 2ffb abbe fd62 ae3c a533 2bbe 4891 853e
00000020: 3f17 783d f8d9 d03e 3da7 84be f873 a6bd
00000030: db2d 2f3b a297 963e ee17 1b3e
0.108066306 -0.2278523 -0.21907403 -0.38839823 -0.33590075 0.021287436 -0.1671892 0.26087403
0.060569044 0.40791297 -0.25908843 -0.08127588 0.0026730213 0.29412562 0.15145847

layers.9.bias f4 [3]
00000000: 1824 2b3e d57f e03e b91d 22be
0.16712987 0.43847528 -0.15831651

exp_avg f4 [5]
00000000: 8010 5437 0967 3c39 a0a6 ea39 6532 21ba
00000010: 1a69 d4b7
1.2640026e-05 0.00017967461 0.00044756103 -0.0006149172 -2.5321311e-05

exp_avg_sq f4 [5]
00000000: b0e8 9f31 90b8 3731 28ec 4332 cf6c 3133
00000010: 2488 4830
4.6539625e-09 2.6734917e-09 1.140419e-08 4.1309985e-08 7.2953044e-10

exp_avg f4 [5]
00000000: b81e e52d 52b8 26ae 1f85 032e 3333 b32e
00000010: 5c8f 522e
2.6047928e-11 -3.790774e-11 2.9904187e-11 8.1490724e-11 4.78758e-11

exp_avg_sq f4 [5]
00000000: ec50 3d1a 07d7 331b f9c6 671b 3ab4 481c
00000010: 795e 261b
3.9149652e-23 1.4876012e-22 1.9172164e-22 6.6407386e-22 1.3761724e-22

exp_avg f4 [10, 5]
00000000: 82c7 63b9 a571 9538 bc7b 52b9 dd43 e9b9
00000010: 1058 3d38 58fb f5b9 638b 2c3a 62d0 153a
00000020: 49d9 91b9 4866 08b8 768d bc39 7436 7cba
00000030: 8acf 29bb 768d aeba 8330 0aba 8464 c6b8
00000040: 3a1a 80ba d5a9 a33a 372b 7f3a 8e28 8039
00000050: 7cb2 0338 7cdd 41ba 3e92 c7b9 7cc3 eb39
00000060: fe24 0fb9 f6c9 c138 00a1 6c3a cec9 0b3a
00000070: a27f b3ba e21a b939 3ebb 29b9 fc44 8cb8
00000080: e2ea 8d37 60c1 083a 6d38 9eb8 7342 b937
00000090: 2637 5539 5e91 4dba 8eaf 09ba 1b59 4b3a
000000a0: c101 9038 279f 12b9 5771 8d39 7a94 a7b9
000000b0: 643b 11ba 1512 45b8 9f3d 91b9 2ae1 b838
000000c0: cf47 3339 32d5 ad38
-0.0002172273 7.1260416e-05 -0.00020073255 -0.00044491785 4.5143126e-05 -0.00046917307 0.00065820495 0.00057149504
-0.00027818445 -3.2520184e-05 0.0003596355 -0.0009621151 -0.0025911056 -0.0013317305 -0.0005271511 -9.460098e-05
-0.0009773441 0.0012486527 0.00097339175 0.00024444278 3.139906e-05 -0.00073953695 -0.00038065197 0.0004496834
-0.00013651323 9.240575e-05 0.00090266764 0.00053325004 -0.0013694654 0.0003530598 -0.00016186849 -6.6885696e-05
1.6917886e-05 0.00052168034 -7.544537e-05 2.2084661e-05 0.00020333807 -0.0007841791 -0.0005252295 0.0007757113
6.866782e-05 -0.00013982934 0.0002697806 -0.00031963346 -0.0005540161 -4.69853e-05 -0.00027702466 8.815744e-05
0.00017097521 8.2889936e-05

exp_avg_sq f4 [10, 5]
00000000: b98f 1832 9ae1 4b31 b6f3 1f31 f1a8 c332
00000010: b6c6 b431 06b3 5332 30e0 d032 5ae5 a532
00000020: 97a8 0932 a341 d42f 40a4 1333 8466 6233
00000030: 0faf cd34 136b 0234 1867 a332 a883 0830
00000040: f8bc 8633 1e3a d633 795c 8033 3843 6331
00000050: e048 8d31 1aa2 0233 2ae7 d632 80b6 5d32
00000060: a3c7 aa31 72fb 1632 3723 4e33 6efb 8b32
00000070: 204e ff33 cbae 1e32 20a0 3631 4c6f 6230
00000080: 41ba 242f 6198 8932 73fa 0730 f250 9e2f
00000090: eda5 e332 6133 1a33 5fae 8332 26db 1633
000000a0: 09e0 2d30 e579 0e32 62a8 9a31 736c c132
000000b0: 9c3b 9b32 cb67 b030 c0e9 9f31 d26a ed2f
000000c0: 1a31 de30 bb2b 0030
8.880243e-09 2.9668628e-09 2.3276079e-09 2.2777813e-08 5.2612803e-09 1.2322522e-08 2.4316336e-08 1.9312825e-08
8.012782e-09 3.8609213e-10 3.437549e-08 5.2712963e-08 3.8311597e-07 1.2146147e-07 1.9022579e-08 4.9663607e-10
6.2742345e-08 9.975723e-08 5.977285e-08 3.3071057e-09 4.111925e-09 3.0415414e-08 2.5018e-08 1.2905389e-08
4.9703472e-09 8.788321e-09 4.799514e-08 1.6296067e-08 1.1888574e-07 9.236554e-09 2.6575506e-09 8.2376483e-10
1.4981884e-10 1.6018193e-08 4.9468624e-10 2.8797548e-10 2.6501732e-08 3.5902648e-08 1.5329702e-08 3.512391e-08
6.3255406e-10 8.2932035e-09 4.501133e-09 2.2517474e-08 1.8071482e-08 1.2835185e-09 4.6540833e-09 4.318595e-10
1.6166581e-09 4.6628273e-10

exp_avg f4 [10]
00000000: d8a3 702e ba1e 85ad 3e0a b72e 9a99 29af
00000010: 3e0a e72e 6666 26ae 6666 e6ad 48e1 daae
00000020: ad47 e1ad ec51 b82c
5.4715205e-11 -1.5133995e-11 8.323696e-11 -1.5425031e-10 1.0506483e-10 -3.7834978e-11 -2.6193447e-11 -9.95351e-11
-2.5611369e-11 5.2386897e-12

exp_avg_sq f4 [10]
00000000: 34d8 541b edb9 cc1b 8717 241c 304c 021d
00000010: 566b 5d1c 797a 151c 6098 cc1a aea5 b81c
00000020: a7ce a31b e1f0 8218
1.7606088e-22 3.386912e-22 5.4293457e-22 1.7244745e-21 7.3261495e-22 4.9458257e-22 8.46186e-23 1.2218926e-21
2.7099634e-22 3.3847438e-24

exp_avg f4 [10]
00000000: 0047 a239 801a ca39 665f 7aba a870 d939
00000010: bd0d b538 5b8d 11ba 0b83 9339 cc24 f138
00000020: 1007 35b9 9b3d c438
0.00030951947 0.00038548186 -0.00095509586 0.000414734 8.6333115e-05 -0.00055523746 0.0002813566 0.000114986295
-0.00017264136 9.357483e-05

exp_avg_sq f4 [10]
00000000: 21bf ba31 0a88 1332 3069 5d33 8616 2632
00000010: 47e7 2a30 32a9 9232 3ef0 a331 2146 de30
00000020: 1a00 2531 10d3 0a30
5.4350413e-09 8.587458e-09 5.155124e-08 9.667593e-09 6.2174305e-10 1.7073578e-08 4.7712367e-09 1.6172558e-09
2.4010718e-09 5.0504045e-10

exp_avg f4 [10]
00000000: b09d c238 7299 6e39 d86f 43ba bba8 b039
00000010: ae30 1039 e8f4 b7b9 5ee7 f238 1667 5337
00000020: faac 9539 44ce 07b9
9.2800125e-05 0.00022754612 -0.00074553257 0.0003369505 0.00013751045 -0.0003508695 0.00011582555 1.2600582e-05
0.00028548372 -0.00012951443

exp_avg_sq f4 [10]
00000000: b6dd 0230 b4e4 6531 d16e 0633 928a dd31
00000010: d965 9630 7d58 eb31 f0e7 9030 fee4 ef2e
00000020: 7cfd b431 960a 8030
4.7608795e-10 3.3453889e-09 3.1300093e-08 6.4477e-09 1.0942883e-09 6.84946e-09 1.05433e-09 1.0909139e-10
5.2675073e-09 9.316234e-10

exp_avg f4 [5, 10]
00000000: 1343 aa39 144a 53b9 b361 c839 3e4b 0139
00000010: 0290 ae38 af4d 003a bc27 5d39 09d1 7738
00000020: 7a41 0f39 9edf 9039 0fc4 e53a febe 2f3a
00000030: e863 32bb 1a33 2c3a 0c45 43ba 97ef d6ba
00000040: 86ed 99ba 5cd0 513a 803f 84b8 92e1 0b3b
00000050: a6db f4b9 4cd4 2d39 8cf6 9e39 a21c 72b9
00000060: 71ee 0bba c83a 8aba 8b99 9bb9 4f94 83ba
00000070: 5585 cbb9 8c4e 9c38 e6e4 cfb9 6db6 4fba
00000080: 309c 33bb 83bd 003a b5c6 cfba ecf2 8fbb
00000090: 345b 70bb cfa7 0c39 36e3 95ba ba46 6539
000000a0: b856 373a 609b 053b 38c1 c9ba 7660 75ba
000000b0: faec 2aba 8afe d9ba 175b 1c39 e80d 8d3a
000000c0: 9ea2 67ba 4e83 6d3a
0.000324749 -0.00020150124 0.00038219764 0.00012330429 8.32379e-05 0.0004894388 0.00021091005 5.908407e-05
0.00013661935 0.00027632428 0.0017529743 0.000670418 -0.0027220193 0.0006568894 -0.00074489485 -0.0016398308
-0.0011743761 0.0008003765 -6.306078e-05 0.0021344167 -0.00046702957 0.00016577652 0.000303198 -0.00023089585
-0.000533796 -0.0010546083 -0.00029678302 -0.0010038706 -0.00038818517 7.45329e-05 -0.0003965266 -0.0007923607
-0.0027406327 0.0004911052 -0.0015852066 -0.004392972 -0.0036675455 0.00013413954 -0.0011435512 0.0002186549
0.0006993818 0.00203868 -0.0015392667 -0.0009360382 -0.00065202976 -0.0016631645 0.00014911253 0.0010761591
-0.00088361825 0.00090603984

exp_avg_sq f4 [5, 10]
00000000: 14b6 c831 4bae 1c31 86d0 1a32 82ba 6f30
00000010: 1490 b030 3f44 8332 167e 3431 88e6 1630
00000020: cf4f 8f30 f46d 9231 035c 3a34 0041 0633
00000030: 7cb7 db34 da09 df32 bb6d 0e33 b2cc 5134
00000040: 450f d733 d80a 4633 cd73 0833 00ee 8934
00000050: 40c7 5632 b14e fd31 050b 1432 f19a 4b31
00000060: 21b8 e232 cf6d 9533 76ef cb31 8ed9 7033
00000070: 5ef5 1e32 96bf 0b31 512b 7132 8ca1 1633
00000080: c68a f434 de85 7b32 760b 1e34 ef6d 8f35
00000090: 4835 4e35 3447 8c30 158c 9c33 d023 1632
000000a0: 97ff 8133 5052 7b34 d379 0d34 c473 6933
000000b0: bb42 0233 e6f6 2e34 5f1c 8f32 f55f 8933
000000c0: 3ebb 4e33 3d89 5933
5.841466e-09 2.2800062e-09 9.0113925e-09 8.7212737e-10 1.2846635e-09 1.5281442e-08 2.626512e-09 5.4897287e-10
1.0427302e-09 4.2616595e-09 1.7356074e-07 3.1258423e-08 4.092543e-07 2.5965097e-08 3.316175e-08 1.953911e-07
1.0014495e-07 4.611033e-08 3.1770288e-08 2.5691406e-07 1.2501744e-08 7.3722153e-09 8.617239e-09 2.9628462e-09
2.6393595e-08 6.958327e-08 5.935301e-09 5.607722e-08 9.2526005e-09 2.0336066e-09 1.4037895e-08 3.5071523e-08
4.5549513e-07 1.4640561e-08 1.4719066e-07 1.0686325e-06 7.6818515e-07 1.0206578e-09 7.289797e-08 8.739292e-09
6.053522e-08 2.3406142e-07 1.3175968e-07 5.4354828e-08 3.0328675e-08 1.6294834e-07 1.6660293e-08 6.397014e-08
4.813341e-08 5.0649067e-08

exp_avg f4 [5]
00000000: 1f85 0b2e 7b14 2eaf 16ae f7ae 1f85 bbaf
00000010: 713d 8a2d
3.1723176e-11 -1.5832484e-10 -1.12631834e-10 -3.410969e-10 1.5716069e-11

exp_avg_sq f4 [5]
00000000: 349b 871a 94ac e31c 0976 541c 0b2c f81d
00000010: fc4e 131a
5.6085436e-23 1.506621e-21 7.0297473e-22 6.5690593e-21 3.046269e-23

exp_avg f4 [5]
00000000: bd56 0b33 31fa 3334 ae08 70b3 dddd 1934
00000010: 7d66 7133
3.2442347e-08 1.6761693e-07 -5.588725e-08 1.4329949e-07 5.6205398e-08

exp_avg_sq f4 [5]
00000000: 822c 5b25 573c 1327 54aa 8b25 8027 2627
00000010: cf40 0c26
1.9010302e-16 2.0433058e-15 2.4228075e-16 2.305854e-15 4.866009e-16

exp_avg f4 [5]
00000000: a731 aeb8 61ab 8639 68ab 14b7 0bf3 b739
00000010: 02cd f9b8
-8.306215e-05 0.0002568616 -8.861396e-06 0.0003508556 -0.00011911431

exp_avg_sq f4 [5]
00000000: 3c7e db2f 5f93 8b31 ceab 882f 0800 ec31
00000010: cf49 7030
3.9925563e-10 4.0621866e-09 2.486033e-10 6.8685075e-09 8.741638e-10

exp_avg f4 [5]
00000000: 6701 40ba 1c8a f33a 125b 06ba d3c0 56ba
00000010: c986 9dba
-0.0007324428 0.0018580589 -0.0005125265 -0.0008192185 -0.0012018319

exp_avg_sq f4 [5]
00000000: 22e3 fe32 b42b 4e34 b23e 7932 62f6 3533
00000010: a0a3 ad33
2.967278e-08 1.9201144e-07 1.4507963e-08 4.236643e-08 8.0857035e-08

exp_avg f4 [5]
00000000: eecc 1dba 77c7 e23a d674 c9b9 05d2 5fb9
00000010: 2415 69ba
-0.00060196116 0.0017301877 -0.00038424757 -0.00021345176 -0.0008891395

exp_avg_sq f4 [5]
00000000: 9009 ac32 58ad 3134 dbd8 1232 d1bf f531
00000010: 6738 3f33
2.0027784e-08 1.6547472e-07 8.547626e-09 7.1522455e-09 4.452195e-08

exp_avg f4 [5]
00000000: 4061 c638 a9c6 b1b9 c921 a338 9733 0239
00000010: 3a62 4739
9.45949e-05 -0.00033908084 7.778739e-05 0.00012416985 0.00019014711

exp_avg_sq f4 [5]
00000000: a90e 0830 89ad db31 0aba b72f 8fcd 8530
00000010: db1e 0b31
4.9497345e-10 6.3934675e-09 3.3419695e-10 9.735447e-10 2.0244701e-09

exp_avg f4 [5]
00000000: 80c2 a6b7 5037 4f38 845a a0b7 4dfc 69b8
00000010: 330b 1cb8
-1.9879313e-05 4.940416e-05 -1.9115636e-05 -5.5786502e-05 -3.720373e-05

exp_avg_sq f4 [5]
00000000: 2830 c02d 951b 1a2f b094 dd2d b11a 3d2f
00000010: 4c37 a82e
2.1849259e-11 1.4016018e-10 2.5190822e-11 1.7198933e-10 7.649578e-11

exp_avg f4 [3, 5]
00000000: 74fd bcbb 84d6 54bb e8d7 c9ba 72e3 54ba
00000010: ec8b 32ba 54e7 9fbb 1968 b4bb fb5a 74bb
00000020: 6a3f a4bb 4831 70bb a909 22b7 463b abb9
00000030: 5e34 32ba faf4 a6bb 0332 0fbb
-0.0057675187 -0.0032476494 -0.0015399428 -0.000812105 -0.0006811011 -0.0048798714 -0.0055055735 -0.0037285674
-0.0050124424 -0.0036650468 -9.658202e-06 -0.00032659824 -0.00067979645 -0.0050951215 -0.0021849878

exp_avg_sq f4 [3, 5]
00000000: f092 f635 e5e3 1e35 02fa 1134 299a 2c33
00000010: e9be fb32 6084 b035 28e4 e035 94aa 5135
00000020: b25d ba35 b305 4835 662b 402d 6902 6232
00000030: 5a7c 0a33 1e6b c035 dcf2 9334
1.8371193e-06 5.9191217e-07 1.359513e-07 4.018708e-08 2.9307062e-08 1.3151548e-06 1.6755703e-06 7.810679e-07
1.3885349e-06 7.45141e-07 1.0923573e-11 1.3155479e-08 3.2243726e-08 1.433629e-06 2.7557587e-07

exp_avg f4 [3]
00000000: 2ebe 15bd 1062 25bd 382c 00bc
-0.036558323 -0.040376723 -0.007823043

exp_avg_sq f4 [3]
00000000: c404 9c38 b444 bd38 8601 6336
7.439547e-05 9.025019e-05 3.3826523e-06
