lightning_logs/version_35/checkpoints/epoch=2-step=3.ckpt (torch, 28460 bytes, 56 tensors)

layers.0.weight f4 [5]
000000 03 65 7f 3f 37 ea 7f 3f 2d 62 7f 3f 55 51 80 3f
       0.99763507 0.9996676 0.9975918 1.002482
000010 a7 08 80 3f
       1.000264

layers.0.bias f4 [5]
000000 8e 42 e1 37 aa ff 8d b7 9c 06 d3 b5 3e a4 fb b6
       2.6853082e-05 -1.6927563e-05 -1.5722649e-06 -7.499503e-06
000010 10 e3 9d 37
       1.8821593e-05

layers.0.running_mean f4 [5]
000000 5c 45 56 45 9a 54 d6 44 78 14 d3 44 4d e5 92 44
       3428.335 1714.6438 1688.6396 1175.1656
000010 f5 c0 2f 45
       2812.0598

layers.0.running_var f4 [5]
000000 fa 47 95 4d 11 b5 19 4d 69 51 17 4d 0f 7c ce 4c
       3.1306528e+08 1.6117378e+08 1.5866843e+08 1.082574e+08
000010 9d 07 78 4d
       2.6007803e+08

layers.1.weight f4 [10, 5]
000000 10 8b 96 be 5f 73 6e 3c dd 24 52 be 4e a6 da be
       -0.2940297 0.014553874 -0.20521875 -0.42705005
000010 76 29 9e 3e ca fa b0 be 6a 4a c8 3e ba aa 88 be
       0.30891007 -0.34566337 0.39119273 -0.26692754
000020 a8 53 b1 3c ea 69 ce 3e 37 df 9b 3e 12 eb 9d 3e
       0.021646336 0.4031518 0.30443737 0.30843407
000030 64 a4 21 3e cb 41 4a 3e ff f7 c7 3d fa 5a b5 3e
       0.15785366 0.1975166 0.097640984 0.35420972
000040 63 40 bd be 3e 55 d3 be 6a 67 0d be c1 bb 14 3e
       -0.36963186 -0.41275972 -0.1380898 0.14524747
000050 dc 4a 90 3e b0 18 cf bc d9 8d e2 be 6a 5e 8d be
       0.28182113 -0.025280327 -0.44248846 -0.27611095
000060 dc 7b ce 3e e8 df 34 be 94 5f ac bd 9a b0 9a bb
       0.40328872 -0.17663538 -0.084166676 -0.0047207596
000070 da 6a d0 3e b7 81 cf 3e b7 8c d7 3e 5d ec 88 be
       0.4070652 0.40528652 0.42099544 -0.2674283
000080 62 23 55 bd e2 ba ba be 59 c1 11 3d d1 37 b1 3d
       -0.052035697 -0.36470705 0.03558478 0.08653224
000090 f5 51 b0 be 57 bd 35 3d f8 f4 99 bd 22 bc 93 3e
       -0.34437528 0.04437002 -0.07517427 0.2885447
0000a0 d4 ca c2 3e 83 f8 e4 bd cd f6 45 bd f3 7d ce 3e
       0.3804537 -0.11180212 -0.04833107 0.40330467
0000b0 70 8b 38 3d 22 9b 43 3e 67 93 0a be 14 da c9 3d
       0.045054853 0.19102147 -0.13532792 0.09856048
0000c0 3b 21 61 bd 02 48 86 3d
       -0.05496333 0.06556703

layers.1.bias f4 [10]
000000 fd ac 77 3e cc b0 a2 bd 7e 36 38 be 77 11 80 bb
       0.24187084 -0.079438776 -0.17989537 -0.003908332
000010 b9 37 9c bd a0 50 96 be 2a 3d c2 be c4 b9 3b 3d
       -0.07627816 -0.29358387 -0.3793729 0.045831457
000020 49 70 21 3d 46 ac 33 3e
       0.039413724 0.17546186

layers.2.weight f4 [10]
000000 88 65 7f 3f 7c 1c 80 3f 97 da 7f 3f 99 57 7f 3f
       0.997643 1.0008693 0.99942917 0.9974304
000010 b4 08 80 3f 14 50 80 3f e0 62 7f 3f f1 49 80 3f
       1.0002656 1.0024438 0.99760246 1.0022565
000020 f9 01 80 3f 88 5c 7f 3f
       1.0000602 0.99750566

layers.2.bias f4 [10]
000000 75 27 1a bb 90 1b e3 39 ae e5 28 bb b8 5e 3d bb
       -0.0023522053 0.0004331735 -0.0025771665 -0.0028895568
000010 4c 90 82 39 cc 48 1b 3b 2e e3 79 39 54 2e bc 38
       0.00024903042 0.0023694513 0.00023831122 8.973168e-05
000020 c2 7c 20 3b 70 e8 ae 38
       0.0024488424 8.3402614e-05

layers.2.running_mean f4 [10]
000000 c9 18 e8 3d ea 77 18 bd 22 a2 ac bd 14 bb ef ba
       0.113328524 -0.037223734 -0.08429362 -0.0018290007
000010 3c 67 12 bd a3 de 0c be 4b 07 36 be 80 f2 af 3c
       -0.035742983 -0.13756804 -0.1777622 0.021477938
000020 a4 4a 97 3c 1a 63 a8 3d
       0.018468209 0.08222027

layers.2.running_var f4 [10]
000000 e2 e2 39 3f 99 b0 4c 3f 29 58 24 3f 13 3e 42 3f
       0.7261182 0.79956967 0.6419702 0.7587597
000010 4d 69 48 3f b3 43 34 3f 87 07 39 3f 2a d6 20 3f
       0.78285676 0.704158 0.7227711 0.6282679
000020 75 09 2e 3f 74 a4 10 3f
       0.6798318 0.56500936

layers.4.weight f4 [5, 10]
000000 4b 5f b1 bd 58 62 8d bd 76 8b 2d be b9 1c 45 be
       -0.08660754 -0.06903523 -0.16947731 -0.19249238
000010 52 c6 8f be ab cd 1e be 51 47 38 3e b2 a0 82 be
       -0.28080994 -0.15508144 0.17995955 -0.25513226
000020 98 fc e0 bd 3d b5 db bd 2f 9f fa 3d ca e6 98 be
       -0.109856784 -0.10727928 0.12237393 -0.29863578
000030 c2 c9 94 3e 2e 37 55 be 99 ed ef bd e3 a7 94 bc
       0.2906018 -0.2082183 -0.1171524 -0.01814646
000040 44 e3 96 be c2 f5 81 be 20 76 3a 3e 62 2d 7c be
       -0.29470265 -0.2538281 0.18209124 -0.24626687
000050 69 bd f0 3d 87 70 01 3d a7 94 5f be 2b 77 7c bc
       0.11754877 0.031601455 -0.2183405 -0.015409271
000060 72 91 64 3e b4 93 67 be 64 7b 44 3e 31 ba 3a be
       0.22321108 -0.22614938 0.19187695 -0.18235089
000070 d7 54 61 be b3 95 94 3d c2 07 64 be 99 55 3d bd
       -0.2200502 0.07255115 -0.22268584 -0.04622421
000080 fd 83 36 be 83 15 25 3d bd d0 9f 3e 56 d7 c3 3d
       -0.17823787 0.04030372 0.31213942 0.095625564
000090 47 62 9b 3e 52 59 8b 3e 2a db 03 3e 4f 32 8a 3e
       0.30348417 0.27216583 0.12876573 0.26991507
0000a0 f9 3c eb 3c 20 02 39 bd 19 de 3f be a9 ca 69 be
       0.028715597 -0.045168042 -0.18737067 -0.22831215
0000b0 4e 44 fe bd 90 e9 82 be 73 db 1a 3e ea 13 89 be
       -0.12415372 -0.2556882 0.15122776 -0.26773006
0000c0 9b 53 94 be 55 8e 13 3d
       -0.28970036 0.03602441

layers.4.bias f4 [5]
000000 45 d6 99 be 60 dd 35 3e cc 35 e2 bd 8e 29 9f be
       -0.30046287 0.17760229 -0.11045417 -0.3108639
000010 b4 94 fc bd
       -0.1233305

layers.5.weight f4 [5]
000000 24 3a 7f 3f 43 9a 7f 3f f9 60 80 3f ba 49 80 3f
       0.9969809 0.9984476 1.0029594 1.00225
000010 16 51 7f 3f
       0.997331

layers.5.bias f4 [5]
000000 1c 07 44 bb 54 22 40 bb 5c ed 43 3b 3b 44 98 39
       -0.0029911464 -0.0029317336 0.0029896116 0.00029042535
000010 42 f4 1e 3b
       0.0024254476

layers.5.running_mean f4 [5]
000000 cb 80 95 be e3 e6 4e 3c 82 52 b5 bd d8 97 4b bd
       -0.29199824 0.01262829 -0.08853628 -0.049705356
000010 dc fa 4c be
       -0.2001757

layers.5.running_var f4 [5]
000000 e5 08 3d 3f b5 03 29 3f eb 0c 1a 3f b2 c0 39 3f
       0.73841697 0.6602128 0.6017596 0.72559655
000010 09 de 40 3f
       0.753388

layers.7.weight f4 [5]
000000 2b 3a 7f 3f 5f 43 7f 3f 06 61 80 3f 06 5f 80 3f
       0.9969813 0.99712175 1.0029609 1.0028999
000010 16 3d 7f 3f
       0.99702585

layers.7.bias f4 [5]
000000 78 56 44 bb ce 9d 3e bb ec 75 44 3b 2a 0d 3c 3b
       -0.0029958766 -0.0029085758 0.0029977513 0.002869437
000010 24 cb 41 bb
       -0.0029570544

layers.7.running_mean f4 [5]
000000 8c 3c 2b 3e 60 20 0f 3e 38 da c6 3d ae 27 1e 3e
       0.16722316 0.13977194 0.09709591 0.15444824
000010 28 d5 24 3e
       0.16096938

layers.7.running_var f4 [5]
000000 72 68 0c 3f 3b de 1c 3f f1 8a 09 3f 61 a8 5e 3f
       0.5484687 0.61276597 0.5372763 0.86975676
000010 b1 f9 0b 3f
       0.54677874

layers.8.rho f4 [5]
000000 da d6 ba 3f a4 e9 8e 3f 73 23 b4 3f ff be 8d 3f
       1.4596817 1.1165051 1.4073318 1.1073912
000010 68 e1 a9 3f
       1.3271914

layers.8.gam f4 [5]
000000 7e 73 9f 3f 11 01 ed 3f d4 ee b1 3f b5 dc a7 3f
       1.245712 1.851595 1.390101 1.311423
000010 c4 d7 cf 3f
       1.6237721

layers.9.weight f4 [3, 5]
000000 ea 34 e5 bd c8 2a cb 3e bc 6f 8f 3e 55 7f e0 3d
       -0.11191733 0.39681077 0.28014934 0.10961787
000010 2a 80 b4 bd e0 31 84 be 35 ca c6 bc e8 3e 20 3e
       -0.08813508 -0.25819302 -0.024266342 0.15648997
000020 37 d5 91 3d 1e cd 54 bb 43 b4 ca 3e 2a 16 46 bd
       0.07120746 -0.0032470892 0.39590654 -0.04836098
000030 fb e0 96 be 0c 11 e4 3e 6d 82 9a 3e
       -0.2946852 0.44544256 0.30177632

layers.9.bias f4 [3]
000000 dc 8e c6 be 82 87 47 3e 4f 1d 77 be
       -0.38780868 0.19485286 -0.24132274

exp_avg f4 [5]
000000 07 3f fb 39 ef b8 8a 38 b7 15 67 38 ee 5b 02 b9
       0.0004792141 6.614799e-05 5.5094915e-05 -0.00012432013
000010 63 95 f9 b9
       -0.00047604283

exp_avg_sq f4 [5]
000000 1a 86 ef 32 a1 e0 20 30 a1 bc b9 2f d7 24 b9 30
       2.7884244e-08 5.852688e-10 3.3785333e-10 1.3470992e-09
000010 00 ee 00 33
       3.0018782e-08

exp_avg f4 [5]
000000 8a 41 09 ae 5a 24 93 2d 8e 97 f0 2b b2 1d 1d 2d
       -3.1208404e-11 1.6728108e-11 1.709509e-12 8.9310104e-12
000010 d9 0e b0 ad
       -2.0015477e-11

exp_avg_sq f4 [5]
000000 2f fb 26 1b 03 56 20 1a f0 f3 9b 16 45 30 22 19
       1.381236e-22 3.3156704e-23 2.5195547e-25 8.384952e-24
000010 f0 cb 77 1a
       5.1243142e-23

exp_avg f4 [10, 5]
000000 0a 06 f9 38 c2 3d 32 37 be 76 a6 38 a0 80 5c 39
       0.0001187437 1.0624006e-05 7.937614e-05 0.00021028752
000010 ab 0e ed 39 ec 17 ce b6 f1 4c 18 b9 aa 7d 8f b6
       0.0004521509 -6.1420633e-06 -0.00014524513 -4.2763613e-06
000020 c9 ab 26 38 23 80 07 39 4d ef dc b9 80 6e 5c 39
       3.973747e-05 0.00012922338 -0.00042139963 0.00021022
000030 50 5d f8 b8 4b ef 94 38 83 9c 30 3a 17 83 6d 38
       -0.00011842942 7.101762e-05 0.0006737189 5.662729e-05
000040 c4 45 5e 36 b9 3b 85 36 b7 4a aa 35 42 52 f9 b8
       3.3121187e-06 3.9706615e-06 1.2687732e-06 -0.00011888567
000050 28 2f 1a 3a ca c0 64 37 b2 83 20 b9 11 cd c7 b8
       0.00058816606 1.3634746e-05 -0.0001530785 -9.527256e-05
000060 9c f7 29 ba 73 46 5b b8 18 27 06 b7 af 14 17 37
       -0.0006483735 -5.227928e-05 -7.996125e-06 9.005117e-06
000070 81 aa e3 38 3c fa 0c b9 b8 5c b0 39 e7 75 22 39
       0.00010855962 -0.0001344466 0.00033638417 0.00015493446
000080 8f c2 3f 38 84 ea 43 39 35 a3 6a ba ef 94 49 3a
       4.5719145e-05 0.00018684013 -0.00089507113 0.00076897343
000090 dd 13 d5 b9 4c 63 78 39 93 c3 c3 b8 89 6d 4e ba
       -0.00040641325 0.00023688114 -9.334753e-05 -0.00078745984
0000a0 dc 00 53 39 22 04 f1 37 a8 6d a1 37 75 d4 0c b9
       0.00020122848 2.8731363e-05 1.9243758e-05 -0.00013430587
0000b0 fa 5a e2 b9 c5 2d 55 3a b0 89 94 39 59 03 18 39
       -0.00043173862 0.00081321254 0.00028331345 0.00014497097
0000c0 3c 75 e8 38 81 b8 01 bb
       0.00011084459 -0.001979381

exp_avg_sq f4 [10, 5]
000000 06 5e f3 30 05 b3 c6 2f 40 6f 59 30 f6 16 bc 31
       1.77073e-09 3.614319e-10 7.9102236e-10 5.4741305e-09
000010 14 f1 dc 32 ff 84 6d 2e 64 9a 8d 30 53 a4 08 2e
       2.5721e-08 5.4005685e-11 1.0302981e-09 3.106877e-11
000020 ec a7 dc 2e 0c 2b 9d 30 81 44 7f 32 0e 21 1e 31
       1.00342706e-10 1.1435488e-09 1.48585295e-08 2.3010815e-09
000030 c8 86 24 30 cc c3 62 2f f3 7e 83 33 ff b7 e3 2f
       5.985439e-10 2.0624141e-10 6.123255e-08 4.1421797e-10
000040 1b 8e 15 2c ed 0b 4f 2c 85 68 ac 2a 3c 4f e9 30
       2.1253058e-12 2.942309e-12 3.0625863e-13 1.6975501e-09
000050 0f 28 31 33 51 c0 e9 2d 2c f5 52 31 a4 2d a4 30
       4.1247457e-08 2.6574439e-11 3.0698386e-09 1.1945542e-09
000060 4b cd 5e 33 a5 af 7c 2f 4a b6 8c 2c 99 00 3a 2d
       5.1875116e-08 2.2981668e-10 3.9992775e-12 1.0573009e-11
000070 c2 9a 1a 31 8c 9e 4d 31 4f e2 64 32 5e bf 40 31
       2.249792e-09 2.992155e-09 1.3322803e-08 2.8048457e-09
000080 3f 1d 90 2f ee 71 89 31 d7 ad d7 33 3c 11 99 33
       2.6214228e-10 4.000177e-09 1.0043339e-07 7.1277526e-08
000090 f5 f2 b3 32 ac 3d 85 31 68 4c 96 30 f4 9a a1 33
       2.0948827e-08 3.8778207e-09 1.0935652e-09 7.5253325e-08
0000a0 ee a0 60 31 2e de 70 2f e1 cc ba 2e 17 b4 9c 30
       3.2687768e-09 2.1906807e-10 8.4946945e-11 1.1401678e-09
0000b0 63 7d c5 32 6b 78 b7 33 6d 3e 0b 32 9e ab 7d 30
       2.2990838e-08 8.5435055e-08 8.105059e-09 9.2284747e-10
0000c0 7d bb a8 30 b7 86 01 35
       1.2276896e-09 4.825228e-07

exp_avg f4 [10]
000000 35 5e 78 ad 00 00 d0 ab 20 b0 0d ac 1e 85 ab 2a
       -1.4118086e-11 -1.4779289e-12 -2.0135074e-12 3.046807e-13
000010 cd 4c 37 ad 70 92 5f ad ad 1c ff ac cf f7 86 2c
       -1.0419399e-11 -1.2708598e-11 -7.2507196e-12 3.8360213e-12
000020 0b d7 31 ac 94 18 30 2d
       -2.5272586e-12 1.0009899e-11

exp_avg_sq f4 [10]
000000 5d 00 f8 19 2f f8 81 16 24 03 28 18 38 d5 a3 14
       2.5642746e-23 2.09977e-25 2.1715077e-24 1.6542894e-26
000010 5c f4 82 19 4e eb d7 19 32 0b f8 18 16 6f d5 17
       1.3540381e-23 2.2325518e-23 6.41178e-24 1.3792844e-24
000020 fa 23 83 17 42 07 84 19
       8.474758e-25 1.3651412e-23

exp_avg f4 [10]
000000 dd ba 60 39 20 b9 ed b6 ac 16 2e b7 3d a7 04 37
       0.00021431917 -7.084702e-06 -1.0376487e-05 7.906751e-06
000010 bf 41 44 b9 e0 8e 09 b9 03 0b 4f 39 31 0a 87 b9
       -0.00018716509 -0.00013118563 0.0001974516 -0.000257568
000020 cc fd 45 38 3b 3d 05 39
       4.7204827e-05 0.00012706679

exp_avg_sq f4 [10]
000000 fc f8 c2 31 88 25 64 2f 54 07 25 30 43 6c b5 2c
       5.6744494e-09 2.0749813e-10 6.0037064e-10 5.156349e-12
000010 ed 4f 9f 31 61 c1 da 30 de 3b 98 31 2d 1c 13 32
       4.6365956e-09 1.5916549e-09 4.4305883e-09 8.562933e-09
000020 9c 2b 67 30 74 c6 d0 30
       8.4099283e-10 1.5190396e-09

exp_avg f4 [10]
000000 8c 97 9b 38 5b 97 99 36 6d 59 22 38 e5 1e 27 37
       7.419204e-05 4.5773754e-06 3.8707094e-05 9.961169e-06
000010 cf fd 57 b8 12 2b 41 b8 d9 c6 51 b8 f4 d7 01 b8
       -5.1496372e-05 -4.6054898e-05 -5.0014674e-05 -3.095712e-05
000020 fe 2b e4 b7 85 1b ff b7
       -2.7200203e-05 -3.0411184e-05

exp_avg_sq f4 [10]
000000 9e 23 31 30 f5 00 31 2e 25 50 02 2f 03 16 9f 2c
       6.444284e-10 4.024599e-11 1.1851904e-10 4.5214956e-12
000010 8c 54 d6 2f 83 04 84 2f dd fe ce 2f 46 47 67 2f
       3.8986447e-10 2.4013866e-10 3.7652273e-10 2.1034649e-10
000020 2e 6f 9e 2e 3d a3 63 2f
       7.2047576e-11 2.0703524e-10

exp_avg f4 [5, 10]
000000 29 76 d4 33 63 03 98 b2 d2 9f 85 b4 34 20 b4 b3
       9.8935125e-08 -1.7696669e-08 -2.4889465e-07 -8.387761e-08
000010 69 a7 4f 32 42 68 8b 34 7e f6 1f b4 bc 2b 20 33
       1.20870505e-08 2.5966625e-07 -1.4897702e-07 3.729268e-08
000020 7a 56 c2 31 49 69 89 b4 db 64 d8 36 1c 8e 42 39
       5.6559744e-09 -2.5594844e-07 6.4490428e-06 0.00018554222
000030 00 8a 38 39 56 2f df b6 72 ee e4 b6 36 07 33 b8
       0.00017599016 -6.6514285e-06 -6.822688e-06 -4.268364e-05
000040 3d 27 bc b6 e1 2c 06 b7 64 c5 3d b8 d5 7a 8a b7
       -5.6074045e-06 -7.997472e-06 -4.5244946e-05 -1.650808e-05
000050 1c 57 65 36 b2 db d2 36 93 02 04 37 09 93 d4 36
       3.4174363e-06 6.2840636e-06 7.8684125e-06 6.3352095e-06
000060 90 ea f7 36 e4 45 1e 36 18 03 d5 36 33 ad d8 36
       7.3884803e-06 2.3584516e-06 6.348255e-06 6.4574647e-06
000070 e5 bf 61 36 c4 93 1d 37 5c 03 79 ba 14 ac 83 ba
       3.363931e-06 9.392334e-06 -0.0009499097 -0.001004579
000080 af da b3 39 b6 3b 28 39 f1 a7 1f ba 62 1f b7 ba
       0.00034304473 0.00016043973 -0.0006090394 -0.0013971145
000090 02 1e 27 3a 49 7e 7a ba d4 e9 e2 39 c0 44 ec 39
       0.0006375016 -0.0009555561 0.00043280295 0.0004506465
0000a0 4c 4e 39 35 14 bd 32 35 54 80 29 b6 9d 61 27 35
       6.903181e-07 6.658531e-07 -2.525766e-06 6.2354394e-07
0000b0 ae 81 3c 35 8b c8 23 35 8e 10 1a 35 d4 08 1f b5
       7.0224166e-07 6.101406e-07 5.739356e-07 -5.924496e-07
0000c0 9e 10 35 35 b1 ab 89 b6
       6.7451936e-07 -4.1029057e-06

exp_avg_sq f4 [5, 10]
000000 64 15 e6 25 51 74 d6 23 68 0c 37 27 fe dd a4 25
       3.9913135e-16 2.3251188e-17 2.5403077e-15 2.8599893e-16
000010 1c e7 fd 22 67 57 46 27 29 14 82 26 81 83 83 24
       6.8820484e-18 2.75254e-15 9.026026e-16 5.703497e-17
000020 78 0e 40 22 b3 44 40 27 e9 0d 05 2c c8 68 ce 30
       2.6028512e-18 2.6682595e-15 1.8908158e-12 1.5018253e-09
000030 fc 6a b9 30 28 65 07 2c a2 9a 10 2c d5 22 b9 2e
       1.3490928e-09 1.9240807e-12 2.054947e-12 8.4190134e-11
000040 b9 48 c3 2b 78 28 53 2c 26 d1 cf 2e 29 5c 74 2d
       1.3875768e-12 3.0007368e-12 9.4504224e-11 1.3890258e-11
000050 59 98 09 2b d3 04 e8 2b 99 e4 35 2c b4 04 ec 2b
       4.88836e-13 1.648593e-12 2.5848544e-12 1.6770114e-12
000060 40 87 20 2c a5 2e 86 2a fe ee ec 2b 62 2b f5 2b
       2.2812446e-12 2.3835548e-13 1.6835142e-12 1.7420338e-12
000070 ec dd 06 2b 8e 97 81 2c 12 5c f1 33 a3 99 04 34
       4.791434e-13 3.6832265e-12 1.12391845e-07 1.234935e-07
000080 90 c3 c6 32 8d fa 2e 31 bd 16 4f 33 10 88 41 34
       2.3139165e-08 2.5462754e-09 4.8216624e-08 1.8024025e-07
000090 03 9f 4a 33 d0 12 fb 33 b0 fc 5b 33 b8 a0 ad 32
       4.717641e-08 1.169152e-07 5.121973e-08 2.0212937e-08
0000a0 aa ce 13 29 69 a9 09 29 0f 51 f1 2a fb 5b f2 28
       3.281981e-14 3.056705e-14 4.2866446e-13 2.6907287e-14
0000b0 a6 e2 18 29 e8 aa e3 28 ff 03 cd 28 4c 34 db 28
       3.3947366e-14 2.5276181e-14 2.2761305e-14 2.4336564e-14
0000c0 29 c4 0b 29 dd 11 a2 2b
       3.1034342e-14 1.151575e-12

exp_avg f4 [5]
000000 e0 4f 81 2a a0 c4 20 aa bc 74 ad ab 4a 0c 7a ad
       2.2970428e-13 -1.4279073e-13 -1.232479e-12 -1.42135834e-11
000010 f0 53 e3 a7
       -6.309616e-15

exp_avg_sq f4 [5]
000000 1d b0 f7 13 f0 c8 42 17 d4 4f 2c 17 1a 98 f7 19
       6.2525227e-27 6.29384e-25 5.5676955e-25 2.5600635e-23
000010 dc 01 ae 12
       1.0981402e-27

exp_avg f4 [5]
000000 0a 89 3c 35 a4 00 69 32 a2 5f 22 b6 a4 5f 14 b4
       7.0234876e-07 1.3562531e-08 -2.4195547e-06 -1.3818368e-07
000010 42 0f a8 32
       1.9564713e-08

exp_avg_sq f4 [5]
000000 65 81 b5 28 1e d3 47 23 e2 f3 87 2a 01 09 0d 27
       2.0151153e-14 1.08325174e-17 2.4150045e-13 1.9572562e-15
000010 e1 4c 92 23
       1.5861911e-17

exp_avg f4 [5]
000000 71 16 c6 35 ae c7 67 37 29 51 4e b7 96 9b e4 b8
       1.4758681e-06 1.38151645e-05 -1.2297453e-05 -0.00010900867
000010 44 aa f5 b5
       -1.8303476e-06

exp_avg_sq f4 [5]
000000 de 4f c9 29 b0 02 12 2d 4a a9 dc 2c 04 e5 dc 30
       8.940048e-14 8.299736e-12 6.271571e-12 1.6072197e-09
000010 5a 89 82 2a
       2.3187946e-13

exp_avg f4 [5]
000000 fe 62 39 3b 8e 85 26 37 8f 1e e0 ba 4c 0f e2 ba
       0.0028287764 9.925467e-06 -0.0017098951 -0.001724699
000010 08 af 73 38
       5.8098725e-05

exp_avg_sq f4 [5]
000000 98 b6 b0 34 0d d0 a6 2c dd c5 00 34 f0 3d 0f 34
       3.291541e-07 4.741102e-12 1.1992911e-07 1.3340446e-07
000010 31 18 22 2f
       1.4742409e-10

exp_avg f4 [5]
000000 c9 f8 a7 3b 27 22 36 38 52 32 4b bb 41 26 5d ba
       0.005126093 4.342399e-05 -0.0031005335 -0.0008436181
000010 19 b9 dc 38
       0.000105248946

exp_avg_sq f4 [5]
000000 40 5c 90 35 4c d0 b7 2e 64 b8 d2 34 fa 94 14 33
       1.0755684e-06 8.3588775e-11 3.924971e-07 3.459443e-08
000010 cc b0 03 30
       4.7908766e-10

exp_avg f4 [5]
000000 ae a8 e9 b9 2a aa e4 b5 c4 59 8e 39 32 61 a5 39
       -0.000445669 -1.7036848e-06 0.0002715123 0.0003154367
000010 8e a1 1b b7
       -9.276335e-06

exp_avg_sq f4 [5]
000000 26 73 0c 32 d7 eb 1d 2a ae b0 4f 31 53 4d 99 31
       8.175254e-09 1.4026225e-13 3.0222895e-09 4.461677e-09
000010 f0 6d 84 2c
       3.763871e-12

exp_avg f4 [5]
000000 80 38 62 b9 56 38 8f b5 78 d4 f5 38 5d 2b 2a b9
       -0.00021574087 -1.0670726e-06 0.00011722086 -0.00016228617
000010 87 d1 61 b6
       -3.3649574e-06

exp_avg_sq f4 [5]
000000 f0 a5 02 31 77 04 62 29 e8 f8 19 30 a6 33 97 30
       1.9011814e-09 5.0185953e-14 5.6014793e-10 1.1001375e-09
000010 5c 0e 09 2b
       4.8692105e-13

exp_avg f4 [3, 5]
000000 00 00 00 00 41 ba c3 b9 00 00 00 00 c2 2b 69 b9
       0.0 -0.00037332068 0.0 -0.00022236913
000010 00 00 00 00 33 1b 96 bb 32 57 f8 b9 1c f1 96 bb
       0.0 -0.004580879 -0.00047367212 -0.004606379
000020 a5 e0 04 bc 48 38 94 bb 00 00 00 00 00 00 00 00
       -0.0081102 -0.004523311 0.0 0.0
000030 00 00 00 00 8c 04 e8 bb 00 00 00 00
       0.0 -0.00708062 0.0

exp_avg_sq f4 [3, 5]
000000 00 00 00 00 7c 39 c5 31 00 00 00 00 4d 26 0a 31
       0.0 5.73999e-09 0.0 2.0103414e-09
000010 00 00 00 00 8e 02 68 35 ad 91 23 32 45 0e 6a 35
       0.0 8.643045e-07 9.520972e-09 8.719256e-07
000020 eb 53 34 36 8c 55 62 35 00 00 00 00 00 00 00 00
       2.6870937e-06 8.431605e-07 0.0 0.0
000030 00 00 00 00 1e 0e 0d 36 00 00 00 00
       0.0 2.1018855e-06 0.0

exp_avg f4 [3]
000000 87 05 c4 b9 74 1c 97 bd 3e dd 0d bc
       -0.0003738815 -0.07378474 -0.008658705

exp_avg_sq f4 [3]
000000 00 d3 c5 31 74 03 69 39 76 db 58 36
       5.7574425e-09 0.00022221898 3.2314251e-06
