lightning_logs/version_24/checkpoints/epoch=0-step=2.ckpt (torch, 28015 bytes, 56 tensors)

layers.0.weight f4 [5]
0.99897224 1.0007168 0.99935347 1.0019338 1.0004221
00000000: a5bc 7f3f 7d17 803f a1d5 7f3f 5e3f 803f
00000010: d50d 803f

layers.0.bias f4 [5]
7.565077e-06 -3.12566e-05 4.3895598e-06 7.539379e-05 -2.8351995e-05
00000000: 84d7 fd36 8519 03b8 084a 9336 bc1c 9e38
00000010: 72d5 edb7

layers.0.running_mean f4 [5]
19.187412 19.191929 19.183075 19.191126 19.195244
00000000: d27f 9941 1289 9941 f076 9941 6d87 9941
00000010: dc8f 9941

layers.0.running_var f4 [5]
0.8745196 0.8750317 0.87131107 0.8735557 0.87299085
00000000: 84e0 5f3f 1402 603f 3e0e 5f3f 59a1 5f3f
00000010: 547c 5f3f

layers.1.weight f4 [10, 5]
-0.34456652 0.32393777 0.34188116 0.23578401 -0.26656333 0.345014 0.2034999 -0.18600357
-0.3216072 0.3306975 -0.26069558 0.28168306 0.17475621 -0.39694184 0.23959629 0.17321111
0.13824095 0.30679202 0.35355157 0.07141528 -0.24445786 0.30998036 -0.039381456 -0.09692554
0.032972027 -0.052903414 0.13934344 0.11274572 -0.25321168 -0.09892401 0.2531034 -0.13063103
0.41269907 0.036432292 0.41477296 -0.4209796 0.07018787 -0.33020332 -0.19606668 -0.13195166
-0.125642 0.28073868 -0.32437316 0.36232442 -0.28242347 0.3494628 0.25782928 -0.3304568
-0.029549882 -0.42184877
00000000: 066b b0be 2cdb a53e 0c0b af3e 5d71 713e
00000010: fd7a 88be ada5 b03e 4762 503e b877 3ebe
00000020: b3a9 a4be 2f51 a93e e479 85be c338 903e
00000030: 4bf3 323e f63b cbbe bb58 753e 415e 313e
00000040: 098f 0d3e d813 9d3e b604 b53e 2d42 923d
00000050: 2953 7abe bfb5 9e3e 734e 21bd e680 c6bd
00000060: ad0d 073d 40b1 58bd 0cb0 0e3e 3ae7 e63d
00000070: f6a4 81be ac98 cabd c596 813e 24c4 05be
00000080: 4b4d d33e 073a 153d 1f5d d43e a38a d7be
00000090: a8be 8f3d 6910 a9be b4c5 48be 561e 07be
000000a0: 4ca8 00be fbbc 8f3e 3d14 a6be 9682 b93e
000000b0: cf99 90be caec b23e 3302 843e a231 a9be
000000c0: 9812 f2bc 90fc d7be

layers.1.bias f4 [10]
0.32397643 -0.11374213 0.0029228951 0.12192164 -0.38410154 0.0023059822 0.33690295 0.19551998
-0.445248 0.042827845
00000000: 3de0 a53e a2f1 e8bd 0b8e 3f3b 0eb2 f93d
00000010: f5a8 c4be f61f 173b 8b7e ac3e 6436 483e
00000020: 8cf7 e3be 406c 2f3d

layers.2.weight f4 [10]
1.0015619 0.99968636 1.0018754 0.99798685 0.9979853 0.9983233 0.9982052 0.99968773
1.0019156 1.0019429
00000000: 2e33 803f 72eb 7f3f 743d 803f 117c 7f3f
00000010: f77b 7f3f 1e92 7f3f 608a 7f3f 89eb 7f3f
00000020: c53e 803f aa3f 803f

layers.2.bias f4 [10]
0.0019573143 -0.0019803387 0.0019706632 0.00049047766 -0.0012083392 0.001998324 0.0019954678 0.00035183888
0.0019888715 0.001333134
00000000: 4946 003b 92c8 01bb 3e26 013b 6693 003a
00000010: 2361 9eba 50f6 023b 65c6 023b 0477 b839
00000020: ba57 023b 8ebc ae3a

layers.2.running_mean f4 [10]
0.06155874 -0.021609996 0.0005527786 0.023166627 -0.07298045 0.00045712502 0.06401198 0.037143815
-0.084597096 0.008138756
00000000: 0425 7c3d 7207 b1bc 58e8 103a f0c7 bd3c
00000010: c676 95bd 48aa ef39 b718 833d 1d24 183d
00000020: 3e41 adbd 6b58 053c

layers.2.running_var f4 [10]
0.9019698 0.8840506 0.88913345 0.8620555 0.84147245 0.8308727 0.8856403 0.87298447
0.8900298 0.8999325
00000000: 7ee7 663f 2451 623f 409e 633f abaf 5c3f
00000010: bd6a 573f 13b4 543f 53b9 623f e97b 5f3f
00000020: fed8 633f fa61 663f

layers.4.weight f4 [5, 10]
0.060862884 -0.2528713 -0.10714822 0.07172984 0.13576984 0.14929032 0.31109026 -0.0440057
-0.24062246 -0.2987776 -0.16711113 0.069197804 0.25615475 -0.009170358 0.095747426 0.23850256
0.09120448 -0.04902591 -0.19196524 0.29479828 -0.07174113 -0.06204187 -0.12612662 0.094570786
-0.26631317 -0.30934495 -0.14384434 -0.0916261 -0.17005225 0.039097577 0.16544202 -0.22229059
0.13022365 0.097973205 0.15872726 0.29064417 0.23890793 -0.057458427 0.03013162 0.200982
0.058435477 -0.23926316 -0.21630394 -0.20195036 0.031411897 0.30401513 0.0062264246 0.12295911
-0.051658917 0.06284808
00000000: 5c4b 793d 5978 81be 8770 dbbd 18e7 923d
00000010: 4007 0b3e 90df 183e 3947 9f3e 523f 34bd
00000020: bc65 76be 61f9 98be 2e1f 2bbe 94b7 8d3d
00000030: b726 833e 453f 16bc 3a17 c43d 043a 743e
00000040: 6ac9 ba3d 65cf 48bd 8992 44be cdef 963e
00000050: 03ed 92bd 9e1f 7ebd 5627 01be 54ae c13d
00000060: 335a 88be 7662 9ebe ee4b 13be 77a6 bbbd
00000070: 2d22 2ebe c824 203d a269 293e 25a0 63be
00000080: 5959 053e 2da6 c83d 6689 223e 50cf 943e
00000090: 48a4 743e 8759 6bbd 96d6 f63c 3ace 4d3e
000000a0: 0a5a 6f3d 6701 75be c87e 5dbe 13cc 4ebe
000000b0: c3a9 003d dfa7 9b3e 0907 cc3b fcd1 fb3d
000000c0: 4d98 53bd 7fb6 803d

layers.4.bias f4 [5]
0.13850872 -0.12896201 0.294166 0.116403125 -0.091977715
00000000: 3bd5 0d3e 9e0e 04be ed9c 963e c364 ee3d
00000010: d05e bcbd

layers.5.weight f4 [5]
1.0007677 1.0002806 1.0018729 0.99995714 1.0002991
00000000: 2819 803f 3209 803f 5f3d 803f 31fd 7f3f
00000010: cd09 803f

layers.5.bias f4 [5]
0.0020004776 0.0020008236 0.0018482434 0.0019966066 0.0020009633
00000000: 721a 033b 4020 033b c240 f23a 80d9 023b
00000010: 9822 033b

layers.5.running_mean f4 [5]
0.010713516 0.023789123 -0.030024204 0.102086455 -0.025727535
00000000: be87 2f3c 68e1 c23c 52f5 f5bc b412 d13d
00000010: 8dc2 d2bc

layers.5.running_var f4 [5]
0.84266526 0.8363508 0.839115 0.83473086 0.8249302
00000000: e9b8 573f 161b 563f 3ed0 563f ecb0 553f
00000010: a02e 533f

layers.7.weight f4 [5]
1.0019777 1.0019805 1.0019811 1.0019788 1.0019755
00000000: ce40 803f e640 803f eb40 803f d740 803f
00000010: bc40 803f

layers.7.bias f4 [5]
0.0019960827 0.0019997018 0.002000642 0.002001015 0.0020004665
00000000: b6d0 023b 6e0d 033b 341d 033b 7623 033b
00000010: 421a 033b

layers.7.running_mean f4 [5]
0.076812774 0.07526499 0.078304514 0.075001866 0.075852886
00000000: 0450 9d3d 8824 9a3d 1e5e a03d 949a 993d
00000010: c258 9b3d

layers.7.running_var f4 [5]
0.8665305 0.8913451 0.8408738 0.89614624 0.8830234
00000000: f1d4 5d3f 312f 643f 8143 573f d769 653f
00000010: d20d 623f

layers.8.rho f4 [5]
1.4190525 1.8448739 1.4078591 1.5089129 1.9757897
00000000: 83a3 b53f d424 ec3f ba34 b43f 0f24 c13f
00000010: ade6 fc3f

layers.8.gam f4 [5]
1.6782274 1.2174478 1.9714688 1.5536268 1.9027824
00000000: 28d0 d63f 54d5 9b3f 1759 fc3f 3edd c63f
00000010: 608e f33f

layers.9.weight f4 [3, 5]
0.2760768 0.30218157 0.30207244 0.39953682 0.44595182 0.4369438 0.08850095 -0.197953
-0.26613948 -0.07367883 -0.22711203 0.15174374 0.155092 0.08821767 0.27602214
00000000: f059 8d3e 8bb7 9a3e 3da9 9a3e 1790 cc3e
00000010: cc53 e43e 19b7 df3e fc3f b53d 31b4 4abe
00000020: 6f43 88be ede4 96bd 0e90 68be b662 1b3e
00000030: 70d0 1e3e 77ab b43d c652 8d3e

layers.9.bias f4 [3]
0.15484157 0.20976484 -0.33192652
00000000: ca8e 1e3e 98cc 563e 46f2 a9be

exp_avg f4 [5]
1.4421894e-06 3.9705563e-05 -8.255249e-05 -0.0001572914 0.00019824339
00000000: 4091 c135 8689 2638 0820 adb8 97ee 24b9
00000010: 8edf 4f39

exp_avg_sq f4 [5]
1.9142983e-09 1.260778e-09 2.7053935e-09 1.5056512e-09 6.9940786e-09
00000000: b18c 0331 af47 ad30 c9e9 3931 64ef ce30
00000010: 9150 f031

exp_avg f4 [5]
2.1536833e-11 3.6197892e-11 2.5029295e-11 -1.0359145e-10 2.1536835e-11
00000000: a370 bd2d 3433 1f2e f628 dc2d cdcc e3ae
00000010: a470 bd2d

exp_avg_sq f4 [5]
1.8445859e-22 7.739466e-23 1.9648116e-22 7.24315e-22 3.3850823e-23
00000000: 2bff 5e1b f920 bb1a f987 6d1b 29e9 5a1c
00000010: 4ab1 231a

exp_avg f4 [10, 5]
-0.00023676507 -0.00015052613 -1.9303116e-07 2.972995e-05 0.00015225187 0.00038803046 5.0597766e-05 0.00096297904
-0.00018742368 -8.350142e-05 0.00029465865 -0.00018289912 0.0005473022 -0.00021020274 -0.00022143155 -6.292286e-05
0.00025009344 5.6488934e-06 1.4265352e-05 -0.00044488156 -6.375793e-05 2.0892825e-05 0.00026767398 0.0002658391
0.0003924362 -0.0021450818 0.0016227846 1.6246137e-05 0.0011195446 0.00065828423 -0.0005303781 0.00089222053
-1.318218e-05 0.0009965498 0.0005214719 4.2774045e-05 2.6822534e-05 0.00017695842 -0.00033660306 -5.9010978e-05
0.00047577312 -0.00010671425 -0.00050133996 -0.00032604422 -0.00015310809 -0.00014069736 9.68803e-06 0.00028660026
-0.00024959174 -0.00031445394
00000000: 2444 78b9 8dd6 1db9 0044 4fb4 9564 f937
00000010: cda5 1f39 9170 cb39 f038 5438 6e70 7c3a
00000020: 2987 44b9 7c1d afb8 6a7c 9a39 9cc8 3fb9
00000030: d478 0f3a de69 5cb9 1430 68b9 74f5 83b8
00000040: f91e 8339 a08b bd36 3855 6f37 fe3e e9b9
00000050: c7b5 85b8 0043 af37 9856 8c39 5260 8b39
00000060: e5bf cd39 8094 0cbb 9eb3 d43a 5048 8837
00000070: afbd 923a b590 2c3a 1209 0bba e8e3 693a
00000080: 0829 5db7 aa9e 823a 63b3 083a 4868 3338
00000090: f400 e137 ea8d 3939 197a b0b9 8e82 77b8
000000a0: 3071 f939 c7cb dfb8 5b6c 03ba eaf0 aab9
000000b0: a48b 20b9 2988 13b9 c689 2237 d642 9639
000000c0: a3db 82b9 4bdd a4b9

exp_avg_sq f4 [10, 5]
3.1191352e-09 1.6439134e-09 6.634844e-11 6.146266e-11 1.8260796e-09 1.35713165e-08 6.7973414e-09 5.58587e-08
3.900395e-09 8.3803514e-10 5.1520743e-09 3.9005545e-09 1.9658593e-08 3.156167e-09 2.873258e-09 3.9619838e-10
4.39707e-09 1.1514911e-09 9.230387e-10 1.1627672e-08 3.7420092e-10 1.6980427e-09 5.7858602e-09 2.1345837e-08
1.0628487e-08 2.6040541e-07 1.5946756e-07 3.5003866e-09 7.4977656e-08 3.0487577e-08 2.3590237e-08 4.8581843e-08
2.9229423e-09 6.5079654e-08 2.1163656e-08 1.05249975e-10 5.971968e-10 2.0406512e-09 7.823568e-09 2.1216133e-10
1.3500785e-08 5.6180753e-09 1.441887e-08 6.082259e-09 7.1368698e-09 1.1425185e-09 1.0227712e-11 4.8225255e-09
3.8279686e-09 5.5181415e-09
00000000: 6858 5631 10f0 e130 dae6 912e 6728 872e
00000010: 77f9 fa30 4827 6932 0c8e e931 4ae9 6f33
00000020: 3d04 8631 7b5b 6630 2006 b131 a405 8631
00000030: b4dd a832 e1e3 5831 e472 4531 f7cf d92f
00000040: 0915 9731 7e42 9e30 13b9 7d30 0bc3 4732
00000050: 19b8 cd2f 9160 e930 f7cc c631 fe5b b732
00000060: 9598 3632 d9cd 8b34 1c3a 2b34 748b 7031
00000070: 6703 a133 72f1 0233 7ba3 ca32 4da8 5033
00000080: f2dc 4831 ebc1 8b33 5fcb b532 7872 e72e
00000090: fd27 2430 843b 0c31 6a68 0632 1b46 692f
000000a0: 15f1 6732 1d09 c131 dcb6 7732 1efc d031
000000b0: 9238 f531 cc06 9d30 85ed 332d 62b3 a531
000000c0: 2b87 8331 169a bd31

exp_avg f4 [10]
3.2014211e-12 3.3469408e-11 -7.566997e-12 8.731151e-12 1.1641538e-12 2.3283064e-10 2.7939682e-11 -2.6229827e-11
3.2014211e-12 2.8230718e-11
00000000: ad47 612c 3433 132e ba1e 05ad 9c99 192d
00000010: 10d7 a32b 0000 802f 92c2 f52d 52b8 e6ad
00000020: ad47 612c ed51 f82d

exp_avg_sq f4 [10]
4.2343178e-24 6.2659266e-23 8.46728e-23 2.0659134e-22 5.1638516e-23 5.4210113e-21 7.0451453e-22 5.528106e-23
4.2343178e-24 2.5830355e-22
00000000: a7ce a318 3580 971a edb9 cc1a ecc0 791b
00000010: 63b5 791a cecc cc1d 2ced 541c 52a9 851a
00000020: a7ce a318 8a22 9c1b

exp_avg f4 [10]
-5.94265e-05 -6.338871e-05 -0.00012886488 5.738934e-05 0.00022305314 0.00023181792 0.000110308414 -3.2542262e-05
-0.000118365104 -0.0002189783
00000000: b840 79b8 8eef 84b8 e71f 07b9 56b5 7038
00000010: 5fe3 6939 2614 7339 6155 e738 fd7d 08b8
00000020: c83a f8b8 8a9d 65b9

exp_avg_sq f4 [10]
5.7728655e-10 4.4622342e-10 1.147094e-09 1.8490331e-10 2.784389e-09 6.9011423e-09 1.1218793e-09 1.1723732e-10
8.8624924e-10 2.8641916e-09
00000000: eeae 1e30 5d50 f52f c8a7 9d30 a84d 4b2f
00000010: 7d57 3f31 171f ed31 9e30 9a30 5fe7 002f
00000020: 3f9c 7330 64d3 4431

exp_avg f4 [10]
-0.00010810177 0.0002289049 -8.6249085e-05 2.2421355e-05 2.3975685e-05 -0.00046679442 -0.00019006111 2.5581236e-05
-0.0003056036 -5.596298e-05
00000000: b2b4 e2b8 3106 7039 a0e0 b4b8 7e15 bc37
00000010: 641f c937 16bc f4b9 244b 47b9 4997 d637
00000020: 6c39 a0b9 cbb9 6ab8

exp_avg_sq f4 [10]
7.060129e-10 3.0188212e-09 4.371531e-10 1.0726461e-10 7.3314965e-10 1.2105909e-08 2.0184214e-09 8.631687e-11
5.2883666e-09 1.5624663e-09
00000000: 3e11 4230 aa73 4f31 d453 f02f 9be0 eb2e
00000010: d286 4930 5afa 4f32 72b4 0a31 14d0 bd2e
00000020: f7b4 b531 65be d630

exp_avg f4 [5, 10]
0.0007763653 -0.00023734636 0.000109879285 0.0018277116 0.0012848286 -0.001412235 0.00012917565 0.0007241105
0.00056392374 0.00024332387 0.00057955075 -0.0006485955 0.00020296256 0.00041383528 0.00042559783 0.00047452046
0.000416479 -0.00018114231 0.00016875962 -0.00027217148 0.00012426471 1.3312063e-05 5.5828332e-05 -6.994675e-05
8.619705e-05 0.00012358009 -0.00037625156 -5.37248e-05 -8.20914e-05 0.00024888356 -0.00011713576 5.4719658e-05
0.00025993015 -0.00041526335 6.4513704e-05 0.00038039667 -0.000101183075 0.00021287617 -0.00035121368 -0.00019171485
0.00026744444 0.00028206047 0.00091706985 0.0001332338 0.0005446472 0.00083281286 8.5251464e-05 -3.3406046e-05
-0.00084513926 -0.0006297275
00000000: fe84 4b3a 2ee0 78b9 fe6e e638 d38f ef3a
00000010: b267 a83a be1a b9ba 5373 0739 3cd2 3d3a
00000020: 48d4 133a c124 7f39 feec 173a 8206 2aba
00000030: 59d2 5439 08f8 d839 c622 df39 0fc9 f839
00000040: dd5a da39 05f1 3db9 11f5 3039 3db2 8eb9
00000050: 0e4d 0239 e056 5f37 3729 6a38 60b0 92b8
00000060: b0c4 b438 4795 0139 a143 c5b9 9156 61b8
00000070: 7c28 acb8 967c 8239 c8a6 f5b8 c982 6538
00000080: 3c47 8839 b4b7 d9b9 884b 8738 fa6f c739
00000090: 4032 d4b8 8337 5f39 1a23 b8b9 1007 49b9
000000a0: c937 8c39 84e1 9339 8467 703a adb4 0b39
000000b0: a8c6 0e3a 2051 5a3a 08c9 b238 781d 0cb8
000000c0: 568c 5dba 4c14 25ba

exp_avg_sq f4 [5, 10]
3.4771375e-08 4.4312114e-09 9.275477e-09 1.8803927e-07 9.149933e-08 2.0029599e-07 6.0353305e-09 3.7175923e-08
1.8120478e-08 4.990925e-09 2.097294e-08 2.777462e-08 2.3417175e-09 9.721307e-09 1.2718106e-08 2.3297206e-08
1.1678197e-08 1.8120534e-09 2.5370752e-09 4.6766475e-09 2.5759792e-09 3.1902225e-09 1.7507368e-10 1.1258123e-09
4.228042e-10 8.609455e-10 8.009978e-09 1.8408593e-10 1.3101024e-09 3.4219716e-09 2.6555846e-09 7.58679e-10
3.904071e-09 9.6849835e-09 2.303364e-10 8.160729e-09 7.1302186e-10 2.7576983e-09 6.8238784e-09 2.4308697e-09
4.173324e-09 6.9557493e-09 4.696011e-08 1.4551094e-09 2.036912e-08 3.9878167e-08 2.279463e-09 7.918914e-09
5.194027e-08 2.1971367e-08
00000000: 8857 1533 5941 9831 fb59 1f32 d7e7 4934
00000010: 4a7e c433 f110 5734 545f cf31 5cab 1f33
00000020: 5aa7 9b32 a47c ab31 fc27 b432 0995 ee32
00000030: eeeb 2031 c302 2732 d27e 5a32 191f c832
00000040: 41a1 4832 f60b f930 b358 2e31 3ab0 a031
00000050: 1b05 3131 fd3a 5b31 dc7e 402f 00bb 9a30
00000060: 6770 e82f a7a7 6c30 419c 0932 9567 4a2f
00000070: 210f b430 f627 6b31 8a7d 3631 4a8b 5030
00000080: 9224 8631 0263 2632 ef41 7d2f 4433 0c32
00000090: 74fe 4330 f181 3d31 7877 ea31 500c 2731
000000a0: f264 8f31 6bff ee31 30b1 4933 1cfd c730
000000b0: 2bf8 ae32 8246 2b33 bda4 1c31 c10b 0832
000000c0: ee14 5f33 8cbb bc32

exp_avg f4 [5]
-6.9849196e-12 -8.149073e-12 -5.4715205e-11 -4.8457877e-11 -1.7695129e-10
00000000: 90c2 f5ac 2a5c 0fad d8a3 70ae b81e 55ae
00000010: 5c8f 42af

exp_avg_sq f4 [5]
3.3859634e-22 1.3885921e-22 1.7606088e-22 1.4098145e-22 1.7338562e-21
00000000: 3fab cc1b d8de 271b 34d8 541b a56f 2a1b
00000010: a801 031d

exp_avg f4 [5]
4.2295575e-08 1.427201e-07 -3.6284913e-08 5.853151e-08 1.3333413e-07
00000000: 7aa8 3533 9a3e 1934 afd7 1bb3 1364 7b33
00000010: 9b2a 0f34

exp_avg_sq f4 [5]
2.3970749e-15 2.6140985e-15 7.506259e-17 3.6588485e-16 2.3834057e-15
00000000: 3aba 2c27 9b5d 3c27 2215 ad24 13eb d225
00000010: 13be 2b27

exp_avg f4 [5]
-0.00034772308 -0.00032832564 -8.039079e-06 -0.00010465375 -0.0003092917
00000000: 9a4e b6b9 1f23 acb9 95df 06b7 8e79 dbb8
00000010: 6e28 a2b9

exp_avg_sq f4 [5]
6.68866e-09 5.9591025e-09 4.962007e-12 6.1055444e-10 5.286715e-09
00000000: 13d2 e531 d2c0 cc31 c995 ae2c f3d3 2730
00000010: 70a6 b531

exp_avg f4 [5]
-0.0046106656 -0.0018691444 -0.00069989834 -0.0001926494 -0.0016077526
00000000: 1115 97bb 14fe f4ba 6279 37ba ee01 4ab9
00000010: 3abb d2ba

exp_avg_sq f4 [5]
1.182626e-06 1.9325483e-07 2.706377e-08 2.0601783e-09 1.4441312e-07
00000000: b8ba 9e35 7c81 4f34 dc79 e832 0a93 0d31
00000010: fa0f 1b34

exp_avg f4 [5]
-0.0038089405 -0.0015103559 -0.00072672113 -0.00023588905 -0.0013985785
00000000: 6b9f 79bb 22f7 c5ba 6e81 3eba fc58 77b9
00000010: 8250 b7ba

exp_avg_sq f4 [5]
8.096807e-07 1.2638984e-07 2.9205868e-08 3.074799e-09 1.0820891e-07
00000000: d658 5935 c6b5 0734 62e0 fa32 704c 5331
00000010: 7a60 e833

exp_avg f4 [5]
0.0007059426 0.0002562239 0.00010508768 2.8794135e-05 0.00019633128
00000000: 020f 393a ca55 8639 8562 dc38 ef8a f137
00000010: 47de 4d39

exp_avg_sq f4 [5]
2.771917e-08 3.631781e-09 6.101607e-10 4.6014657e-11 2.1530093e-09
00000000: 191b ee32 f892 7931 3eb8 2730 e65f 4a2e
00000010: 24f4 1331

exp_avg f4 [5]
-0.00012289695 -8.2318285e-05 -1.7844965e-06 1.3222287e-06 -3.4993784e-05
00000000: e6dd 00b9 4ba2 acb8 d582 efb5 6f77 b135
00000010: 4ac6 12b8

exp_avg_sq f4 [5]
8.3436247e-10 3.751096e-10 2.430084e-13 4.5050568e-13 7.4316504e-11
00000000: 0a59 6530 fc37 ce2f 34cd 882a b69c fd2a
00000010: 796c a32e

exp_avg f4 [3, 5]
-0.005429497 -0.0042464905 -0.0064027673 -0.0035464196 -0.0038468866 -0.0061101965 -0.0053437753 -0.007538697
-0.004982157 -0.005321447 0.0 -0.0008827152 0.0 -0.00076041365 -0.0009068897
00000000: ece9 b1bb 2526 8bbb 4ece d1bb 0c6b 68bb
00000010: 0c1c 7cbb 0b38 c8bb d61a afbb 2d07 f7bb
00000020: 5d41 a3bb 885f aebb 0000 0000 0466 67ba
00000030: 0000 0000 7f56 47ba 56bc 6dba

exp_avg_sq f4 [3, 5]
1.6357457e-06 9.95919e-07 2.2684212e-06 6.948451e-07 8.278008e-07 2.0672906e-06 1.5781991e-06 3.1459585e-06
1.3724468e-06 1.5708365e-06 0.0 4.3500556e-08 0.0 3.517024e-08 4.5472863e-08
00000000: cb8b db35 84ab 8535 2e3b 1836 6485 3a35
00000010: 0a36 5e35 c8bb 0a36 82d2 d335 281f 5336
00000020: ea34 b835 88d5 d235 0000 0000 5ed5 3a33
00000030: 0000 0000 160e 1733 f14d 4333

exp_avg f4 [3]
-0.046487574 -0.051386036 -0.001124101
00000000: c169 3ebd 2a7a 52bd 9256 93ba

exp_avg_sq f4 [3]
0.000119690405 0.00014611805 7.071908e-08
00000000: 4c02 fb38 4437 1939 3ade 9733
