lightning_logs/version_29/checkpoints/epoch=3-step=8.ckpt (torch, 28460 bytes, 56 tensors)

layers.0.weight f4 [5]
0.99573207 1.0065773 1.0059142 1.0000844 0.9914424
00000000: 4ce8 7e3f 86d7 803f ccc1 803f c402 803f
00000010: 2bcf 7d3f

layers.0.bias f4 [5]
-6.6551234e-05 0.00012571336 4.6348483e-05 -9.8757264e-05 0.00020385931
00000000: 6c91 8bb8 ecd1 0339 4e66 4238 e71b cfb8
00000010: 11c3 5539

layers.0.running_mean f4 [5]
65.76505 65.75654 65.77605 65.74143 65.79824
00000000: b587 8342 5983 8342 568d 8342 9d7b 8342
00000010: b398 8342

layers.0.running_var f4 [5]
0.5786967 0.5669136 0.5564133 0.5722584 0.5678688
00000000: 7825 143f 4021 113f 1a71 0e3f 877f 123f
00000010: da5f 113f

layers.1.weight f4 [10, 5]
0.356491 -0.1497709 -0.30903083 0.33766878 -0.38265675 -0.43854347 0.3880043 -0.4392014
0.17501126 -0.21344036 0.11945837 -0.28710988 0.3657471 -0.4468518 -0.22613159 -0.28375915
-0.34790784 -0.36962157 0.19252267 -0.2619097 -0.00278185 -0.447792 0.054662485 -0.31718242
-0.20582189 -0.26831806 -0.014268372 -0.06039439 0.011622662 0.016589502 0.31619456 0.2565066
-0.2991876 -0.35071373 -0.037060294 -0.37979424 0.0051660556 0.14503835 -0.41634676 0.08818745
0.23005894 -0.14066055 0.17091468 -0.41593358 0.02974425 0.33124098 -0.2819806 -0.23871358
-0.3429295 0.0057376446
00000000: fd85 b63e 8b5d 19be 4a39 9ebe ece2 ac3e
00000010: 96eb c3be c588 e0be 80a8 c63e 02df e0be
00000020: 2736 333e 1c90 5abe 97a6 f43d 1100 93be
00000030: 3443 bb3e c2c9 e4be 0a8f 67be e148 91be
00000040: fa20 b2be 0a3f bdbe aa24 453e 0719 86be
00000050: b34f 36bb fe44 e5be c5e5 5f3d bc65 a2be
00000060: f9c2 52be fc60 89be e4c5 69bc 1c60 77bd
00000070: fa6c 3e3c b5e6 873c 41e4 a13e d554 833e
00000080: 1e2f 99be c090 b3be 89cc 17bd 6474 c2be
00000090: 0448 a93b ef84 143e 672b d5be 9f9b b43d
000000a0: 9294 6b3e 5209 10be 4204 2f3e 3ff5 d4be
000000b0: 37aa f33c 6b98 a93e c35f 90be 5571 74be
000000c0: 7594 afbe da02 bc3b

layers.1.bias f4 [10]
-0.17712629 0.34921184 0.25319153 -0.013758159 -0.18712388 -0.25255162 -0.23578355 -0.3104259
0.049347397 -0.16644481
00000000: 9860 35be e5cb b23e 52a2 813e e769 61bc
00000010: 679d 3fbe 724e 81be 3e71 71be 25f0 9ebe
00000020: 7f20 4a3d 8270 2abe

layers.2.weight f4 [10]
1.0092725 1.0037364 1.009423 0.99008954 0.9903413 1.0092103 0.9900149 0.99327826
1.0080316 1.0003453
00000000: d72f 813f 6f7a 803f c634 813f 8276 7d3f
00000010: 0287 7d3f ce2d 813f 9e71 7d3f 7c47 7e3f
00000020: 2e07 813f 510b 803f

layers.2.bias f4 [10]
0.009735564 -0.005344377 0.009187546 -0.009529622 -0.009428422 0.008759219 -0.009281012 -0.004617689
0.00067963154 -0.009394101
00000000: ea81 1f3c e21f afbb 5c87 163c 2222 1cbc
00000010: ab79 1abc d482 0f3c 630f 18bc fc4f 97bb
00000020: 4d29 323a b7e9 19bc

layers.2.running_mean f4 [10]
-0.11538513 0.22745661 0.1649136 -0.009017387 -0.12181488 -0.16449994 -0.1535722 -0.20215328
0.03212805 -0.10847763
00000000: 0a4f ecbd 63ea 683e 1cdf 283e aabd 13bc
00000010: 147a f9bd ac72 28be 0842 1dbe 4501 4fbe
00000020: b498 033d 8529 debd

layers.2.running_var f4 [10]
0.71252495 0.7312596 0.659631 0.62651616 0.5771694 0.3959508 0.5862687 0.5903961
0.52533644 0.6072595
00000000: 0968 363f d433 3b3f 94dd 283f 5d63 203f
00000010: 60c1 133f 10ba ca3e b515 163f 3324 173f
00000020: 737c 063f 5c75 1b3f

layers.4.weight f4 [5, 10]
-0.07764678 -0.012088279 0.03268956 0.14975 -0.20319963 -0.24451378 0.09982495 -0.21155126
-0.20084566 -0.06076444 0.022831313 -0.18921971 -0.18401624 0.054315787 0.2152944 -0.09106824
-0.12893814 0.023903048 -0.16687311 0.25933605 0.2754683 0.21301176 0.098018445 -0.12223632
-0.2846251 -0.12864989 0.010651739 -0.078619614 -0.14613368 0.16074866 -0.037537076 0.14028436
0.31547913 0.19106609 0.1445636 -0.1771938 0.023758551 -0.30842796 0.1994699 -0.2640714
-0.12835881 0.055845678 -0.15048756 -0.069203496 -0.010291433 -0.31588537 -0.21497212 -0.07491178
-0.25856742 0.1926115
00000000: 4605 9fbd eb0d 46bc 7de5 053d 1058 193e
00000010: 9013 50be d261 7abe 0671 cc3d e5a0 58be
00000020: 7caa 4dbe 22e4 78bd bc08 bb3c d0c2 41be
00000030: c16e 3cbe 3b7a 5e3d 2376 5c3e fc81 babd
00000040: 5c08 04be 53d0 c33c c9e0 2abe b2c7 843e
00000050: 2e0a 8d3e c11f 5a3e e5bd c83d 0957 fabd
00000060: 62ba 91be ccbc 03be a284 2e3c 5203 a1bd
00000070: 11a4 15be 4c9b 243e 7ac0 19bd b4a6 0f3e
00000080: 7b86 a13e d4a6 433e 7b08 143e 4b72 35be
00000090: 4ba1 c23c 45ea 9dbe d641 4c3e 5e34 87be
000000a0: 7e70 03be 70be 643d 6919 1abe 90ba 8dbd
000000b0: 669d 28bc babb a1be a721 5cbe 596b 99bd
000000c0: f362 84be f33b 453e

layers.4.bias f4 [5]
0.18666558 0.14094521 -0.27594665 0.123534106 -0.12846266
00000000: 4325 3f3e f153 103e e148 8dbe 73ff fc3d
00000010: b78b 03be

layers.5.weight f4 [5]
0.99104255 0.990651 0.99327064 0.99081874 0.99098104
00000000: f7b4 7d3f 4e9b 7d3f fc46 7e3f 4ca6 7d3f
00000010: efb0 7d3f

layers.5.bias f4 [5]
-0.009973699 -0.00986465 0.00992603 -0.009846552 -0.010009425
00000000: ba68 23bc 579f 21bc caa0 223c 6f53 21bc
00000010: 92fe 23bc

layers.5.running_mean f4 [5]
-0.07191337 0.044657085 -0.18867138 0.13354586 -0.35259944
00000000: 5147 93bd 59ea 363d 1233 41be 3fc0 083e
00000010: ea87 b4be

layers.5.running_var f4 [5]
0.4072096 0.38191223 0.41006747 0.40495968 0.3886233
00000000: c77d d03e 008a c33e 5df4 d13e e056 cf3e
00000010: a2f9 c63e

layers.7.weight f4 [5]
0.9985122 0.9899808 1.0098741 0.990182 1.0003787
00000000: 7f9e 7f3f 626f 7d3f 8e43 813f 917c 7d3f
00000010: 690c 803f

layers.7.bias f4 [5]
-0.006394112 -0.009917169 0.009975682 -0.00982439 -0.007216074
00000000: b385 d1bb 9f7b 22bc 0b71 233c 7af6 20bc
00000010: d174 ecbb

layers.7.running_mean f4 [5]
0.2633368 0.24842174 0.25849754 0.24284586 0.25878447
00000000: 15d4 863e 4562 7e3e ca59 843e 96ac 783e
00000010: 667f 843e

layers.7.running_var f4 [5]
0.4650715 0.5963853 0.55584097 0.6095065 0.5252755
00000000: da1d ee3e b5ac 183f 984b 0e3f 9e08 1c3f
00000010: 7578 063f

layers.8.rho f4 [5]
1.9890195 1.1871504 1.0892464 1.992249 1.4077435
00000000: 3198 fe3f 8bf4 973f 6d6c 8b3f 0402 ff3f
00000010: f030 b43f

layers.8.gam f4 [5]
1.7208943 1.2964455 1.8727881 1.0820856 1.9927708
00000000: 4446 dc3f edf1 a53f 85b7 ef3f c881 8a3f
00000010: 1d13 ff3f

layers.9.weight f4 [3, 5]
0.23428957 0.38116175 -0.27526408 -0.34787673 0.4385691 0.021829387 -0.30804285 0.3218917
-0.39262915 -0.03741058 -0.36767477 -0.37354356 0.20331015 0.21020322 -0.4132571
00000000: 9be9 6f3e a227 c33e 6aef 8cbe e61c b2be
00000010: 218c e03e 8bd3 b23c cbb7 9dbe fdce a43e
00000020: b006 c9be d63b 19bd de3f bcbe 1a41 bfbe
00000030: 8930 503e 833f 573e 6f96 d3be

layers.9.bias f4 [3]
-0.4333963 0.27637798 0.015108052
00000000: 1fe6 ddbe 6a81 8d3e c387 773c

exp_avg f4 [5]
0.00017469867 -0.000200488 -0.00034609914 -4.4715824e-05 0.00041822525
00000000: 512f 3739 163a 52b9 a474 b5b9 408d 3bb8
00000010: 3e45 db39

exp_avg_sq f4 [5]
1.4969578e-08 2.3694966e-08 1.9842977e-08 2.0093854e-08 9.364647e-09
00000000: 7396 8032 c889 cb32 2b73 aa32 da9a ac32
00000010: 27e2 2032

exp_avg f4 [5]
7.415752e-11 -8.323255e-11 -1.4073996e-11 -4.3286638e-11 -8.088739e-11
00000000: f912 a32e c307 b7ae a597 77ad 6c60 3eae
00000010: 8ddf b1ae

exp_avg_sq f4 [5]
1.0567453e-21 3.5470724e-21 3.890998e-22 9.968284e-22 8.520491e-22
00000000: dbb0 9f1c 2e01 861d 4732 eb1b eea2 961c
00000010: 0ec2 801c

exp_avg f4 [10, 5]
0.0012488387 -0.0025952242 0.0008628146 0.0006467614 0.0021374451 0.00051605375 0.00036363426 0.00087845576
0.001267268 -0.0010884844 -0.00017815958 0.0005916128 0.000430729 0.00036612106 -0.0008452624 -0.0010278663
0.002618641 2.7513306e-06 -0.00035417834 -0.002515125 -0.0014684522 0.0006975188 0.00093301275 -0.0010715933
0.0004732574 0.0003174824 -0.0015546293 0.00047669426 -0.0024571936 0.0046372074 0.00018001479 -7.9025805e-05
-0.0010154167 0.0011575022 -0.0013142613 0.0005532242 -0.0009737418 0.00049535936 -0.00017412408 0.00070406747
0.0011519812 -0.0007603362 0.0006213075 0.0011214602 -0.00092377537 -0.0011265464 -0.0017981487 0.0016165591
-0.000599112 0.0029640202
00000000: 13b0 a33a a314 2abb 822e 623a 6c8b 293a
00000010: 6114 0c3b c847 073a 2aa6 be39 2b48 663a
00000020: 751a a63a 7aab 8eba 59d0 3ab9 7716 1b3a
00000030: 78d3 e139 f0f3 bf39 9994 5dba 78b9 86ba
00000040: 819d 2b3b 80a3 3836 03b1 b9b9 ccd4 24bb
00000050: 1479 c0ba b2d9 363a 6d95 743a b474 8cba
00000060: 881f f839 c473 a639 b4c4 cbba d2ec f939
00000070: de08 21bb b7f3 973b 5ac2 3c39 a8ba a5b8
00000080: bb17 85ba 54b7 973a 4b43 acba 3f06 113a
00000090: b542 7fba 01db 013a 1495 36b9 2b91 383a
000000a0: 13fe 963a 4c51 47ba 3edf 223a f6fd 923a
000000b0: 8429 72ba a0a8 93ba dcaf ebba b9e2 d33a
000000c0: ba0d 1dba 0240 423b

exp_avg_sq f4 [10, 5]
7.4600145e-08 1.9171505e-07 4.3626464e-08 4.458985e-08 1.4766488e-07 1.4777014e-08 5.1884754e-08 6.7219645e-08
4.973399e-08 3.483525e-08 4.0799396e-08 3.359461e-08 4.0537433e-08 1.0607361e-08 5.1214567e-08 6.4829734e-08
2.2097882e-07 2.5930142e-08 2.944926e-08 1.7598713e-07 1.022894e-07 5.298976e-08 5.263391e-08 5.1316746e-08
1.6464014e-07 1.3370196e-08 6.592939e-07 2.9341226e-07 3.0740347e-07 9.74111e-07 8.2181195e-09 2.5725807e-08
4.223741e-08 4.376687e-08 5.34718e-08 1.3587233e-08 3.0235203e-08 1.24540005e-08 1.3778602e-08 3.9391974e-08
1.6000641e-07 5.0873176e-08 2.3854736e-07 4.8211394e-08 8.91208e-08 7.912307e-08 1.0496896e-07 8.189549e-08
3.9404014e-08 2.8604126e-07
00000000: dd33 a033 3bda 4d34 ce5f 3b33 0f83 3f33
00000010: d08d 1e34 ffdd 7d32 e4d7 5e33 645a 9033
00000020: 1a9b 5533 c39d 1533 693b 2f33 aa49 1033
00000030: 611b 2e33 ab3b 3632 03f7 5b33 8638 8b33
00000040: 3246 6d34 fcbc de32 9cf7 fc32 f9f6 3c34
00000050: 31aa db33 db96 6333 990f 6233 5c67 5c33
00000060: f0c7 3034 beb2 6532 55fa 3035 4686 9d34
00000070: 3609 a534 33be 8235 ac2f 0d32 a6fb dc32
00000080: 8668 3533 2ffa 3b33 dea8 6533 486d 6932
00000090: f5db 0133 46f5 5532 efb6 6c32 ef2f 2933
000000a0: 3ace 2b34 a67f 5a33 b311 8034 fd10 4f33
000000b0: ae62 bf33 5eea a933 4c6b e133 86de af33
000000c0: 2c3d 2933 3691 9934

exp_avg f4 [10]
1.4760474e-11 6.955153e-11 9.428711e-12 -2.7087187e-12 1.2993821e-10 -1.2461164e-11 2.9385275e-11 3.212882e-11
-4.4857392e-11 -2.1986184e-11
00000000: a2d5 812d 08f2 982e 24df 252d f09b 3eac
00000010: 5bde 0e2f 1838 5bad e13c 012e d64d 0d2e
00000020: ef48 45ae 7c64 c1ad

exp_avg_sq f4 [10]
1.6765984e-21 1.0495672e-21 8.110596e-22 1.0309855e-21 4.3697003e-21 8.426183e-21 1.1042464e-21 4.540449e-22
8.823415e-22 1.4931901e-21
00000000: 425c fd1c 2a9b 9e1c b220 751c 52cc 9b1c
00000010: 2615 a51d 852a 1f1e 77de a61c 063a 091c
00000020: ef55 851c fea4 e11c

exp_avg f4 [10]
-0.0006719867 -0.0005408416 -0.0013433165 0.0016395159 0.0010525975 -0.0007216885 0.0009769324 0.00020053453
-0.0007248322 0.00020194499
00000000: 4428 30ba 44c7 0dba 3912 b0ba 06e5 d63a
00000010: 50f7 893a b22f 3dba 690c 803a 9446 5239
00000020: aa02 3eba 32c1 5339

exp_avg_sq f4 [10]
2.714369e-08 1.3609496e-08 5.1262397e-08 8.0087965e-08 3.1237168e-08 2.009013e-08 2.4351175e-08 2.8019227e-09
1.6957538e-08 2.7802983e-08
00000000: 9b29 e932 32cf 6932 9a2b 5c33 d3fc ab33
00000010: a129 0633 aa92 ac32 cd2c d132 f28b 4031
00000020: 05aa 9132 68d3 ee32

exp_avg f4 [10]
-0.0013215006 0.00017536347 -0.00082299253 0.0013177511 0.001020155 -0.0010541693 0.0005862097 5.9195085e-05
-0.00040302725 0.0011330653
00000000: 3436 adba c6e1 3739 18be 57ba 64b8 ac3a
00000010: b9b6 853a 0d2c 8aba deab 193a 3d48 7838
00000020: 674d d3b9 5d83 943a

exp_avg_sq f4 [10]
6.131692e-08 6.346317e-09 2.2573404e-08 5.2501896e-08 3.8638493e-08 3.1898576e-08 1.2456747e-08 5.4409437e-09
1.9324698e-08 3.872948e-08
00000000: 55ad 8333 cb0e da31 71e7 c132 727e 6133
00000010: 79f3 2533 db00 0933 5a01 5632 0cf3 ba31
00000020: 76ff a532 8357 2633

exp_avg f4 [5, 10]
0.010091929 0.007856143 0.00019210466 0.005224377 5.6922105e-05 0.0029554465 0.007877676 -0.00038836378
0.0005494426 0.0015639793 -0.0039105075 -0.0008659926 0.0038415557 -0.00026254661 0.004466175 0.0024416617
-0.0007612829 0.003973563 0.0027258652 0.0002842477 0.0015783552 -0.004622474 -0.001002408 -0.0009108813
-0.00068216166 -0.0023031451 -0.0021686815 0.0019164965 -0.0014337676 -0.00033362053 0.0018154647 0.0017184772
-0.0021501556 0.003156839 -0.0010432764 0.00073261675 -0.0015674053 -0.0003511255 -0.0031229819 -0.00246817
0.0019905025 0.0010711378 -0.00060384703 -0.0013396379 -0.001582136 -3.5525438e-05 -0.00044435382 -0.00044737846
-0.00084518146 -0.0021099274
00000000: 9e58 253c 0db7 003c b46f 4939 4031 ab3b
00000010: a5bf 6e38 2ab0 413b 5e11 013c 4e9d cbb9
00000020: 7808 103a 70fe cc3a b723 80bb c803 63ba
00000030: 9cc2 7b3b 69a6 89b9 fe58 923b 4904 203b
00000040: d590 47ba aa34 823b 6ea4 323b 1507 9539
00000050: d0e0 ce3a 1f78 97bb 3b63 83ba 36c8 6eba
00000060: 18d3 32ba 5df0 16bb 7020 0ebb f432 fb3a
00000070: 42ed bbba cae9 aeb9 e3f4 ed3a 873e e13a
00000080: a0e9 0cbb f8e2 4e3b 8cbe 88ba 140d 403a
00000090: 6571 cdba 4417 b8b9 f1aa 4cbb 05c1 21bb
000000a0: 1773 023b 6c65 8c3a 7d4b 1eba ca96 afba
000000b0: ad5f cfba 2601 15b8 29f8 e8b9 1f8e eab9
000000c0: 2b8f 5dba b546 0abb

exp_avg_sq f4 [5, 10]
2.4461892e-06 1.7041659e-06 1.3374947e-08 8.020737e-07 6.317776e-09 2.924428e-07 1.6272209e-06 9.420071e-09
1.7662053e-08 2.3348774e-07 4.2407248e-07 6.046028e-08 4.5850044e-07 4.4976556e-08 5.2783173e-07 2.0673762e-07
1.3360855e-07 5.01355e-07 3.1409297e-07 1.597945e-07 1.9134359e-07 5.8733383e-07 3.9190237e-08 2.1958755e-07
4.3782425e-08 1.3611361e-07 2.0048866e-07 9.341478e-08 7.107945e-08 1.6820742e-07 9.024415e-08 1.1812298e-07
1.4363754e-07 2.7843964e-07 7.998641e-08 3.2810775e-08 7.618175e-08 2.1477623e-08 2.6136547e-07 2.0730687e-07
1.312358e-07 4.8609856e-08 1.0184756e-08 9.1391406e-08 8.367809e-08 4.1016177e-09 1.1451656e-08 1.7955418e-08
1.8262089e-08 1.2958995e-07
00000000: 3629 2436 b2ba e435 a4c7 6532 164e 5735
00000010: bf13 d931 0801 9d34 e266 da35 e9d5 2132
00000020: 44b7 9732 9fb4 7a34 14ac e334 64d6 8133
00000030: d227 f634 3f2c 4133 52b0 0d35 9bfb 5d34
00000040: 0a76 0f34 da94 0635 9ca0 a834 fa93 2b34
00000050: 2074 4d34 46a9 1d35 1f52 2833 c4c7 6b34
00000060: 490b 3c33 a026 1234 e745 5734 529b c833
00000070: 57a4 9833 819c 3434 3fcc c133 ccaa fd33
00000080: c93a 1a34 747c 9534 fec4 ab33 d4eb 0c33
00000090: 5c99 a333 cb7d b832 cc51 8c34 1498 5e34
000000a0: d2e9 0c34 1ac7 5033 08f9 2e32 f542 c433
000000b0: 84b2 b333 36ee 8c31 eabc 4432 623c 9a32
000000c0: c2de 9c32 6a25 0b34

exp_avg f4 [5]
2.4036773e-10 -2.4951854e-10 1.4011375e-10 -7.664111e-11 2.2173754e-10
00000000: c024 842f 9d2c 89af 840e 1a2f 1c89 a8ae
00000010: 92cd 732f

exp_avg_sq f4 [5]
1.2865676e-20 9.402756e-21 7.867789e-21 9.154774e-22 9.276571e-21
00000000: 9706 731e f09c 311e 4b9e 141e d157 8a1c
00000010: bf3a 2f1e

exp_avg f4 [5]
4.098484e-06 7.286237e-06 5.9463573e-06 4.991136e-06 4.5044953e-06
00000000: b685 8936 4d7c f436 d286 c736 8879 a736
00000010: 5225 9736

exp_avg_sq f4 [5]
4.2906734e-13 1.255208e-12 8.959328e-13 5.940032e-13 4.916416e-13
00000000: 1f8b f12a a2a7 b02b c32e 7c2b 7132 272b
00000010: 8362 0a2b

exp_avg f4 [5]
0.0006766554 0.0014076727 -0.001118128 0.0009946761 0.00079037243
00000000: 9361 313a a881 b83a 268e 92ba cb5f 823a
00000010: ff30 4f3a

exp_avg_sq f4 [5]
1.0080671e-08 5.0309755e-08 2.8951135e-08 2.57358e-08 1.40652086e-08
00000000: 432f 2d32 2914 5833 38b0 f832 9f11 dd32
00000010: 71a3 7132

exp_avg f4 [5]
-0.0006081864 0.004557348 -0.0075499634 0.0018236239 -0.0008952863
00000000: b36e 1fba ce55 953b af65 f7bb aa06 ef3a
00000010: a6b1 6aba

exp_avg_sq f4 [5]
2.0341869e-08 5.1000484e-07 1.3487441e-06 9.086137e-08 3.0519686e-08
00000000: 3ebc ae32 44e7 0835 7f06 b535 911f c333
00000010: c014 0333

exp_avg f4 [5]
0.000115234005 0.004514434 -0.006630224 0.002243047 0.00019870527
00000000: c9a9 f138 d1ed 933b 5a42 d9bb 1600 133b
00000010: 8a5b 5039

exp_avg_sq f4 [5]
1.1025873e-08 5.097847e-07 1.0324653e-06 1.3408751e-07 9.494995e-09
00000000: 4d6c 3d32 23d8 0835 3d93 8a35 b2f9 0f34
00000010: 6e1f 2332

exp_avg f4 [5]
7.4715215e-05 -0.00079692213 0.001326278 -0.00023979021 0.00013380284
00000000: 6db0 9c38 8ae8 50ba 81d6 ad3a 3270 7bb9
00000010: 6d4d 0c39

exp_avg_sq f4 [5]
3.0725197e-10 1.5662218e-08 4.1459764e-08 1.5793169e-09 6.8123907e-10
00000000: dfe9 a82f 9589 8632 7e11 3233 460f d930
00000010: f041 3b30

exp_avg f4 [5]
-6.145704e-05 9.2963135e-05 -0.00015698907 -5.6068562e-05 -0.0001006606
00000000: 7fe2 80b8 34f5 c238 6f9d 24b9 292b 6bb8
00000010: c019 d3b8

exp_avg_sq f4 [5]
8.573796e-11 2.2336655e-10 5.8691324e-10 1.1844431e-10 2.390437e-10
00000000: 2e8a bc2e 1898 752f 5954 2130 1c3b 022f
00000010: 696a 832f

exp_avg f4 [3, 5]
-0.0041044857 -0.0018872854 -0.0010051138 0.0 -0.008443176 -0.019331846 -0.015665706 -0.020252686
-0.008363087 -0.021533541 -0.0018026114 -0.00061910995 -0.008964365 -0.015478096 -0.00012646093
00000000: ec7e 86bb ca5e f7ba 06be 83ba 0000 0000
00000010: 3f55 0abc d25d 9ebc 5e55 80bc f6e8 a5bc
00000020: 5405 09bc 1c67 b0bc 9a45 ecba c44b 22ba
00000030: 46df 12bc d797 7dbc 999a 04b9

exp_avg_sq f4 [3, 5]
3.932768e-07 8.805379e-08 2.5835307e-08 0.0 1.6462874e-06 8.764322e-06 5.7156367e-06 9.650188e-06
1.712807e-06 1.0938513e-05 8.754809e-08 9.730882e-09 1.8938581e-06 5.677863e-06 6.095369e-10
00000000: 8d23 d334 1518 bd33 71ec dd32 0000 0000
00000010: 01f6 dc35 7a0a 1337 f2c8 bf36 3ee7 2137
00000020: 9ae3 e535 8e84 3737 1202 bc33 df2c 2732
00000030: 7830 fe35 7984 be36 598c 2730

exp_avg f4 [3]
-0.010702049 -0.1527412 -0.10322029
00000000: a657 2fbc 3068 1cbe 2965 d3bd

exp_avg_sq f4 [3]
2.6509883e-06 0.00054750795 0.0002461503
00000000: a2e7 3136 a386 0f3a bc0d 8139
