modules_test/model/lightning_logs/version_9/checkpoints/epoch=3-step=8.ckpt (torch, 27963 bytes, 56 tensors)

layers.0.weight f4 [5]
000000 ba da 7f 3f b8 33 80 3f 51 11 81 3f 21 13 81 3f
       0.99943125 1.0015783 1.008341 1.0083963
000010 dd aa 7d 3f
       0.9908884

layers.0.bias f4 [5]
000000 be 98 04 b9 aa 45 81 b8 bd c6 a7 b9 84 e6 58 b9
       -0.00012645402 -6.164175e-05 -0.00032000794 -0.00020685239
000010 25 95 93 b8
       -7.0372866e-05

layers.0.running_mean f4 [5]
000000 50 8d 83 42 25 9b 83 42 2e 94 83 42 1e a6 83 42
       65.776 65.80302 65.78941 65.82445
000010 e7 9d 83 42
       65.8084

layers.0.running_var f4 [5]
000000 db 48 0f 3f 47 c0 13 3f 4f 18 16 3f de 1f 0f 3f
       0.55970544 0.57715267 0.5863084 0.55908
000010 74 79 11 3f
       0.5682595

layers.1.weight f4 [10, 5]
000000 0e bf d7 be a7 f6 e6 bd e3 59 bf 3e 05 3d 56 bd
       -0.4213795 -0.11277514 0.37373266 -0.052304287
000010 2b 19 b2 bd e9 8a f7 3d 0b 25 2e 3e a0 43 4b be
       -0.08696207 0.12087042 0.17006318 -0.19850016
000020 7a 02 3c 3e 45 3c 0d 3e cb 2e c7 be 2e 2e 81 be
       0.1836032 0.13792522 -0.38902888 -0.25230545
000030 36 48 8d be 4e 42 a6 3e b1 af db be 08 a2 e8 bd
       -0.27594155 0.3247246 -0.4290748 -0.1135903
000040 7f 7b cf be 5d 2c 34 be 97 2f 90 3e 60 1f a2 bd
       -0.40523908 -0.17595048 0.28161308 -0.079161406
000050 67 d6 f0 3c 81 24 62 3e 9c 87 9f 3c 8d de 5b 3e
       0.02939911 0.22084238 0.019473843 0.21471615
000060 74 9a f2 3d 8d 95 58 be a5 33 fd 3d 1b 2b fa bd
       0.11845866 -0.21150799 0.12363366 -0.12215253
000070 f2 3b 62 3c 62 a0 70 3e 9c 1a 6b 3d e6 06 4e bd
       0.013808237 0.23498681 0.057398424 -0.050299548
000080 05 ef 84 be 74 78 cc bd d3 7c 2d 3d 64 01 c8 be
       -0.25963607 -0.09983912 0.04235537 -0.3906356
000090 46 2d 1b 3e bf 4d cd be ba 97 4a be c9 9b 8d be
       0.15153989 -0.40098378 -0.19784442 -0.27657917
0000a0 06 01 ad 3e b0 bb 59 bd 20 fe 11 bd c4 99 90 3e
       0.33789843 -0.05315751 -0.035642743 0.28242314
0000b0 ac ca 95 be 77 e6 5b bc 66 f0 15 3e 71 a7 00 be
       -0.2925619 -0.013421646 0.14642486 -0.12563874
0000c0 43 0f 07 3a 5b 59 87 3e
       0.00051521155 0.2643536

layers.1.bias f4 [10]
000000 32 c7 92 be 79 72 c8 3e 9b 24 d6 3d 33 b6 e4 be
       -0.286676 0.39149836 0.10456201 -0.44670257
000010 76 70 06 bc 98 6e ff bd 5b fa 0a 3b dc 35 c3 3e
       -0.008205524 -0.12472266 0.0021206352 0.3812703
000020 50 6c a8 3e 95 91 69 3e
       0.32895136 0.22809441

layers.2.weight f4 [10]
000000 85 fa 80 3f f4 37 81 3f 2c 6c 7d 3f 06 c2 80 3f
       1.0076452 1.00952 0.9899318 1.0059211
000010 c5 d4 7d 3f 27 9c 7e 3f a9 37 80 3f 53 9f 7d 3f
       0.99152786 0.9945702 1.0016986 0.99071234
000020 3d fc 80 3f b6 25 81 3f
       1.0076977 1.0089633

layers.2.bias f4 [10]
000000 08 64 18 3c a6 d8 ec 3b 31 2d 85 3b fa 4b 0d 3c
       0.009301193 0.007227975 0.004064225 0.008624071
000010 25 01 c1 bb bb 2a 02 3c 9d 6f 01 bc 69 0a 10 bc
       -0.005890029 0.007944758 -0.007900146 -0.0087915445
000020 68 b4 11 3c a0 2a e7 3b
       0.00889311 0.007054642

layers.2.running_mean f4 [10]
000000 26 47 3f be c8 97 82 3e f6 89 8b 3d 80 e2 94 be
       -0.18679485 0.25506425 0.06813423 -0.29079056
000010 25 ce b2 bb 34 64 a6 bd 89 9a b2 3a 21 4e 7e 3e
       -0.0054567032 -0.08124581 0.0013626377 0.24834491
000020 1a 71 5b 3e f2 2d 18 3e
       0.21429864 0.14861277

layers.2.running_var f4 [10]
000000 66 bf 14 3f 5f b8 de 3e 2b 1d 35 3f 5c 7a 0c 3f
       0.5810455 0.4350004 0.7074763 0.54874206
000010 36 bb d4 3e 7f 73 db 3e 8c c5 cf 3e 12 47 1e 3f
       0.4154908 0.42861554 0.40580404 0.61827195
000020 b2 b4 0b 3f a6 f2 d2 3e
       0.54572594 0.4120075

layers.4.weight f4 [5, 10]
000000 60 5c 89 3e bb 0d 99 3d 39 6c c8 3d 38 a8 67 3e
       0.2682829 0.07473322 0.09786267 0.22622764
000010 ee f7 80 3e d7 5a 8f be a9 e7 82 3e 2a f0 a0 3e
       0.25189155 -0.27998993 0.25567368 0.3143323
000020 08 6b 6b be 6d ef bd bd 52 a4 e8 bd 7a 73 a4 3e
       -0.22990048 -0.092741825 -0.113594666 0.32119352
000030 bb 06 9f 3d 59 4e 01 bd 82 bf 09 3d a3 0a 10 be
       0.077649556 -0.03156886 0.0336299 -0.14066558
000040 75 be 82 bd 23 e9 99 3e c3 47 60 be ba 2b 8b 3e
       -0.06383983 0.30060682 -0.21902375 0.27181798
000050 1f d1 70 3d 9b 3a 80 3d 2b a2 8e 3e 75 c3 9f bd
       0.058793183 0.06261178 0.278581 -0.07800952
000060 2c 95 2e 3e 48 e5 09 3e 50 ed 75 bd dc fc 82 be
       0.17049092 0.1346637 -0.060040772 -0.2558354
000070 21 82 9f be a6 55 84 be 50 a9 68 bd 94 bf 96 3e
       -0.31153968 -0.25846595 -0.056802094 0.29443038
000080 38 6b d3 bd 69 f6 34 3e 76 a4 a6 3d 5b 9c 3e be
       -0.10323185 0.17672123 0.08136837 -0.18614332
000090 01 6c 98 be 10 e3 24 3e 2f 79 35 be cf 7c 0a 3d
       -0.297699 0.16102242 -0.17722009 0.033810433
0000a0 5b fc 9e be 4a 16 e0 bc 06 ef 0b 3e 5c 13 93 3e
       -0.31051907 -0.027354378 0.13665399 0.28725708
0000b0 44 9b 92 3d 71 cd 82 bd 07 07 07 be c9 57 7b 3e
       0.07158521 -0.06386841 -0.13186274 0.24545206
0000c0 c5 15 80 3e c3 c6 6a 3d
       0.2501661 0.05731846

layers.4.bias f4 [5]
000000 16 38 9d be 27 d2 65 3e 46 99 8b 3d b9 45 42 3e
       -0.30706853 0.22443448 0.06816344 0.1897191
000010 a5 b3 b6 bc
       -0.022302458

layers.5.weight f4 [5]
000000 39 b0 7d 3f 05 9d 7d 3f 01 48 7e 3f 3e 3a 80 3f
       0.9909702 0.9906772 0.9932862 1.0017774
000010 08 2a 7e 3f
       0.99282885

layers.5.bias f4 [5]
000000 93 15 1b bc 3f a8 22 bc 8b 86 1e 3c ef 20 ac bb
       -0.009465593 -0.009927808 0.009675632 -0.0052529494
000010 9a c3 22 3c
       0.00993433

layers.5.running_mean f4 [5]
000000 15 c3 0b 3d aa d4 82 3e 36 8e a4 bc fe ff cd 3d
       0.03412159 0.25552875 -0.020087343 0.10058592
000010 21 80 f6 3d
       0.120361574

layers.5.running_var f4 [5]
000000 21 20 d9 3e 1a 30 d9 3e 37 96 c5 3e f0 87 be 3e
       0.42407325 0.4241951 0.38591167 0.37213087
000010 ef 73 de 3e
       0.43447825

layers.7.weight f4 [5]
000000 ad 7e 7d 3f 26 6c 7d 3f fb 45 81 3f 50 37 81 3f
       0.99021417 0.98993146 1.0099481 1.0095005
000010 fe 43 81 3f
       1.0098875

layers.7.bias f4 [5]
000000 c5 c1 1f bc 21 83 23 bc 54 bb 24 3c 1a 90 1a 3c
       -0.009750788 -0.009979994 0.010054428 0.009433771
000010 a6 de 23 3c
       0.010001814

layers.7.running_mean f4 [5]
000000 84 93 82 3e 21 8e 88 3e df e1 88 3e bc cc 81 3e
       0.2550317 0.26670936 0.26734826 0.25351512
000010 37 3a 82 3e
       0.2543504

layers.7.running_var f4 [5]
000000 8f 50 20 3f 28 71 1f 3f 5c c6 15 3f 68 7d 19 3f
       0.6262292 0.6228204 0.585058 0.5995698
000010 33 9e 22 3f
       0.6352264

layers.8.rho f4 [5]
000000 aa 21 cd 3f 8e e7 87 3f 99 d0 e1 3f e7 d4 95 3f
       1.6025898 1.061754 1.7641784 1.1705598
000010 b9 9d ac 3f
       1.3485633

layers.8.gam f4 [5]
000000 0d a6 92 3f 36 12 d4 3f ef 88 f1 3f fc 59 d7 3f
       1.1456925 1.6568058 1.8869914 1.6824336
000010 fe 15 f9 3f
       1.9459836

layers.9.weight f4 [3, 5]
000000 ed 6e de bc 85 7e d9 be bb 9f 82 3e 56 22 8d 3e
       -0.027152503 -0.4247934 0.2551249 0.2756526
000010 ec a4 d2 3e 74 84 8c be 0e 0c 40 be 1f 2d 42 3e
       0.4114145 -0.27444804 -0.18754598 0.18962525
000020 70 f4 0c 3e 15 43 d7 3e 25 cc 7d 3e 05 0b 30 be
       0.1376512 0.42043367 0.24784906 -0.17191704
000030 d7 8d c0 3e e0 45 91 be be 96 c8 3d
       0.37608215 -0.28373623 0.09794377

layers.9.bias f4 [3]
000000 88 b8 bd bd 7e 5a 7a 3e 8a 54 09 3d
       -0.09263712 0.24448583 0.03352789

exp_avg f4 [5]
000000 c7 b9 7a 39 fd d5 1b 39 1b e4 87 ba b9 6b e6 ba
       0.00023911065 0.00014861669 -0.0010367663 -0.0017579711
000010 2d 4a 1f 3b
       0.0024305687

exp_avg_sq f4 [5]
000000 20 57 23 33 69 75 7b 33 2a 90 08 33 e5 df bb 33
       3.8030635e-08 5.8547275e-08 3.1796084e-08 8.748592e-08
000010 80 1b 4b 34
       1.8915853e-07

exp_avg f4 [5]
000000 a9 c1 e3 2e 6e 3b 94 ab 8b 56 5f 2e b8 ba 26 2f
       1.0357166e-10 -1.0532528e-12 5.0781195e-11 1.5163948e-10
000010 b1 4f e7 2d
       2.629705e-11

exp_avg_sq f4 [5]
000000 ad fe a0 1d 43 db 39 1d 84 d3 fd 1c e0 cd e4 1d
       4.2614976e-21 2.4597902e-21 1.6796811e-21 6.0563967e-21
000010 9b 47 5d 1d
       2.9286126e-21

exp_avg f4 [10, 5]
000000 1c 21 a7 3a 6e cc 1b bb 30 48 b6 3a f3 74 21 3b
       0.0012750956 -0.0023772973 0.0013907012 0.0024636358
000010 2f 55 e9 3a 20 22 b6 bb 4a e8 68 3b 5f a5 d3 ba
       0.0017801876 -0.0055582672 0.0035538846 -0.0016147307
000020 51 0f 0e 3b 27 21 ac bb 2d 7d 00 b8 7d e6 66 3b
       0.002167661 -0.0052529755 -3.0634157e-05 0.0035232597
000030 52 a5 1c b8 f7 c6 a6 3a 8a fd 82 ba 89 54 da bb
       -3.7347265e-05 0.0012724091 -0.0009993773 -0.0066629094
000040 ef 34 4f 37 ad 16 88 b9 c6 bb 53 bb 48 38 6a ba
       1.2350486e-05 -0.00025956836 -0.0032307967 -0.0008934778
000050 e9 b7 86 bb c7 ca 07 3b b6 f2 d3 38 13 06 60 3a
       -0.0041112793 0.002072023 0.000101064725 0.0008545827
000060 14 51 9d bb 1e 05 c3 3b ba 55 c3 39 61 d2 8a bb
       -0.004800925 0.0059515378 0.0003725717 -0.004236505
000070 aa 8a c0 3a 94 1d 2c 3b ae 9b 22 3c fc 6e 5e 3b
       0.0014689763 0.0026262747 0.009924812 0.0033940664
000080 79 9e b4 39 b1 81 dd 3b 38 63 c1 3b 70 cf fe ba
       0.00034450347 0.006759845 0.0059017204 -0.0019440483
000090 fe d3 2d bb 95 2a 28 3b 48 e5 46 3b bf 0a 90 bb
       -0.0026524062 0.0025660146 0.0030349065 -0.0043958123
0000a0 0c fe 97 3a 6b 58 d9 ba 00 6b 4f 3a 4a 19 03 bb
       0.0011596098 -0.0016582137 0.00079123676 -0.0020004087
0000b0 cb 47 ad b9 ed 1c 39 bc ea 09 0b 3a 0d 7f 37 3c
       -0.0003305062 -0.0112984 0.00053039065 0.011199725
0000c0 36 d2 93 bb d0 08 83 3b
       -0.004511143 0.0039988533

exp_avg_sq f4 [10, 5]
000000 56 a7 9c 33 38 e1 5d 34 9a fc cb 33 9f cb 3a 34
       7.294754e-08 2.0664163e-07 9.498872e-08 1.7396677e-07
000010 46 b2 e8 33 6d a0 a0 35 e3 4a 08 35 74 cd 6c 34
       1.08357696e-07 1.1967619e-06 5.077292e-07 2.2053956e-07
000020 83 52 17 35 1b fd 85 35 52 4b d2 32 73 92 05 35
       5.6371954e-07 9.982936e-07 2.448147e-08 4.975947e-07
000030 1e 8e d5 33 3c f0 8f 33 92 d4 8e 33 24 b9 b9 35
       9.9444364e-08 6.702655e-08 6.6510566e-08 1.3837457e-06
000040 a5 a6 2d 33 67 fc 6e 33 ab 79 96 34 4b 89 e0 33
       4.0431264e-08 5.5643252e-08 2.8028202e-07 1.0455786e-07
000050 4f bd 28 35 03 65 04 34 65 d6 bc 33 36 e1 0f 33
       6.286036e-07 1.2330206e-07 8.79343e-08 3.349961e-08
000060 fc a6 24 35 bb 62 8f 35 ea 69 de 34 dd d5 f2 34
       6.1337755e-07 1.0683065e-06 4.1427785e-07 4.523162e-07
000070 c9 8a 98 34 a0 dd 8b 34 56 3b 42 36 6b 09 fd 34
       2.8413186e-07 2.605202e-07 2.894279e-06 4.7131775e-07
000080 88 af 06 34 97 c0 a1 35 69 0b 96 35 e2 45 85 34
       1.254358e-07 1.2051486e-06 1.1179192e-06 2.4824027e-07
000090 23 31 bf 34 50 1f 86 34 e3 10 a1 34 5c 39 49 35
       3.5612274e-07 2.4982228e-07 3.0000874e-07 7.4961804e-07
0000a0 30 ff 07 34 d3 36 46 34 16 13 47 34 d8 a8 fe 33
       1.2665691e-07 1.8460132e-07 1.8540263e-07 1.1858509e-07
0000b0 cf e2 ce 33 c5 04 58 36 56 c1 03 35 33 47 4b 36
       9.633879e-08 3.2189284e-06 4.9082644e-07 3.02908e-06
0000c0 21 35 27 35 a7 91 01 35
       6.228966e-07 4.8268197e-07

exp_avg f4 [10]
000000 7d 4d 19 ae 26 86 47 2f 87 af c7 ae 18 55 86 2f
       -3.4856996e-11 1.8146604e-10 -9.080652e-11 2.443492e-10
000010 d0 64 fc ae f7 c1 3e 2e 89 38 2a 2e 98 6d 59 af
       -1.1477541e-10 4.3373274e-11 3.8703738e-11 -1.977497e-10
000020 48 bc 05 2e 80 e7 24 ac
       3.0407926e-11 -2.343431e-12

exp_avg_sq f4 [10]
000000 63 03 01 1d 64 1c 75 1e 12 df 27 1d 41 52 8b 1e
       1.7074759e-21 1.2976063e-20 2.221759e-21 1.4751217e-20
000010 4b eb c6 1d e4 26 4d 1d e2 c2 4e 1e 95 86 d3 1d
       5.265345e-21 2.715163e-21 1.094585e-20 5.599039e-21
000020 ec 64 91 1d 03 77 61 1e
       3.848553e-21 1.1936012e-20

exp_avg f4 [10]
000000 9f 4d 7d ba 12 f2 00 bb 1f 3f 11 3b 9a f9 04 ba
       -0.00096627505 -0.0019675535 0.0022162867 -0.0005072594
000010 be 71 90 3a f2 23 b2 37 35 20 97 37 20 17 82 3b
       0.0011020226 2.1235992e-05 1.80156e-05 0.003970042
000020 d8 5b b9 ba 20 47 1a bb
       -0.0014141751 -0.002354093

exp_avg_sq f4 [10]
000000 9e 0e f1 32 e6 3a c8 33 3b 57 ed 33 29 73 a9 32
       2.806274e-08 9.323939e-08 1.10520396e-07 1.9726558e-08
000010 5e 8d 8b 33 cb 92 67 32 e6 95 98 31 e1 dd db 34
       6.4984064e-08 1.34793465e-08 4.4408237e-09 4.0953367e-07
000020 9d 8e 7f 33 4e e7 47 34
       5.950152e-08 1.8617467e-07

exp_avg f4 [10]
000000 58 00 cd ba dc bb 2c ba 53 74 47 39 81 49 96 ba
       -0.0015640361 -0.00065892725 0.00019021453 -0.0011465998
000010 a5 24 9b 39 c5 0d 54 ba e5 3e 35 3a 17 69 22 3b
       0.00029591206 -0.000808921 0.0006913974 0.0024781877
000020 2e f5 19 bb 58 d9 a2 b9
       -0.0023492086 -0.00031060982

exp_avg_sq f4 [10]
000000 7e e9 85 33 6b 33 8c 32 18 ca 4e 32 f8 a2 3f 33
       6.235767e-08 1.6321527e-08 1.2036729e-08 4.4618872e-08
000010 df 25 9d 32 98 f3 a4 32 cc 14 8b 32 07 b4 30 34
       1.8294427e-08 1.9202886e-08 1.6191187e-08 1.6456771e-07
000020 44 55 1f 34 cd 81 08 33
       1.4839048e-07 3.178302e-08

exp_avg f4 [5, 10]
000000 06 83 54 3a e4 93 83 3a 50 e4 90 b8 98 5e 26 ba
       0.0008106682 0.0010038582 -6.9089816e-05 -0.0006346493
000010 71 8c 9f 3a 3b cf 88 b7 69 02 3b ba 3e 30 31 ba
       0.0012172592 -1.6308963e-05 -0.0007133843 -0.0006759203
000020 bd fe a1 39 d7 4e fa 38 56 a2 65 ba b1 6b 9e bb
       0.00030898108 0.00011935614 -0.00087598467 -0.004834615
000030 be 4d 0f 3c 2f 16 39 3b ca 72 4b bb 98 32 b2 bb
       0.0087465625 0.0028241982 -0.0031043761 -0.00543816
000040 af 24 07 bb c6 0b e7 3b 1c 44 21 3a 5e a1 fc bb
       -0.002062123 0.007050964 0.00061518117 -0.007709666
000050 57 0f 0e bc 12 94 e6 3b c5 7e 74 3b 2e 0b b4 37
       -0.0086706495 0.0070366943 0.0037307006 2.1462878e-05
000060 e9 c8 d7 3b 2f 2c 02 bb 89 1c 83 3b 41 11 ca 3a
       0.0065852297 -0.0019862761 0.0040012044 0.0015416519
000070 16 84 50 3b 72 cd b0 3a 4e 02 9b 3b 20 c7 81 bb
       0.003181701 0.0013488962 0.0047304993 -0.003960505
000080 3c ec 2f 3b 55 17 07 bb e5 b5 d8 ba a9 9b 13 3b
       0.0026843688 -0.0020613272 -0.0016533701 0.00225232
000090 91 be ae ba b4 cb cc 3b 28 15 ca bb 3e 87 2b 37
       -0.001333194 0.0062498692 -0.006167073 1.0223883e-05
0000a0 a3 74 f8 3a 3b 33 9f bb de 7f a5 3b 8a 55 65 39
       0.0018955659 -0.004858402 0.0050506433 0.00021871008
0000b0 4a b2 04 bb f1 7e d9 3a 6c fe 81 3a c4 c8 b1 3b
       -0.002024787 0.0016593618 0.0009917743 0.0054255445
0000c0 ab 49 b6 bb 9d ca 55 3a
       -0.005562981 0.0008155497

exp_avg_sq f4 [5, 10]
000000 63 b9 bb 32 0c 94 37 33 79 16 04 32 43 ca 6b 32
       2.185397e-08 4.2742656e-08 7.688521e-09 1.3724789e-08
000010 4a 5d 48 33 d8 74 ce 31 16 d6 be 32 46 bd 94 32
       4.6650975e-08 6.0086727e-09 2.2216266e-08 1.731554e-08
000020 d8 44 f1 31 2f 52 b9 31 e5 e2 33 33 c0 f7 21 35
       7.0218498e-09 5.393552e-09 4.1883045e-08 6.03377e-07
000030 99 d5 14 36 a6 dc 9d 34 f5 c5 c6 34 7a 96 66 35
       2.2178049e-06 2.9404072e-07 3.7024407e-07 8.590065e-07
000040 59 41 2b 34 fb d6 be 35 bf 4a 17 34 50 03 e1 35
       1.594939e-07 1.4218671e-06 1.4090163e-07 1.676477e-06
000050 a8 0b 16 36 65 82 bb 35 a3 de ea 34 59 47 83 34
       2.2358527e-06 1.3970536e-06 4.3747886e-07 2.4452564e-07
000060 89 fe 03 36 e6 9e 18 35 63 b9 cb 34 3f 5a 92 34
       1.966868e-06 5.685564e-07 3.7946583e-07 2.7260282e-07
000070 12 0b 9b 34 e7 38 a7 34 a5 5a 1c 35 3b ca fb 34
       2.8879055e-07 3.1147576e-07 5.8246434e-07 4.6899535e-07
000080 da 15 a3 34 18 58 7a 34 cf 4f 1f 34 9c c1 57 34
       3.0377015e-07 2.3315113e-07 1.4837063e-07 2.009387e-07
000090 47 49 88 33 8f 18 8e 35 6e 37 82 35 03 a3 3d 33
       6.3463226e-08 1.0586972e-06 9.701887e-07 4.415325e-08
0000a0 39 a3 f0 33 e2 c4 1c 35 47 81 33 35 1b ab 7a 34
       1.1205561e-07 5.840103e-07 6.687082e-07 2.3345312e-07
0000b0 4b 7c 38 34 28 8b 42 34 3c 40 ca 33 5d 1c 96 35
       1.7181553e-07 1.8118283e-07 9.418042e-08 1.1184126e-06
0000c0 bb 7b 88 35 2a e0 59 33
       1.01688e-06 5.0728126e-08

exp_avg f4 [5]
000000 4b 2b cb 2d 0b 77 7b af 48 55 0e 30 be 65 8c 2f
       2.3097654e-11 -2.287061e-10 5.178049e-10 2.5538144e-10
000010 07 5f 1e b0
       -5.7615107e-10

exp_avg_sq f4 [5]
000000 71 d5 7a 1c 4a db e9 1d 20 56 68 1e e7 83 5c 1e
       8.299393e-22 6.1901326e-21 1.2299788e-20 1.167398e-20
000010 89 95 25 1f
       3.5063802e-20

exp_avg f4 [5]
000000 b6 e8 9a 35 26 1e 4f 37 e6 bd c8 36 d3 46 15 b4
       1.1541622e-06 1.2345181e-05 5.9825716e-06 -1.3902472e-07
000010 0a 08 69 37
       1.3889754e-05

exp_avg_sq f4 [5]
000000 f0 ac 10 29 69 de 7b 2c 8f 20 80 2b 39 d1 20 28
       3.2124422e-14 3.5792708e-12 9.103984e-13 8.927152e-15
000010 7b d4 9f 2c
       4.542642e-12

exp_avg f4 [5]
000000 8b b7 74 39 e9 9a 18 3b 94 38 a5 ba 0a 96 64 37
       0.00023338028 0.0023285693 -0.0012605363 1.3624793e-05
000010 86 fd 2e bb
       -0.0026701405

exp_avg_sq f4 [5]
000000 ef 77 cf 30 e7 b9 0e 34 23 b0 31 33 44 51 39 30
       1.5095319e-09 1.3292411e-07 4.137122e-08 6.7418093e-10
000010 d2 10 36 34
       1.695619e-07

exp_avg f4 [5]
000000 11 81 56 3a b5 cd da 3b 96 cc 7b bc be 4d 4f bb
       0.00081826845 0.006677354 -0.015368601 -0.0031632031
000010 90 70 5d bc
       -0.0135156065

exp_avg_sq f4 [5]
000000 0a fa 9e 32 4c 3c 8d 35 a9 85 b6 36 85 a4 87 34
       1.8507325e-08 1.0522867e-06 5.4395828e-06 2.5265413e-07
000010 5a 81 90 36
       4.306593e-06

exp_avg f4 [5]
000000 f5 51 4a 3a 0c e7 e1 3b cd 68 44 bc b7 b6 02 bb
       0.0007717901 0.006893998 -0.011987877 -0.0019945332
000010 35 70 36 bc
       -0.011135151

exp_avg_sq f4 [5]
000000 56 81 89 32 55 da 96 35 01 3b 5e 36 d5 55 dc 33
       1.6007714e-08 1.1239414e-06 3.3114923e-06 1.0260161e-07
000010 c3 91 43 36
       2.9142109e-06

exp_avg f4 [5]
000000 47 ac 00 b9 a4 08 9c ba c2 9c 05 3b 8b 4d 0e 3a
       -0.0001227121 -0.001190443 0.0020387624 0.0005428425
000010 8f 9e 09 3b
       0.002099905

exp_avg_sq f4 [5]
000000 4d 0f e6 2f 22 3a 10 33 fe 05 cd 33 18 b3 fe 31
       4.1847628e-10 3.3580484e-08 9.5471464e-08 7.4127335e-09
000010 46 75 de 33
       1.03590125e-07

exp_avg f4 [5]
000000 9f 92 b9 37 8c 2c 91 38 8f f4 e3 b9 3e ae 1b b9
       2.2121994e-05 6.922436e-05 -0.00043479024 -0.00014846862
000010 21 fd aa b9
       -0.00032613522

exp_avg_sq f4 [5]
000000 ca 51 ca 2d 1b b6 15 2f 0e 24 95 31 72 69 14 30
       2.3001063e-11 1.3616168e-10 4.3405697e-09 5.3991933e-10
000010 bc 40 2c 31
       2.5066091e-09

exp_avg f4 [3, 5]
000000 61 03 ff bb ca 27 4d bb e5 42 99 bc 41 fa 2d bc
       -0.007782385 -0.0031304234 -0.018708656 -0.010618747
000010 45 f4 8b bc 95 f0 84 bc ca 5d a9 bc f6 9e 9b bc
       -0.01708425 -0.016228 -0.020674605 -0.018996697
000020 2e af 99 bc 8d 7e 81 bc f6 2a 8a bc ae 01 b4 bb
       -0.01876029 -0.015807414 -0.016866188 -0.0054933643
000030 7e de 8e bc f2 81 8d bb 34 ba 92 bc
       -0.017440077 -0.004318469 -0.017911054

exp_avg_sq f4 [3, 5]
000000 1a 0f c7 35 d5 3a 85 34 50 d1 06 37 9c 13 3d 36
       1.483105e-06 2.4815986e-07 8.035757e-06 2.8174609e-06
000010 36 af e5 36 b4 73 d3 36 c4 a7 27 37 ef f8 0c 37
       6.845129e-06 6.3017596e-06 9.993037e-06 8.40261e-06
000020 78 6b 0c 37 1f 23 c5 36 1f dc e1 36 d6 15 4d 35
       8.369672e-06 5.875146e-06 6.731148e-06 7.6400227e-07
000030 aa 01 ee 36 8d 01 0a 35 7d 29 ff 36
       7.0931465e-06 5.141126e-07 7.604422e-06

exp_avg f4 [3]
000000 b3 dd 71 bd a1 95 28 be 23 98 23 be
       -0.05904932 -0.16463329 -0.15976004

exp_avg_sq f4 [3]
000000 ce a5 a9 38 b1 2c 27 3a e8 70 1d 3a
       8.0894315e-05 0.0006377204 0.0006005899
