lightning_logs/version_56/checkpoints/epoch=2-step=3.ckpt (torch, 28460 bytes, 56 tensors)

layers.0.weight f4 [5]
0	0x3f7f3973	0.99697036
1	0x3f7f3a9e	0.9969882
2	0x3f806148	1.0029688
3	0x3f806109	1.0029613
4	0x3f7f3b1a	0.99699557

layers.0.bias f4 [5]
0	0x37c066da	2.2936078e-05
1	0xb76e679c	-1.4210029e-05
2	0xb702f6c8	-7.806062e-06
3	0x3803bc22	3.1408046e-05
4	0x381abad4	3.689046e-05

layers.0.running_mean f4 [5]
0	0x4536a6b2	2922.4185
1	0x454d1cd6	3281.8022
2	0x4514f549	2383.3303
3	0x452b6bde	2742.7417
4	0x452b6b7d	2742.718

layers.0.running_var f4 [5]
0	0x4d80631a	2.692473e+08
1	0x4d8f2680	3.0020813e+08
2	0x4d5369e3	2.2168325e+08
3	0x4d71cbf0	2.5354214e+08
4	0x4d71cbff	2.5354238e+08

layers.1.weight f4 [10, 5]
0	0xbeb1d70a	-0.34734374
1	0x3c140612	0.00903465
2	0x3eacd7f9	0.33758524
3	0x3b9d780d	0.004805571
4	0x3ec23235	0.3792893
5	0xbe86de35	-0.26341406
6	0x3e87e6d5	0.26543298
7	0xbe9b23ed	-0.30300847
8	0x3d7ddeed	0.061980177
9	0x3eb56c69	0.35434273
10	0xbe4c71c9	-0.1996528
11	0x3e02874b	0.12746923
12	0xbda6d7c8	-0.08146626
13	0xbdc09782	-0.09403898
14	0x3c0d8a8e	0.008638991
15	0x3e4b6a8a	0.1986486
16	0xbdc5b182	-0.096529976
17	0xbee515e8	-0.44743276
18	0x3ddd9e33	0.1082119
19	0x3ee2e244	0.44313252
20	0xbea98b02	-0.33113867
21	0xbe07cf90	-0.13262773
22	0xbe863735	-0.26213995
23	0xbdec7946	-0.115465686
24	0x3ed2a8af	0.4114432
25	0x3da9aafa	0.08284564
26	0x3e516a13	0.2045062
27	0xbd7d7468	-0.06187859
28	0xbdcbc42f	-0.099495284
29	0xbc9b6ca9	-0.018972712
30	0x3e67f9a4	0.22653824
31	0x3e8b098e	0.27155727
32	0x3debab8a	0.11507328
33	0xbd8a6e46	-0.06759314
34	0xbed3a980	-0.41340256
35	0x3e75d416	0.24006686
36	0x3c1cc292	0.009567874
37	0xbea217c7	-0.31658766
38	0xbec021e5	-0.3752586
39	0xbdf39ae4	-0.118947774
40	0x3dff97d7	0.12480133
41	0xbd2f0c78	-0.0427365
42	0xbe5cb3a2	-0.215529
43	0x3ed87834	0.42279208
44	0x3e2c2860	0.16812277
45	0xbec3dcdc	-0.3825444
46	0xbeb84017	-0.35986397
47	0xbe1bc817	-0.15213047
48	0x3e6af3c7	0.22944556
49	0xbeb490bd	-0.35266677

layers.1.bias f4 [10]
0	0x3deb8887	0.1150065
1	0xbecfb509	-0.40567806
2	0x3ebc39e5	0.3676292
3	0x3d42b9d5	0.047540504
4	0xbdc3e0b7	-0.09564345
5	0x3eb1b37e	0.34707254
6	0xbec93dea	-0.3930505
7	0x3e99f612	0.3007055
8	0x3ec8c3c1	0.39211848
9	0xbe9da060	-0.3078642

layers.2.weight f4 [10]
0	0x3f806138	1.0029669
1	0x3f80561e	1.0026281
2	0x3f7f398d	0.9969719
3	0x3f800d49	1.0004054
4	0x3f80614e	1.0029695
5	0x3f80612c	1.0029655
6	0x3f8060f6	1.002959
7	0x3f7f395f	0.99696916
8	0x3f7f3957	0.9969687
9	0x3f80616f	1.0029734

layers.2.bias f4 [10]
0	0x3b449ba6	0.003
1	0xbb447d9d	-0.0029982098
2	0xbb44c4a6	-0.0030024438
3	0x3b44d21c	0.0030032462
4	0xbb44c6b0	-0.0030025654
5	0x3b44225e	0.002992771
6	0x3b44e102	0.0030041342
7	0x3b41573d	0.002950146
8	0xbb44d365	-0.0030033228
9	0x3b44bcd2	0.0030019772

layers.2.running_mean f4 [10]
0	0x3d5cb953	0.053887676
1	0xbe42a56e	-0.19008419
2	0x3e306598	0.17226255
3	0x3cb679d6	0.022274893
4	0xbd378c92	-0.044811793
5	0x3e268e3c	0.16265196
6	0xbe3c9918	-0.18417776
7	0x3e10469a	0.14089432
8	0x3e3c1f5c	0.18371338
9	0xbe13b6e3	-0.14425234

layers.2.running_var f4 [10]
0	0x3f310cf2	0.6916038
1	0x3f3290f0	0.6975241
2	0x3f107ece	0.5644349
3	0x3f43b0a1	0.7644139
4	0x3f354923	0.7081472
5	0x3f103c23	0.5634176
6	0x3f2f6d47	0.6852612
7	0x3f2abd7f	0.666954
8	0x3f2b32ba	0.6687428
9	0x3f43f692	0.7654811

layers.4.weight f4 [5, 10]
0	0xbe8b4b1c	-0.2720574
1	0xbdf59bff	-0.119926445
2	0x3e0196a8	0.12655127
3	0xbbf85067	-0.007577944
4	0x3e31e14d	0.17371102
5	0xbc53e2fd	-0.012932536
6	0xbe810906	-0.25202197
7	0x3c6a7e67	0.014312363
8	0xbdff15ee	-0.12455355
9	0xbd7c578a	-0.06160692
10	0x3cfe875b	0.031070402
11	0xbe5ff130	-0.2186935
12	0xbddafeb8	-0.10693115
13	0x3db28d6c	0.0871838
14	0xbe9c1d37	-0.3049104
15	0x3e00a44c	0.12562674
16	0xbe795908	-0.24350369
17	0xbe1e00bd	-0.15429969
18	0x3e9aac8a	0.30209762
19	0x3e587d68	0.21141589
20	0xbe8ba4d3	-0.27274188
21	0xbdf285a7	-0.118418984
22	0xbe5e011b	-0.21680109
23	0xbdc137b6	-0.09434454
24	0x3d8b3cec	0.06798729
25	0x3e2302b8	0.15919006
26	0xbe323b54	-0.17405444
27	0xbe9a953c	-0.30191982
28	0x3e1e910a	0.15485016
29	0x3e8659ff	0.26240537
30	0x3e2dd2b5	0.1697491
31	0x3e86972f	0.2628722
32	0x3e44642d	0.19178839
33	0xbe66b76a	-0.22530904
34	0xbe77b9cd	-0.24191971
35	0xbe11a97d	-0.14224811
36	0x3dc0c4a1	0.09412504
37	0xbe214adb	-0.15751211
38	0xbcc34b6d	-0.023839677
39	0xbe9c70f2	-0.3055492
40	0x3e00c654	0.12575656
41	0x3e1b1d0d	0.151478
42	0xbe5721a5	-0.21008928
43	0xbea0fec0	-0.3144436
44	0x3e31e25a	0.17371503
45	0x3d548726	0.0518867
46	0x3e928b0b	0.28621706
47	0x3e4d320a	0.2003862
48	0x3e88f146	0.26746577
49	0xbe662318	-0.22474325

layers.4.bias f4 [5]
0	0xbd253f8e	-0.040343814
1	0xbdeacb62	-0.114645734
2	0xbe869060	-0.26282024
3	0x3e7dc2f1	0.24781395
4	0x3e8e8a7e	0.27840036

layers.5.weight f4 [5]
0	0x3f805fc7	1.0029229
1	0x3f801be7	1.0008515
2	0x3f7fdd93	0.9994747
3	0x3f800ba7	1.0003556
4	0x3f7fd6ca	0.9993712

layers.5.bias f4 [5]
0	0x3b41b372	0.002955642
1	0xbb419544	-0.0029538432
2	0xbb44d668	-0.0030035023
3	0x3b43fbe2	0.0029904773
4	0x3b449c66	0.0030000447

layers.5.running_mean f4 [5]
0	0xbda2623c	-0.07928893
1	0xbda293b9	-0.07938332
2	0xbe36ba0c	-0.17844409
3	0x3d5f7c82	0.0545621
4	0x3e3fa53c	0.18715376

layers.5.running_var f4 [5]
0	0x3f12aaab	0.5729167
1	0x3f1b58a2	0.6068212
2	0x3f19923f	0.5998878
3	0x3f11feb7	0.5702929
4	0x3f13b9c1	0.5770531

layers.7.weight f4 [5]
0	0x3f806168	1.0029726
1	0x3f806159	1.0029708
2	0x3f806176	1.0029743
3	0x3f806178	1.0029745
4	0x3f806179	1.0029746

layers.7.bias f4 [5]
0	0x3b448132	0.0029984233
1	0x3b436c83	0.0029819317
2	0x3b44dcc7	0.003003882
3	0x3b44d8f2	0.0030036536
4	0x3b44e27b	0.003004222

layers.7.running_mean f4 [5]
0	0x3e43bdb9	0.19115342
1	0x3ddc7539	0.10764546
2	0x3e2459cb	0.16049878
3	0x3df38531	0.118906386
4	0x3e3cfbda	0.18455449

layers.7.running_var f4 [5]
0	0x3f10495a	0.56361926
1	0x3f4c4405	0.7979129
2	0x3f2875c2	0.65804684
3	0x3f479257	0.7795767
4	0x3f53b273	0.82694167

layers.8.rho f4 [5]
0	0x3f8c82c2	1.0977404
1	0x3f98017c	1.1875453
2	0x3f99df3b	1.202125
3	0x3ff1c0bf	1.8886946
4	0x3fcd4955	1.6038004

layers.8.gam f4 [5]
0	0x3f804b2c	1.0022941
1	0x3fd7fe0f	1.6874408
2	0x3f8f6400	1.1202393
3	0x3fe143c6	1.7598808
4	0x3fd08730	1.6291256

layers.9.weight f4 [3, 5]
0	0xbeb240d4	-0.34815085
1	0xbe82e927	-0.25568506
2	0xbea62ec1	-0.32457545
3	0x3eba711e	0.36414427
4	0x3deaa6c8	0.11457592
5	0x3e4f927f	0.20270728
6	0xbcfca475	-0.030840138
7	0xbedd2ff3	-0.43200645
8	0x3ea68a4d	0.3252739
9	0xbe2e5cd2	-0.17027596
10	0x3e98b3bb	0.29824623
11	0x3ebde21b	0.37086567
12	0x3e2d7e30	0.16942668
13	0x3dde670d	0.10859499
14	0x3e638a6b	0.22220771

layers.9.bias f4 [3]
0	0x3e3b65d8	0.18300569
1	0x3e3c32c9	0.18378748
2	0x3dd91362	0.105994

exp_avg f4 [5]
0	0x3a233887	0.000622638
1	0x395f9e8a	0.00021325998
2	0xba40d214	-0.0007355523
3	0xb928f450	-0.00016112742
4	0x38838d95	6.2729385e-05

exp_avg_sq f4 [5]
0	0x3287f7b0	1.5828704e-08
1	0x31021e50	1.893472e-09
2	0x32bdf78f	2.2115072e-08
3	0x3093fa54	1.0766805e-09
4	0x2f35e9af	1.6544875e-10

exp_avg f4 [5]
0	0xae0e4fe0	-3.2358005e-11
1	0x2d7a2d0f	1.422086e-11
2	0x2da08313	1.8248103e-11
3	0xae1f5aa0	-3.6232906e-11
4	0xad16b850	-8.567438e-12

exp_avg_sq f4 [5]
0	0x1a8824ea	5.630792e-23
1	0x193556b2	9.374989e-24
2	0x1ac1bd6b	8.012895e-23
3	0x1acc2f0f	8.444845e-23
4	0x1ad9eb0c	9.0128835e-23

exp_avg f4 [10, 5]
0	0xb9c309ce	-0.00037200603
1	0x37e6a3cd	2.7494412e-05
2	0xba420a06	-0.00074020063
3	0x396a8889	0.00022366842
4	0x39a06e60	0.00030599814
5	0xb79a9a56	-1.8430099e-05
6	0x399302a2	0.00028039987
7	0xb853a09b	-5.0455896e-05
8	0x3a0c54fa	0.00053532387
9	0xb9c08c4e	-0.0003672563
10	0x3adca140	0.0016832724
11	0x3b5653d4	0.0032703774
12	0x3a171e3a	0.0005764697
13	0x3a30b2d0	0.00067405123
14	0x3ada18b7	0.0016639446
15	0xbabed06f	-0.0014557968
16	0xb9ffb3e8	-0.0004877143
17	0x38c34b52	9.312354e-05
18	0xba72832a	-0.00092511124
19	0x3a5edaaa	0.00085012114
20	0xb9427c89	-0.00018547675
21	0xb8e45610	-0.000108879176
22	0xb93c6fc4	-0.00017970713
23	0x38cec222	9.8590055e-05
24	0xb99049e7	-0.00027520882
25	0x3b0f403c	0.0021858355
26	0xba6903dc	-0.000888882
27	0x3a7af2d3	0.0009572927
28	0xba01cc70	-0.0004951423
29	0xb8bb49cc	-8.9306006e-05
30	0x3ae9d1f2	0.0017839058
31	0xba07b3d8	-0.000517664
32	0xbb0e7e6d	-0.0021742836
33	0x39b57474	0.00034609775
34	0xb5f6ee50	-1.8397786e-06
35	0x3a888a02	0.0010417106
36	0xbaebd2a3	-0.0017991852
37	0x3996c86e	0.0002875956
38	0x39bd1e3e	0.0003607142
39	0x38ec282c	0.000112608395
40	0x3aaf1206	0.0013356812
41	0x3a2ca8cb	0.00065864314
42	0x3990ecb9	0.00027642192
43	0x399d9d58	0.00030062604
44	0xbaa64001	-0.001268387
45	0xb8a52fa1	-7.876685e-05
46	0xb80c17b4	-3.3400676e-05
47	0x389135cb	6.9241585e-05
48	0xb9521551	-0.00020035102
49	0xb822191b	-3.864719e-05

exp_avg_sq f4 [10, 5]
0	0x31c2d66a	5.670519e-09
1	0x2e06fe36	3.0693857e-11
2	0x32c2e2c3	2.2687692e-08
3	0x310b72e2	2.0292465e-09
4	0x3186dfc6	3.9253534e-09
5	0x2dca64a8	2.3009442e-11
6	0x317399ee	3.5448653e-09
7	0x2ef91490	1.1326862e-10
8	0x3249239e	1.1707838e-08
9	0x31c125c4	5.6213327e-09
10	0x33fa087c	1.16430755e-07
11	0x34eb9d9f	4.3886845e-07
12	0x326c2bcc	1.3746966e-08
13	0x32a1437e	1.8773559e-08
14	0x33f191ce	1.1248959e-07
15	0x33b989ba	8.639786e-08
16	0x3225a748	9.642299e-09
17	0x2fc32e18	3.5503045e-10
18	0x3315a0ac	3.4837896e-08
19	0x32fbda72	2.9319583e-08
20	0x30cbe193	1.4834306e-09
21	0x3004b20c	4.827434e-10
22	0x30b4b0da	1.3146988e-09
23	0x2fe2c12c	4.1246417e-10
24	0x315b849f	3.194408e-09
25	0x3451b9bb	1.953221e-07
26	0x330bb2fe	3.2526252e-08
27	0x33204837	3.7318582e-08
28	0x322d0e45	1.007317e-08
29	0x2fbbf9ee	3.4192688e-10
30	0x340b0bd9	1.2949694e-07
31	0x323e073b	1.10611e-08
32	0x344ec1ae	1.9255705e-07
33	0x31a7294b	4.865034e-09
34	0x2da1bf46	1.8388523e-11
35	0x333d635a	4.409535e-08
36	0x340ee761	1.3308956e-07
37	0x316784c0	3.3690384e-09
38	0x31b60fc4	5.2986895e-09
39	0x300e9dcb	5.1883536e-10
40	0x339d99e4	7.338875e-08
41	0x32970690	1.7581698e-08
42	0x31558fdd	3.1077356e-09
43	0x31844c78	3.850399e-09
44	0x338c078a	6.5206294e-08
45	0x2f8d0a0f	2.5654898e-10
46	0x2e58ddd6	4.9309744e-11
47	0x2f56b24e	1.9526533e-10
48	0x30ee9d84	1.7361548e-09
49	0x2e8cd844	6.4048794e-11

exp_avg f4 [10]
0	0xacdba5e3	-6.2427715e-12
1	0x2c80624e	3.648893e-12
2	0x2e06872c	3.058813e-11
3	0xad6bc6a9	-1.3402315e-11
4	0x2ca20c4a	4.6056813e-12
5	0x2e800832	5.822222e-11
6	0xad7374bc	-1.3838871e-11
7	0xad1851ea	-8.658388e-12
8	0xaec8020c	-9.0953106e-11
9	0x2d04f7d0	7.558357e-12

exp_avg_sq f4 [10]
0	0x1939214c	9.571e-24
1	0x1856ab21	2.774525e-24
2	0x1bd91c88	3.5918076e-22
3	0x1a95e248	6.199053e-23
4	0x179b7e0f	1.0048462e-24
5	0x1bca6ae6	3.3487178e-22
6	0x1a050c82	2.751386e-23
7	0x1afa233c	1.034545e-22
8	0x1bdd521e	3.661445e-22
9	0x1a04d509	2.746905e-23

exp_avg f4 [10]
0	0xba0b188a	-0.0005306086
1	0xb7eac65e	-2.7987346e-05
2	0x3a46f239	0.00075891946
3	0xb77bd822	-1.5011088e-05
4	0xb96cb90a	-0.00022575646
5	0xb9aa1830	-0.00032442948
6	0xb8d3e86e	-0.000101045574
7	0x39948314	0.0002832642
8	0x39e96888	0.00044519105
9	0xb986e385	-0.00025727987

exp_avg_sq f4 [10]
0	0x32460c92	1.1527975e-08
1	0x2e41d52c	4.4072454e-11
2	0x32ca6c68	2.3565192e-08
3	0x2d915152	1.6520705e-11
4	0x310eaaed	2.076088e-09
5	0x319486aa	4.3226764e-09
6	0x2fea5d5b	4.2630685e-10
7	0x316069c2	3.2656406e-09
8	0x320a5bd5	8.053537e-09
9	0x3138824a	2.6849585e-09

exp_avg f4 [10]
0	0xb97821ac	-0.00023663667
1	0x3859a827	5.1893436e-05
2	0x39af6c15	0.00033459128
3	0xb9999569	-0.00029293753
4	0x3819b501	3.6646616e-05
5	0xb842afa4	-4.6416782e-05
6	0xb98bb5ce	-0.000266476
7	0xb7d467d2	-2.5320714e-05
8	0x396f2ab2	0.00022808721
9	0xb9b50227	-0.00034524614

exp_avg_sq f4 [10]
0	0x311cc88d	2.2814988e-09
1	0x2ef2e930	1.1046308e-10
2	0x319c636e	4.5515014e-09
3	0x316f3696	3.4810106e-09
4	0x2e6fb993	5.450713e-11
5	0x2ec2e9f9	8.8636605e-11
6	0x314600dc	2.881328e-09
7	0x2dfac40f	2.8508777e-11
8	0x31110ccb	2.110755e-09
9	0x31a6a0f7	4.8495354e-09

exp_avg f4 [5, 10]
0	0xb38e89a2	-6.6374255e-08
1	0x33c431c0	9.136011e-08
2	0x33ba979b	8.688877e-08
3	0x33862bfe	6.2478634e-08
4	0x32807f7a	1.495913e-08
5	0x340b3a21	1.2966531e-07
6	0x3376c7ea	5.745816e-08
7	0x3324a5f0	3.8335145e-08
8	0x3343f0aa	4.5620858e-08
9	0x30d3b3d4	1.5403381e-09
10	0xb5cbdcb0	-1.5188907e-06
11	0xb55c0460	-8.1962753e-07
12	0x34aafdbc	3.1849584e-07
13	0xb7ce924c	-2.4625238e-05
14	0xb62e1d0c	-2.5944928e-06
15	0xb6c28ca8	-5.798025e-06
16	0xb73caf46	-1.1246482e-05
17	0xb684a0b0	-3.952613e-06
18	0xb79122fe	-1.7301641e-05
19	0x37931992	1.7535673e-05
20	0xb758a110	-1.2912104e-05
21	0xb6b55286	-5.4038273e-06
22	0x375726ea	1.2824059e-05
23	0xb91fa9d2	-0.00015226685
24	0x3728ebd0	1.0068485e-05
25	0xb7696f0a	-1.39137355e-05
26	0xb8e3f17d	-0.00010869184
27	0x379812b4	1.8128521e-05
28	0xb9a36ab0	-0.0003116927
29	0x3899c5c1	7.332443e-05
30	0xba9060b6	-0.001101515
31	0x3aa5315f	0.0012603215
32	0x3ad20707	0.0016023823
33	0x38d14969	9.97957e-05
34	0x38e6ec71	0.00011011295
35	0x3b043881	0.002017528
36	0xb9acb9ed	-0.00032944922
37	0x39bb6114	0.00035739748
38	0x38f9b8cc	0.00011907666
39	0x3907236b	0.00012887797
40	0xbb3949f9	-0.002827285
41	0xbb1eeefa	-0.0024251328
42	0xbb0b1e1f	-0.002122767
43	0x3795f6d4	1.7877122e-05
44	0xba996af2	-0.0011704846
45	0xba4c1761	-0.0007785466
46	0xb9ab67b7	-0.00032692935
47	0x3ade749c	0.0016972008
48	0x3af34ccc	0.0018562316
49	0x3a8e3c92	0.0010851792

exp_avg_sq f4 [5, 10]
0	0x25542b1c	1.8402675e-16
1	0x25c86e5c	3.4769252e-16
2	0x25b67bf2	3.1655956e-16
3	0x2539d921	1.6119758e-16
4	0x2327949b	9.0845566e-18
5	0x264afe16	7.042718e-16
6	0x251ff1c6	1.3872968e-16
7	0x248c8490	6.093989e-17
8	0x24c87b49	8.694503e-17
9	0x205e971c	1.8854129e-19
10	0x2d70d925	1.3690636e-11
11	0x2dd6eb66	2.4433521e-11
12	0x2b3ff236	6.8192966e-13
13	0x2f94147a	2.6935593e-10
14	0x2ddad6d6	2.4879137e-11
15	0x2d132545	8.364258e-12
16	0x2cb48cea	5.1315523e-12
17	0x2d3e279d	1.08090455e-11
18	0x2e8a6742	6.293856e-11
19	0x2e1a19dc	3.5038514e-11
20	0x2ceeb7fc	6.784793e-12
21	0x2bb6f55a	1.2999977e-12
22	0x2cea9908	6.66767e-12
23	0x3081639c	9.414296e-10
24	0x2c90a5da	4.1111394e-12
25	0x2d0a9488	7.877372e-12
26	0x30040823	4.8032883e-10
27	0x2d6a5c4a	1.3321852e-11
28	0x3187ad9e	3.948755e-09
29	0x2f6fa24d	2.1794584e-10
30	0x335d5664	5.1534144e-08
31	0x338ce4e3	6.560892e-08
32	0x33e36728	1.0589275e-07
33	0x2fe2763c	4.119317e-10
34	0x3009cad3	5.012854e-10
35	0x3433d838	1.6749334e-07
36	0x31975d48	4.4052832e-09
37	0x31b3091a	5.2106204e-09
38	0x3021a056	5.879931e-10
39	0x303c0242	6.839721e-10
40	0x34ae4a42	3.2464055e-07
41	0x34809fb0	2.3958046e-07
42	0x3444fa88	1.8345065e-07
43	0x2ebd4711	8.607349e-11
44	0x336ed030	5.560304e-08
45	0x32d9ae0f	2.5341278e-08
46	0x319a0e6e	4.4836304e-09
47	0x33fbe3b4	1.1729517e-07
48	0x34164e99	1.3998432e-07
49	0x334dd1da	4.792114e-08

exp_avg f4 [5]
0	0x2a1f6a80	1.4158986e-13
1	0xab8da9fc	-1.0065833e-12
2	0x2c7ed919	3.6216084e-12
3	0xae65645a	-5.2157702e-11
4	0x2eb353f8	8.1548934e-11

exp_avg_sq f4 [5]
0	0x169369a6	2.3815804e-25
1	0x16847d8d	2.1404984e-25
2	0x183649da	2.3560234e-24
3	0x1ba2934c	2.689584e-22
4	0x1c57bbc0	7.1380194e-22

exp_avg f4 [5]
0	0xb47198fc	-2.250053e-07
1	0xb0055864	-4.851073e-10
2	0x329133ac	1.690372e-08
3	0x33409210	4.4836327e-08
4	0x34f47e46	4.5540418e-07

exp_avg_sq f4 [5]
0	0x271855c5	2.1140733e-15
1	0x201e5a03	1.3412903e-19
2	0x23c3fda4	2.1249363e-17
3	0x25936aaa	2.5572713e-16
4	0x286c02b1	1.3101215e-14

exp_avg f4 [5]
0	0xb4b673f5	-3.3984512e-07
1	0x367ac650	3.7368336e-06
2	0x3796f155	1.7993772e-05
3	0xb8cc36e7	-9.7377044e-05
4	0xb9e77e0c	-0.00044153666

exp_avg_sq f4 [5]
0	0x27b073d7	4.8975407e-15
1	0x2b2d6106	6.1596594e-13
2	0x2d673194	1.3141838e-11
3	0x2fd76233	3.9178047e-10
4	0x32085136	7.934707e-09

exp_avg f4 [5]
0	0xbb1261f6	-0.0022336221
1	0xb95f0da4	-0.00021272019
2	0xb8fc2aa2	-0.000120242374
3	0xbb40ef66	-0.0029439568
4	0xbabb9bf2	-0.0014313443

exp_avg_sq f4 [5]
0	0x3459cc00	2.0283915e-07
1	0x30fdcbd4	1.8466104e-09
2	0x30212ff0	5.863958e-10
3	0x34bcaf10	3.5145104e-07
4	0x33b256ec	8.304582e-08

exp_avg f4 [5]
0	0xbb4ca60b	-0.00312269
1	0xb8841f3a	-6.300067e-05
2	0xb8483574	-4.7733498e-05
3	0xbaa65f07	-0.0012693115
4	0xbaab5f6a	-0.00130747

exp_avg_sq f4 [5]
0	0x34d64bf0	3.9915858e-07
1	0x2f37b064	1.670642e-10
2	0x2ecb594c	9.2472335e-11
3	0x338c8948	6.544229e-08
4	0x3394d056	6.929683e-08

exp_avg f4 [5]
0	0x39e082c4	0.00042822037
1	0x381701e6	3.6002974e-05
2	0x37b509c8	2.1581436e-05
3	0x39c49744	0.00037496735
4	0x3956bdb0	0.00020479294

exp_avg_sq f4 [5]
0	0x32000bce	7.453265e-09
1	0x2e68b2ab	5.2909382e-11
2	0x2da62c24	1.8891617e-11
3	0x31c3ea26	5.7018665e-09
4	0x30e9a269	1.6999141e-09

exp_avg f4 [5]
0	0x38e90b0b	0.00011112363
1	0xb7cf9648	-2.4746303e-05
2	0xb7963f85	-1.7910972e-05
3	0xb96a3510	-0.00022335746
4	0xb7a8d79f	-2.0127567e-05

exp_avg_sq f4 [5]
0	0x300e92ce	5.186792e-10
1	0x2dda6803	2.4829921e-11
2	0x2d64c04b	1.3002997e-11
3	0x310aec45	2.0215947e-09
4	0x2d92bfa4	1.6683384e-11

exp_avg f4 [3, 5]
0	0xbc189bf8	-0.00931453
1	0xba003fc4	-0.00048923143
2	0x00000000	0.0
3	0xbbcfee6e	-0.0063455617
4	0xbbe8247c	-0.0070844274
5	0xbc09e8f2	-0.008417355
6	0xb9f7d5f5	-0.00047270922
7	0x00000000	0.0
8	0xbbe1f354	-0.006895462
9	0xbc094f8f	-0.008380785
10	0xbc12ef4a	-0.008968184
11	0xbb73722e	-0.0037146914
12	0xbb4e1760	-0.0031447038
13	0xbc02e0df	-0.007988184
14	0xbbfdaa18	-0.007741224

exp_avg_sq f4 [3, 5]
0	0x366bfc8d	3.5164733e-06
1	0x322c4ef6	1.0029671e-08
2	0x00000000	0.0
3	0x35db503b	1.6340122e-06
4	0x36090a9e	2.042077e-06
5	0x3640c8ba	2.8727068e-06
6	0x322044b8	9.328851e-09
7	0x00000000	0.0
8	0x36018629	1.930059e-06
9	0x363fe0ef	2.8592146e-06
10	0x365adc4c	3.261276e-06
11	0x351661ac	5.6021486e-07
12	0x34d75ed7	4.0115876e-07
13	0x362dca1b	2.589665e-06
14	0x3623a032	2.4382139e-06

exp_avg f4 [3]
0	0xbd92bbff	-0.07164764
1	0xbd8cdb5d	-0.06877778
2	0xbd99ffb8	-0.075194776

exp_avg_sq f4 [3]
0	0x395bcad4	0.00020961027
1	0x394aaf56	0.00019329539
2	0x39722cf5	0.00023095666
