lightning_logs/version_96/checkpoints/epoch=2-step=3.ckpt (torch, 28460 bytes, 56 tensors)

layers.0.weight f4 [5]
000000 57 d2 7f 3f 7d 78 7f 3f e9 49 80 3f f0 3a 7f 3f
       0.9993033 0.99793226 1.0022556 0.99699306
000010 65 61 80 3f
       1.0029722

layers.0.bias f4 [5]
000000 b0 c5 4d 37 3a 16 68 38 fd c3 8f b9 c0 0e 89 36
       1.226498e-05 5.533381e-05 -0.00027421108 4.0846353e-06
000010 d4 e9 12 39
       0.00014010753

layers.0.running_mean f4 [5]
000000 31 a6 9e 44 36 ce 1a 45 f4 ec df 44 2b 9a 3f 44
       1269.1935 2476.8882 1791.4048 766.4089
000010 ad 9e 30 44
       706.4793

layers.0.running_var f4 [5]
000000 94 45 df 4c f2 ee 5b 4d b5 5f 20 4d e4 ee 84 4c
       1.1705872e+08 2.3061686e+08 1.6816418e+08 6.969526e+07
000010 3e 64 74 4c
       6.4065784e+07

layers.1.weight f4 [10, 5]
000000 e0 35 e5 3e 47 c4 b8 3e da 9d 64 be ff 96 5d be
       0.44767666 0.36087248 -0.2232584 -0.21639632
000010 ad e3 a1 3c c6 3c 14 bd 36 d3 f4 bd 7f 2d f2 bd
       0.019761885 -0.03619077 -0.11954348 -0.11825084
000020 12 32 04 3e 78 76 8f 3d e2 40 08 be ce bb a0 be
       0.12909725 0.07005018 -0.13306001 -0.31393284
000030 d7 da be be f9 3e 85 3e 09 80 c8 3b b2 e3 9f 3d
       -0.37276337 0.26024607 0.0061187786 0.07807101
000040 7e 2f cd bd 1d 73 7e bd 51 48 9d be e5 73 83 3e
       -0.10018824 -0.0621215 -0.30719236 0.25674358
000050 61 e2 06 be 9b 50 bc be 68 4f 69 be 8f 5c 3b 3e
       -0.13172294 -0.36780247 -0.22784197 0.18297027
000060 d0 c4 b9 3e b8 9c 6c be 69 96 99 3e 8d f7 bb bd
       0.3628297 -0.23106658 0.29997566 -0.09178076
000070 95 70 a9 bc 6a b4 b3 3e ea 2f db be 72 1b 0f 3e
       -0.020683566 0.35098583 -0.42809993 0.13975313
000080 1c ad b4 be a4 be c0 be 9c 19 05 be 07 10 66 3e
       -0.35288322 -0.37645447 -0.1299805 0.22467051
000090 56 4f de 3e ad 03 d7 3c 66 1f 20 be 38 88 87 3d
       0.43419904 0.02624687 -0.15636978 0.066177785
0000a0 3d b2 5b be f1 a7 02 be 5d 64 4b bd e7 a8 8c bd
       -0.21454711 -0.12759377 -0.04965626 -0.06868153
0000b0 41 41 b2 be b7 e1 54 be 9b 82 18 bd 3d d7 a7 bd
       -0.3481541 -0.20789228 -0.03723393 -0.0819535
0000c0 e2 97 88 3e 8d ed 93 3d
       0.26678377 0.072230436

layers.1.bias f4 [10]
000000 65 af af 3e 32 95 33 be 59 42 b6 be 0a b5 53 bd
       0.34313503 -0.17537382 -0.35597494 -0.051686324
000010 56 4b d4 be 66 ea 65 3e 23 34 18 3e 68 7a 3f be
       -0.41463727 0.22452697 0.14863639 -0.18699038
000020 79 a9 9c be 44 56 d7 bd
       -0.30598047 -0.10514501

layers.2.weight f4 [10]
000000 5b 3c 7f 3f 5e 61 80 3f bd 3a 7f 3f 31 39 7f 3f
       0.9970147 1.0029714 0.99699 0.9969664
000010 7d 39 7f 3f 26 3a 7f 3f 7f 39 7f 3f cc 60 80 3f
       0.99697095 0.996981 0.9969711 1.002954
000020 32 61 80 3f 34 61 80 3f
       1.0029662 1.0029664

layers.2.bias f4 [10]
000000 c8 4e 44 bb 00 db 44 3b 11 18 41 bb 0c 97 bf ba
       -0.0029954184 0.003003776 -0.0029463808 -0.0014617159
000010 f4 2f 44 3b e5 db 44 bb bb c0 44 bb 73 ac 44 3b
       0.002993581 -0.0030038294 -0.0030022103 0.0030010014
000020 ea 3b 44 3b 06 a4 44 3b
       0.0029942938 0.0030004992

layers.2.running_mean f4 [10]
000000 47 ae 24 3e 3e 25 a8 bd d7 d8 2a be 89 33 c7 bc
       0.16082107 -0.082102284 -0.1668428 -0.024316566
000010 53 da 46 be 67 8e d7 3d b3 7a 8e 3d 00 5a b3 bd
       -0.19419222 0.10525208 0.06956997 -0.087574005
000020 28 be 12 be 37 c2 49 bd
       -0.14330351 -0.049257483

layers.2.running_var f4 [10]
000000 db 8a 36 3f c0 3a 0e 3f ae a3 2d 3f b1 c1 1d 3f
       0.71305627 0.55558395 0.6782788 0.61623675
000010 cb dc 35 3f 97 70 2a 3f ed be 46 3f e5 4d 26 3f
       0.7104003 0.6657805 0.7763508 0.6496261
000020 98 4a 1e 3f 57 17 18 3f
       0.6183257 0.59410614

layers.4.weight f4 [5, 10]
000000 73 0d 01 3e 86 29 a0 3e 36 92 ad bd ec 2e 5a 3e
       0.12602787 0.3128168 -0.08475153 0.21306962
000010 93 e5 00 be 8a 19 08 3e fc a1 8a 3e 57 81 2d be
       -0.12587576 0.13290992 0.2707671 -0.1694387
000020 c5 ca eb bd 34 96 3e 3e e0 50 9a bd d4 06 20 be
       -0.115132846 0.18611985 -0.07534957 -0.15627605
000030 68 90 92 be a5 67 8a bd 11 76 94 3e ee ea 87 be
       -0.28625798 -0.0675805 0.28996328 -0.26546425
000040 29 35 8c 3e b2 ea 5c bd 4a 05 ad bd 7b 30 cd 3d
       0.27384308 -0.05393476 -0.084482744 0.100190125
000050 fa 41 7f bc 72 25 c3 3b a4 fc f1 3d f5 52 3b be
       -0.015579695 0.0059553916 0.118157655 -0.18293364
000060 ad cb bb bc 57 67 aa 3d e4 2f 95 3e e8 e1 32 3e
       -0.022924269 0.08320492 0.291381 0.17468989
000070 82 c5 8b be 95 5d 56 be 19 37 76 be 66 b8 83 be
       -0.27299124 -0.20934136 -0.24044456 -0.25726622
000080 46 b3 90 be a9 5f 85 be b1 da 9f be 87 fa 9a be
       -0.28261775 -0.26049545 -0.31221536 -0.30269262
000090 73 aa d0 bc 76 e2 e8 bd 1a 07 96 be 54 fc 74 3d
       -0.025471902 -0.11371319 -0.29302293 0.05981095
0000a0 8b 61 bb bc 29 f3 0b be 15 54 60 bd e0 bf 46 3e
       -0.02287366 -0.13666977 -0.054767687 0.19409132
0000b0 ea fd ed bd b0 2c c4 3d f6 1a 66 3e 20 e6 c2 bd
       -0.11620696 0.09578836 0.22471222 -0.09516549
0000c0 48 ed a4 bc f4 d4 94 bd
       -0.020132676 -0.0726718

layers.4.bias f4 [5]
000000 3e 1b 83 be 5f 41 7d 3e 63 4c df 3d a1 70 4b be
       -0.25606722 0.24731968 0.109032415 -0.19867183
000010 25 58 06 3e
       0.13119562

layers.5.weight f4 [5]
000000 7a 4f 7f 3f 7d 2d 80 3f d8 d4 7f 3f ac 50 7f 3f
       0.99730647 1.0013882 0.9993415 0.9973247
000010 df fd 7f 3f
       0.9999675

layers.5.bias f4 [5]
000000 ca cd 44 bb e0 31 44 bb ca 75 40 3b 30 8a 44 bb
       -0.0030029886 -0.0029936954 0.0029367083 -0.0029989593
000010 06 29 44 3b
       0.0029931678

layers.5.running_mean f4 [5]
000000 da 5e 9d bc 25 0a 93 3d 1a 6c 2a 3d 31 88 c2 be
       -0.019210268 0.07179669 0.041607 -0.3799453
000010 fa 97 84 3d
       0.064743

layers.5.running_var f4 [5]
000000 25 59 10 3f 01 fa 0c 3f 8f f8 10 3f ea 73 32 3f
       0.56386024 0.55068976 0.5662927 0.6970812
000010 f4 29 0e 3f
       0.55532765

layers.7.weight f4 [5]
000000 69 39 7f 3f 5e 61 80 3f 65 60 80 3f 84 3a 7f 3f
       0.99696976 1.0029714 1.0029417 0.9969866
000010 64 61 80 3f
       1.0029721

layers.7.bias f4 [5]
000000 be a7 44 bb 30 b3 44 3b 27 ef 41 3b 58 ee 43 bb
       -0.0030007209 0.003001403 0.0029592009 -0.0029896703
000010 a2 ad 44 3b
       0.003001072

layers.7.running_mean f4 [5]
000000 a2 25 27 3e 9e f7 1c 3e ce 3d d7 3d 6e 09 23 3e
       0.1632295 0.15328833 0.10509835 0.15921566
000010 18 cc 15 3e
       0.14628637

layers.7.running_var f4 [5]
000000 83 e0 4a 3f d1 85 12 3f da ab 62 3f 0d e8 13 3f
       0.7924883 0.5723544 0.88543475 0.57775956
000010 0f 31 20 3f
       0.6257486

layers.8.rho f4 [5]
000000 3a 13 a1 3f 88 1e b2 3f d2 03 b1 3f 88 b4 ef 3f
       1.2583992 1.3915567 1.3829291 1.8726969
000010 53 05 cc 3f
       1.5939125

layers.8.gam f4 [5]
000000 41 dc f8 3f c0 d8 85 3f 40 40 f5 3f d1 5d be 3f
       1.9442216 1.0456772 1.9160233 1.487238
000010 5d 0c 88 3f
       1.0628773

layers.9.weight f4 [3, 5]
000000 a4 f5 b8 be 2f 36 e5 3e 62 1b ab 3e 83 88 c6 be
       -0.3612491 0.447679 0.3341933 -0.38776025
000010 68 2b a7 3e c9 6b 83 be d7 1f ca 3e e5 ff b4 3e
       0.32650304 -0.2566817 0.39477417 0.35351482
000020 b6 99 8a be 1a e4 99 3e 88 e6 b4 be ec d7 bd 3e
       -0.27070397 0.3005684 -0.3533213 0.37078798
000030 98 4f 17 be e4 95 a9 3d ca c6 9f 3e
       -0.14776456 0.082805425 0.31206352

layers.9.bias f4 [3]
000000 ef f4 f7 3c 7a c0 88 bd c2 65 37 3b
       0.03026816 -0.06677337 0.0027984236

exp_avg f4 [5]
000000 d4 b0 bd b6 dc c3 6b 39 6f 7a 2c b8 38 6d 15 3b
       -5.6532244e-06 0.0002248431 -4.112202e-05 0.0022800695
000010 9c cf 20 bb
       -0.0024537807

exp_avg_sq f4 [5]
000000 1e 31 df 2f ee 9d b3 31 1d 22 4b 2f ba 14 6a 34
       4.0598364e-10 5.22754e-09 1.8474862e-10 2.1800489e-07
000010 c1 a3 83 34
       2.4519798e-07

exp_avg f4 [5]
000000 a8 c6 5b 2f 4a 0c 02 2e 5c 8f 12 30 c8 76 5e 2e
       1.9988511e-10 2.9569493e-11 5.3318217e-10 5.0582455e-11
000010 a8 c6 7f af
       -2.3262692e-10

exp_avg_sq f4 [5]
000000 96 02 3f 1e 03 d6 46 1d 06 6b 94 1e 90 51 36 1d
       1.01119906e-20 2.6315723e-21 1.5714373e-20 2.4129666e-21
000010 bb 9e 89 1d
       3.642772e-21

exp_avg f4 [10, 5]
000000 8f 58 61 ba 79 fc 1d 38 dc a9 1d 37 1c 07 ba ba
       -0.0008596265 3.766685e-05 9.397478e-06 -0.0014192793
000010 a4 28 3c 3b fc e0 ba bb 4a 4a c4 bb b2 b2 05 bc
       0.0028710747 -0.0057030898 -0.0059903013 -0.00816028
000020 34 25 e1 bb 74 27 7d bc 5c 69 9a 39 3e f8 2c 39
       -0.00687089 -0.015451301 0.00029451668 0.00016495676
000030 5c fa db 39 ef 76 7a 3a cf e0 8b ba 2f ac 1e 3a
       0.00041957467 0.00095544657 -0.0010671857 0.0006052879
000040 36 51 6a 3b 16 09 ca 3a a8 d8 d9 b7 47 01 c5 3a
       0.0035753972 0.0015414085 -2.5969304e-05 0.0015030288
000050 a8 6f a6 3a 45 4a 19 3b d8 86 e2 3a b7 67 50 3c
       0.0012698071 0.0023390215 0.0017282618 0.01272004
000060 49 c9 2a bb b4 43 e3 39 b5 c9 00 39 5c c6 8a b9
       -0.0026059917 0.00043347257 0.00012282173 -0.000264692
000070 ac 4c 64 bc 17 f3 4f ba 17 53 de 3a 23 1c 91 3a
       -0.013934296 -0.00079326465 0.0016962019 0.0011071007
000080 2a 53 a7 3a b4 6b 71 bb 52 0e 42 3b 14 81 46 3a
       0.0012765874 -0.0036837878 0.0029610586 0.0007572335
000090 1a d4 b6 3a 54 54 de 3a b2 1f 95 3b 06 72 fc ba
       0.0013948709 0.0016962388 0.0045508975 -0.0019260056
0000a0 7e 7e 93 ba 70 cf 2a b9 48 f3 9e 3a 53 37 ec 3b
       -0.0011252908 -0.0001628974 0.0012126947 0.0072087436
0000b0 0d 42 4d ba e2 eb 61 bb 45 14 15 3b de d4 24 ba
       -0.0007829972 -0.0034472873 0.0022747677 -0.0006287823
0000c0 34 e9 90 ba 03 c8 bb bb
       -0.0011055828 -0.0057306304

exp_avg_sq f4 [10, 5]
000000 d9 6a 14 33 1a 0c 50 30 47 d6 ef 30 c8 b1 b6 33
       3.4556113e-08 7.5687157e-10 1.745044e-09 8.507374e-08
000010 00 2d b4 34 7a c6 b6 35 8c 3c c6 35 8e 25 36 36
       3.3560354e-07 1.3617821e-06 1.4769771e-06 2.7141973e-06
000020 68 4d 03 36 5a 81 23 37 eb 97 71 31 72 ff ec 30
       1.9565578e-06 9.745674e-06 3.515647e-09 1.7243862e-09
000030 8c 44 02 32 7c d4 2d 33 fd b5 5c 33 fb 2c 15 34
       7.582582e-09 4.0472955e-08 5.138826e-08 1.389307e-07
000040 73 19 0c 35 58 b7 da 33 fc e2 42 32 3e a2 d0 33
       5.21911e-07 1.0184766e-07 1.13438965e-08 9.7152665e-08
000050 45 f3 8d 33 3c 9c 70 34 48 45 03 34 13 cb dc 36
       6.6100746e-08 2.240858e-07 1.222553e-07 6.580152e-06
000060 87 03 94 34 43 be 07 32 21 64 43 30 6e e1 86 31
       2.7569715e-07 7.901295e-09 7.108288e-10 3.9255417e-09
000070 64 2f 04 37 f8 c7 de 32 68 1c fd 33 0e 22 77 33
       7.878847e-06 2.5935137e-08 1.17863976e-07 5.754014e-08
000080 29 0d 90 33 dd 9f 15 35 12 42 bf 34 48 7c 6a 33
       6.7079164e-08 5.5739457e-07 3.5624595e-07 5.4595404e-08
000090 44 18 c0 33 24 2b fc 33 24 00 62 35 e9 f6 27 34
       8.9451106e-08 1.1742512e-07 8.4191765e-07 1.5642912e-07
0000a0 2b f9 5f 33 6d ac a0 30 da e9 85 33 1c 21 0f 36
       5.214785e-08 1.1690539e-09 6.2358325e-08 2.1327933e-06
0000b0 e0 20 d8 32 3e ce 01 35 0d 88 77 34 ab d4 8e 32
       2.516066e-08 4.8356367e-07 2.3053163e-07 1.6627686e-08
0000c0 09 d9 64 33 87 3b b4 35
       5.328278e-08 1.342837e-06

exp_avg f4 [10]
000000 b0 f3 7d ad c4 ca f1 af a4 70 1d af c5 20 a0 af
       -1.44354945e-11 -4.3981718e-10 -1.4319085e-10 -2.9127115e-10
000010 e0 4f ad 2f 0c 2d 32 2e 48 e1 02 b0 86 eb 11 2f
       3.152527e-10 4.0512524e-11 -4.761387e-10 1.3271348e-10
000020 1f 85 bb 2f ce cc 4c af
       3.410969e-10 -1.8626453e-10

exp_avg_sq f4 [10]
000000 e2 eb 2b 1e 60 a1 6d 20 b6 26 0f 1d 91 66 dd 1d
       9.101444e-21 2.0128075e-19 1.8945906e-21 5.8604264e-21
000010 df b8 a5 1d 4e 94 9d 1d 80 c5 19 1f dc 61 93 1c
       4.386629e-21 4.1710897e-21 3.256238e-20 9.75294e-22
000020 55 e2 12 1e 0e 48 8b 1e
       7.77598e-21 1.4746999e-20

exp_avg f4 [10]
000000 ee cd 8a 3a d9 7f 9f bb d1 c0 18 3a 30 92 65 3b
       0.0010589936 -0.0048675356 0.0005827072 0.0035029761
000010 ce ba 01 3b d8 3a 5c 3a e4 1c 08 3b ca d9 d7 ba
       0.0019795182 0.00084011024 0.0020769173 -0.0016468104
000020 78 f1 a1 ba 09 82 13 bb
       -0.0012355288 -0.0022507927

exp_avg_sq f4 [10]
000000 3e ed 4a 33 d4 65 81 35 6d ea 70 32 16 9f 05 35
       4.724756e-08 9.640885e-07 1.4023141e-08 4.977786e-07
000010 68 0b 2c 34 ec 24 fb 32 fe 86 3d 34 d0 b4 ef 33
       1.6022898e-07 2.9237036e-08 1.7651107e-07 1.11621944e-07
000020 be 03 87 33 e6 d3 5d 34
       6.287108e-08 2.0659317e-07

exp_avg f4 [10]
000000 9d 62 84 3a 1e 8f 7f bb d9 b2 46 3a 49 05 b0 38
       0.001010019 -0.0038995217 0.0007579751 8.3933184e-05
000010 b6 d4 b1 ba 31 a9 33 3b fc bb e8 3a 42 60 14 bb
       -0.0013567421 0.0027414078 0.0017756219 -0.0022640382
000020 2a ab 8c ba dc d5 19 bb
       -0.0010732163 -0.0023473417

exp_avg_sq f4 [10]
000000 28 ff 33 33 f7 a2 25 35 b6 7b dd 32 0a 9c 4c 30
       4.190875e-08 6.1704435e-07 2.5784043e-08 7.443651e-10
000010 76 04 a2 33 73 9b a3 34 fc 98 09 34 49 38 60 34
       7.544524e-08 3.047422e-07 1.2814775e-07 2.0882102e-07
000020 fc 84 4c 33 e6 df 70 34
       4.76184e-08 2.2433196e-07

exp_avg f4 [5, 10]
000000 96 93 10 3c 8c 8e 6d bc b0 4b 20 bc 97 a2 1c 3c
       0.00882425 -0.014499318 -0.00978367 0.009560249
000010 20 3f 59 bc e2 17 39 bb f4 8a 2e 3c e2 c4 f6 3b
       -0.013259679 -0.0028242995 0.010653246 0.0075307945
000020 68 5e 4b 3a 3c df 55 bc 2d c9 48 ba 99 3a 6a 3b
       0.0007757903 -0.0130537115 -0.0007659372 0.0035740493
000030 ac 5d 34 3b 30 24 ff bb 65 2e ee 3a 34 2d 09 bb
       0.0027521653 -0.0077862963 0.0018171786 -0.0020931484
000040 06 71 dd b9 f3 4e c8 ba fc 21 d2 3b cb 69 02 3b
       -0.00042236614 -0.0015282318 0.0064127427 0.0019899483
000050 8d 3c ab ba 3c be f6 38 2b d7 df 38 3c 89 96 b7
       -0.001306431 0.00011765628 0.00010673547 -1.7945298e-05
000060 4f 2e 0f 39 c7 70 0e ba c2 6d 18 3a a1 ae a8 ba
       0.00013654794 -0.0005433675 0.0005814695 -0.0012869426
000070 0f d3 0c 39 35 be eb b9 45 e1 18 3a 33 16 cf ba
       0.00013430066 -0.00044964408 0.00058319076 -0.0015799463
000080 e5 51 03 bb 00 02 bf 3a ee 56 69 ba b4 fc 82 b9
       -0.0020037827 0.001457274 -0.0008901198 -0.0002498381
000090 d7 d2 54 3b 62 bd de b9 50 62 21 3b bf 2c aa ba
       0.0032474303 -0.0004248424 0.002462525 -0.0012983306
0000a0 a8 af 37 3a e1 b1 dd 3a 06 61 a6 3a b4 6b d5 3b
       0.0007007071 0.0016913974 0.001269371 0.0065130834
0000b0 e2 d9 96 3b 64 fd cd 3b 48 cf 6e bb 4f 84 53 3b
       0.0046036104 0.00628631 -0.0036439467 0.0032274907
0000c0 fa a1 c4 bb 53 55 89 3a
       -0.0060007544 0.0010477699

exp_avg_sq f4 [5, 10]
000000 93 ad 5b 36 c6 77 0f 37 c6 f4 82 36 71 5b 79 36
       3.2734577e-06 8.551351e-06 3.9027973e-06 3.7157117e-06
000010 02 3d f1 36 d0 20 c3 34 ee a5 9b 36 6e fe 1d 36
       7.189462e-06 3.6345455e-07 4.6386767e-06 2.354292e-06
000020 00 ea 4b 33 fe e3 e8 36 84 5c cc 32 47 da 0b 35
       4.7477442e-08 6.9406806e-06 2.3790797e-08 5.209917e-07
000030 7d 0e a6 34 00 28 25 36 ec 50 11 34 92 d5 3e 34
       3.093045e-07 2.46102e-06 1.3533617e-07 1.7772825e-07
000040 6c f6 0c 32 94 b1 cb 33 14 c6 e1 35 ce 15 2d 34
       8.205102e-09 9.4852254e-08 1.6821455e-06 1.6119813e-07
000050 08 f2 a1 33 c6 ee 30 30 b4 05 12 30 3a 7c 0a 30
       7.541172e-08 6.4367744e-10 5.3122595e-10 5.0380644e-10
000060 1a 04 6c 30 b4 14 95 32 a7 5a 84 32 59 3c 9b 33
       8.586213e-10 1.7355298e-08 1.5408046e-08 7.228727e-08
000070 4c 74 67 30 fb 5c 30 32 6c fa 70 32 54 03 da 33
       8.420258e-10 1.026569e-08 1.4026778e-08 1.01520214e-07
000080 e7 34 30 34 65 e9 bc 33 04 20 0a 33 a5 90 30 31
       1.6410523e-07 8.7968864e-08 3.2159747e-08 2.5693592e-09
000090 98 b7 e7 34 f2 99 00 32 b0 06 85 34 38 7e 93 33
       4.3160685e-07 7.485584e-09 2.4778046e-07 6.86818e-08
0000a0 a4 e5 ea 32 e0 d5 fc 33 e8 38 8e 33 88 df e8 35
       2.7345614e-08 1.1773568e-07 6.6227415e-08 1.7350403e-06
0000b0 fe e1 68 35 0c 66 d7 35 a6 f9 13 35 8a 9e e6 34
       8.6755597e-07 1.6048448e-06 5.5125054e-07 4.295619e-07
0000c0 3c 47 c5 35 bc e5 41 33
       1.4698376e-06 4.5145256e-08

exp_avg f4 [5]
000000 04 56 7c 30 77 be df 30 90 c2 bd 2d 2f dd a4 2f
       9.17993e-10 1.6279519e-09 2.1573215e-11 2.9988587e-10
000010 52 b8 16 b0
       -5.4831617e-10

exp_avg_sq f4 [5]
000000 30 1b a6 1f 72 cc 2b 20 da ca 02 1a 24 83 ce 1d
       7.034871e-20 1.4551909e-19 2.7047232e-23 5.4663342e-21
000010 82 5a ee 1e
       2.5236663e-20

exp_avg f4 [5]
000000 43 bc 82 35 04 3e d9 33 e8 b9 6b 33 91 0f 21 35
       9.740546e-07 1.01161305e-07 5.4884282e-08 5.9999826e-07
000010 7c 7e d8 34
       4.0325165e-07

exp_avg_sq f4 [5]
000000 42 9d 69 29 73 6e 9a 28 42 e8 57 25 03 57 b1 28
       5.1872792e-14 1.7145334e-14 1.872697e-16 1.9688683e-14
000010 f2 b2 80 28
       1.428846e-14

exp_avg f4 [5]
000000 04 45 4c 3a d1 63 5f 3a 26 49 90 b8 1d 60 02 3a
       0.00077922666 0.00085216487 -6.88008e-05 0.00049734284
000010 cb cb 1c ba
       -0.0005981295

exp_avg_sq f4 [5]
000000 b6 03 d4 32 be b1 00 33 ca 0c 6f 2f cc 9f 2d 32
       2.4681736e-08 2.9963978e-08 2.1741467e-10 1.0106259e-08
000010 6a ed 7c 32
       1.4722312e-08

exp_avg f4 [5]
000000 e0 61 72 3b 84 6f 3b bc f3 37 40 ba 74 30 9c 3a
       0.0036984608 -0.011440162 -0.0007332556 0.0011916296
000010 20 52 ee bb
       -0.0072729737

exp_avg_sq f4 [5]
000000 00 e9 15 35 c5 13 b3 36 33 86 c7 32 48 57 7c 33
       5.5845885e-07 5.336917e-06 2.3227676e-08 5.8752704e-08
000010 e7 60 10 36
       2.1514077e-06

exp_avg f4 [5]
000000 10 1a 71 3b 90 0b 0f bc 13 67 9b b9 f0 95 d3 3a
       0.0036789216 -0.008730784 -0.000296407 0.0016142707
000010 06 46 c6 bb
       -0.006050828

exp_avg_sq f4 [5]
000000 d1 25 14 35 b2 9e 50 36 41 59 85 31 50 2c e6 33
       5.5189327e-07 3.1086788e-06 3.8809564e-09 1.071827e-07
000010 1c 05 c8 35
       1.4902648e-06

exp_avg f4 [5]
000000 61 32 1b ba 30 8b fa 3a 79 49 ea 38 07 e4 23 b9
       -0.0005920288 0.0019114967 0.00011171675 -0.00015629838
000010 0e 83 92 3a
       0.0011177973

exp_avg_sq f4 [5]
000000 ac ec 75 32 49 f1 1f 34 60 26 14 30 5e 02 8b 30
       1.431469e-08 1.4895808e-07 5.389662e-10 1.0114254e-09
000010 4e 38 5a 33
       5.080829e-08

exp_avg f4 [5]
000000 dc 8e 00 38 8b ad 18 ba 54 77 66 b8 0a 8e e6 b7
       3.0650626e-05 -0.00058242 -5.4947406e-05 -2.7484279e-05
000010 6a 29 98 b9
       -0.00029022555

exp_avg_sq f4 [5]
000000 3f 22 2d 2e 3d 76 6d 32 3f b2 0b 2f e4 f2 06 2e
       3.9366062e-11 1.38221e-08 1.2705302e-10 3.0683803e-11
000010 84 e0 6a 31
       3.4179104e-09

exp_avg f4 [3, 5]
000000 2c 7e 8f bb 96 18 0b bc 8e 3f 7a bb 2e a1 0e bb
       -0.0043790545 -0.008489748 -0.0038184854 -0.002176355
000010 fb 38 ff bb 12 39 f1 ba b0 65 0c bc e2 5f 85 bb
       -0.007788775 -0.0018403849 -0.008569166 -0.004070268
000020 bd a9 a2 ba a2 1f b3 bb a0 3f 07 bb 3c 63 1a bc
       -0.0012410205 -0.0054664174 -0.0020637289 -0.009423073
000030 41 5d 9d b5 7c d8 10 bc f9 aa cb bb
       -1.1724552e-06 -0.008840676 -0.00621545

exp_avg_sq f4 [3, 5]
000000 92 cb 53 35 b3 27 45 36 87 86 21 35 11 f4 4f 34
       7.889986e-07 2.9378396e-06 6.0172937e-07 1.9367168e-07
000010 83 f7 25 36 7e ed 17 34 89 ff 48 36 55 73 37 35
       2.4730987e-06 1.414937e-07 2.9951063e-06 6.834064e-07
000020 9b 59 89 33 06 f2 a2 35 b9 b7 3a 34 34 ff 72 36
       6.395859e-08 1.2140379e-06 1.7389438e-07 3.6209358e-06
000030 c6 1a 9f 29 87 19 56 36 26 8f d2 35
       7.065663e-14 3.1903344e-06 1.5687881e-06

exp_avg f4 [3]
000000 0e f5 52 bd c9 f0 ac bc 34 c3 5b bd
       -0.051503234 -0.021110909 -0.053652957

exp_avg_sq f4 [3]
000000 8c f0 e2 38 30 8f 98 37 7e 02 f7 38
       0.00010821325 1.8186489e-05 0.00011778342
