lightning_logs/version_75/checkpoints/epoch=3-step=8.ckpt (torch, 28460 bytes, 56 tensors)

layers.0.weight f4 [5]
0	0x3f812798	1.0090208
1	0x3f7d819d	0.990259
2	0x3f7e2779	0.9927898
3	0x3f8124b0	1.0089321
4	0x3f7d9c2f	0.9906644

layers.0.bias f4 [5]
0	0x386b7422	5.6136523e-05
1	0x3844face	4.696362e-05
2	0xb94944bf	-0.00019194464
3	0x3916d3f1	0.00014384069
4	0x391101ed	0.00013828995

layers.0.running_mean f4 [5]
0	0x42839674	65.79385
1	0x42838b32	65.771866
2	0x42838892	65.76674
3	0x42838635	65.76212
4	0x42839849	65.79743

layers.0.running_var f4 [5]
0	0x3f136a6d	0.5758427
1	0x3f0fb9f8	0.5614314
2	0x3f10ef60	0.5661526
3	0x3f0f7362	0.56035435
4	0x3f1017d5	0.56286365

layers.1.weight f4 [10, 5]
0	0x3ae28c15	0.0017284179
1	0x3da438ee	0.08018671
2	0xbeca4e0f	-0.3951268
3	0xbebad6fc	-0.36492145
4	0xbd058ebb	-0.03260682
5	0x3b9e3b41	0.004828841
6	0x3e8bb40f	0.2728581
7	0x3ecd25d0	0.4006791
8	0x3ec19c4a	0.37814552
9	0xbe1718a8	-0.147555
10	0xbec6cb96	-0.388272
11	0xbe00e1a3	-0.12586074
12	0xbdb7b382	-0.08969785
13	0x3eb5504f	0.35412833
14	0xbe5ba37d	-0.21449085
15	0x3dd0cf7b	0.10195824
16	0xbed1419a	-0.40870363
17	0xbee00350	-0.43752527
18	0xbee2cec0	-0.44298363
19	0x3e7020df	0.2345004
20	0x3e4be605	0.19911964
21	0x3e2dd56b	0.16975944
22	0x3ed60ccf	0.41806647
23	0xbe7d6483	-0.24745373
24	0xbed536e7	-0.4164345
25	0x3e234669	0.15944828
26	0xbe44ac55	-0.19206364
27	0x3ec8103e	0.39074892
28	0xbc22511f	-0.009907036
29	0x3e3249d6	0.17410979
30	0xbeac10ef	-0.3360667
31	0xbe8a08ff	-0.26959988
32	0x3d470f38	0.048598498
33	0x3db3b37b	0.087744676
34	0x3e52cc8e	0.20585844
35	0x3e96885a	0.29400903
36	0xbe299dd9	-0.1656412
37	0xbe04a352	-0.12952927
38	0xbed4b236	-0.41542214
39	0x3d79e6ef	0.06101125
40	0x3e4335a4	0.19063431
41	0xbedb3fa6	-0.42821997
42	0xbed0e942	-0.40802962
43	0xbc863c0f	-0.01638606
44	0x3d5bf62a	0.053701557
45	0x3e871dac	0.26389825
46	0xbe14745b	-0.14497511
47	0xbee0525c	-0.43812835
48	0x3ea87f3b	0.3290957
49	0x3e9e2cc0	0.30893517

layers.1.bias f4 [10]
0	0x3e3961cd	0.18103714
1	0x3e99e00e	0.30053753
2	0xbc9a52c0	-0.018838286
3	0xbea350c4	-0.31897557
4	0xbd4c2fbb	-0.049850207
5	0x3e636ad7	0.22208725
6	0xbe454cd2	-0.19267586
7	0x3e078ef7	0.1323813
8	0x3ecc226c	0.39870012
9	0x3ed12c40	0.40854073

layers.2.weight f4 [10]
0	0x3f81437f	1.0098723
1	0x3f7d8318	0.9902816
2	0x3f8129ab	1.0090841
3	0x3f813f2a	1.0097401
4	0x3f7d83c3	0.9902918
5	0x3f812f23	1.009251
6	0x3f810a4b	1.0081266
7	0x3f813d1b	1.0096773
8	0x3f7d84bd	0.9903067
9	0x3f80fbb9	1.007682

layers.2.bias f4 [10]
0	0x3c21de54	0.009879667
1	0xbbc260fa	-0.0059319707
2	0x3b70db38	0.0036751758
3	0x3c21c449	0.009873458
4	0xbc21332c	-0.0098388605
5	0x3b83eace	0.0040257936
6	0xbc0e8836	-0.008699467
7	0x3c20ab55	0.009806474
8	0xbc1cd0b4	-0.009571243
9	0x3be19f45	0.0068854415

layers.2.running_mean f4 [10]
0	0x3df18148	0.117922366
1	0x3e486c0e	0.1957247
2	0xbc48f656	-0.012265762
3	0xbe54b554	-0.20772296
4	0xbd054f79	-0.032546494
5	0x3e142195	0.14465936
6	0xbe008df0	-0.12554145
7	0x3db09973	0.08623018
8	0x3e84ff2b	0.25975928
9	0x3e884ab5	0.26619497

layers.2.running_var f4 [10]
0	0x3f0b3464	0.54376817
1	0x3f164456	0.5869802
2	0x3f12d1bf	0.573513
3	0x3f3676f4	0.7127526
4	0x3f1e1f8b	0.6176688
5	0x3f057e4c	0.5214584
6	0x3f00e054	0.503423
7	0x3f075b8e	0.52874076
8	0x3f17731b	0.5916001
9	0x3f2872e0	0.65800285

layers.4.weight f4 [5, 10]
0	0x3cc2f6c5	0.02379931
1	0x3e191e9a	0.1495308
2	0x3e11c8ce	0.14236757
3	0x3ddafb00	0.10692406
4	0x3db1fb85	0.08690552
5	0xbe0480a9	-0.12939705
6	0x3e4d4a82	0.20047954
7	0xbd8f1eec	-0.0698832
8	0xbe95efe0	-0.29284573
9	0xbd66168a	-0.05617384
10	0xbda4672b	-0.0802749
11	0x3e952793	0.29131755
12	0x3d9b3122	0.07577731
13	0xbd89371b	-0.06699964
14	0x3d043dae	0.032285385
15	0x3db52153	0.08844247
16	0xbe662863	-0.22476344
17	0x3cd05b21	0.025434079
18	0xbdcdffc1	-0.10058547
19	0x3e9df191	0.30848363
20	0x3de15b8e	0.11003791
21	0xbc50a490	-0.012734547
22	0xbea16fbc	-0.3153056
23	0x3dafd5b3	0.08585682
24	0xbe194d75	-0.14970954
25	0xbe87c1dd	-0.26515093
26	0x3e9a2d34	0.30112612
27	0xbafd2284	-0.0019312655
28	0xbc2267be	-0.009912429
29	0xbe37b07d	-0.17938419
30	0x3dc097af	0.09403931
31	0x3e52c75b	0.2058386
32	0x3e3dfe2a	0.18553987
33	0x3d876a04	0.06612018
34	0x3dca0765	0.09864692
35	0xba05e5d2	-0.0005107793
36	0xbe2c1302	-0.16804126
37	0x3e8ac202	0.2710114
38	0xbde7f07e	-0.11325167
39	0xbdcba090	-0.09942734
40	0xbc8d05c8	-0.01721467
41	0xbcf34fbf	-0.029701112
42	0x3e929f0e	0.28636974
43	0xbd0798a2	-0.033104546
44	0xbe0718c1	-0.13193037
45	0xbd447868	-0.04796639
46	0xbcc03720	-0.023463786
47	0x3e305569	0.17220081
48	0xbe8c0cb7	-0.2735345
49	0xbe03d84d	-0.12875481

layers.4.bias f4 [5]
0	0xbe93f0a9	-0.28894547
1	0xbe56aa9e	-0.20963523
2	0xbe006e02	-0.12541965
3	0x3e316b75	0.17326148
4	0x3dfc9273	0.123326205

layers.5.weight f4 [5]
0	0x3f7da06b	0.99072903
1	0x3f7e9e7d	0.99460584
2	0x3f7fd7ff	0.9993896
3	0x3f8057e2	1.002682
4	0x3f7dd2e2	0.99149907

layers.5.bias f4 [5]
0	0xbc2448b2	-0.010027098
1	0x3c137ed7	0.009002409
2	0x3ba94c32	0.005166554
3	0x3b5a7785	0.00333354
4	0xbc1bea8c	-0.00951637

layers.5.running_mean f4 [5]
0	0xbe1bb008	-0.1520387
1	0xbd1d05de	-0.038335674
2	0xbe4f8468	-0.20265353
3	0x3e83d7b8	0.25750518
4	0x3c8996fc	0.016795628

layers.5.running_var f4 [5]
0	0x3ecef421	0.4042063
1	0x3ed11c21	0.40841773
2	0x3ecb3fe4	0.39697182
3	0x3ec8f189	0.39246777
4	0x3ec495a7	0.38395426

layers.7.weight f4 [5]
0	0x3f7d777c	0.99010444
1	0x3f81443c	1.0098948
2	0x3f814505	1.0099188
3	0x3f813d6b	1.0096868
4	0x3f7d9c7e	0.99066913

layers.7.bias f4 [5]
0	0xbc22113c	-0.009891804
1	0x3c22c068	0.009933569
2	0x3c22907e	0.009922145
3	0x3c1a6316	0.009423038
4	0xbc1a542e	-0.009419484

layers.7.running_mean f4 [5]
0	0x3e819cac	0.25314844
1	0x3e8c69b5	0.27424398
2	0x3e85833c	0.26076686
3	0x3e88ed82	0.26743704
4	0x3e7b495d	0.24539705

layers.7.running_var f4 [5]
0	0x3f0af3c3	0.542782
1	0x3f19424c	0.59866786
2	0x3f152f5e	0.582754
3	0x3f100fc1	0.5627404
4	0x3f1428fc	0.5787504

layers.8.rho f4 [5]
0	0x3f9fdfe6	1.2490203
1	0x3fa1268f	1.2589892
2	0x3f853d9a	1.0409424
3	0x3fa2095a	1.2659104
4	0x3fcc8200	1.5977173

layers.8.gam f4 [5]
0	0x3fbdf554	1.4840493
1	0x3fb4646e	1.4093149
2	0x3f8ecaff	1.11557
3	0x3fb4d7c0	1.4128342
4	0x3faffe35	1.3749453

layers.9.weight f4 [3, 5]
0	0xbe8efa1b	-0.2792519
1	0x3e9854dd	0.29752246
2	0x3de973f8	0.113990724
3	0x3da939de	0.082629904
4	0xbd23c7f7	-0.039985623
5	0xbebb3584	-0.36564267
6	0xbe228787	-0.15872012
7	0xbeb58385	-0.35451904
8	0xbe0c7fe2	-0.13720658
9	0xbea76eec	-0.32701814
10	0xbeba993f	-0.36445042
11	0x3eac9c20	0.33712864
12	0x3db28e4b	0.087185465
13	0xbe4e5b44	-0.20152003
14	0xbecf6198	-0.40504146

layers.9.bias f4 [3]
0	0x3d4d6e77	0.050154176
1	0x3cc5d1d9	0.024147915
2	0xbd7276e1	-0.059195403

exp_avg f4 [5]
0	0xbad6d769	-0.0016391102
1	0x3a81a2ea	0.0009890471
2	0x39e036c4	0.00042765413
3	0xbaaed2d7	-0.0013337982
4	0x3acf697a	0.0015824281

exp_avg_sq f4 [5]
0	0x33d82b04	1.0066108e-07
1	0x32de2655	2.5861633e-08
2	0x33075f48	3.1518795e-08
3	0x3366a238	5.3698585e-08
4	0x3396181d	6.9893055e-08

exp_avg f4 [5]
0	0x2e4e9c3a	4.6977734e-11
1	0xaca73e78	-4.753361e-12
2	0x2dd4e06f	2.4201278e-11
3	0xaed2341b	-9.55895e-11
4	0xad5203fd	-1.19380035e-11

exp_avg_sq f4 [5]
0	0x1c7e41ae	8.412644e-22
1	0x1c9e1af2	1.0462528e-21
2	0x1d3bf06b	2.4873537e-21
3	0x1d4c0775	2.700303e-21
4	0x1bfc8fb0	4.178276e-22

exp_avg f4 [10, 5]
0	0xb9cd79c5	-0.00039191372
1	0xb97e1999	-0.00024232864
2	0xb8b6df1e	-8.719995e-05
3	0x37cd6be4	2.4488145e-05
4	0x39a4a7de	0.00031405588
5	0xba9dbeea	-0.0012035046
6	0x3b3b6d82	0.0028599207
7	0xbad821de	-0.0016489585
8	0xbb17a1fa	-0.0023137317
9	0xbb9c292c	-0.0047656503
10	0x3aa2cc6d	0.0012420543
11	0x3b46306f	0.003024127
12	0xb9d48cea	-0.0004054078
13	0x3a90dd30	0.0011052247
14	0xbaf42fa4	-0.0018629921
15	0xb97d3212	-0.00024146613
16	0xb9651a6c	-0.00021848985
17	0x38fe9343	0.000121390935
18	0x39cc8b79	0.00039013827
19	0x3a2d4328	0.00066094333
20	0x39e9c1bd	0.0004458557
21	0x3a34e49f	0.0006900522
22	0x3a5a6071	0.0008330411
23	0x3a7761f5	0.0009436899
24	0x3a536d93	0.0008065339
25	0xba88d66b	-0.0010439878
26	0xbb253328	-0.0025207493
27	0xb9f4c172	-0.00046683435
28	0xbb02c0e3	-0.0019951395
29	0xba8a65ab	-0.0010558864
30	0x3b58c96e	0.0033079046
31	0x3aab1b3c	0.0013054381
32	0x3b11991f	0.0022216511
33	0x3ad965c0	0.001658611
34	0x3bb6fe89	0.005584542
35	0x3a0e6437	0.00054318033
36	0xb7ed2298	-2.826871e-05
37	0x39f2578b	0.00046223062
38	0x399e2223	0.00030161542
39	0x398c7a33	0.00026793926
40	0x39b95f7e	0.00035357097
41	0xb9fe1a66	-0.00048466324
42	0x3a3ff048	0.00073218765
43	0x39eae348	0.00044801296
44	0x39e38f44	0.00043403555
45	0xba501f9c	-0.00079392805
46	0xb7e8856a	-2.7718681e-05
47	0xbb27307b	-0.0025511074
48	0xbacf8631	-0.0015832839
49	0xbab27e07	-0.0013617881

exp_avg_sq f4 [10, 5]
0	0x318f4c00	4.170488e-09
1	0x314e18d3	2.9991056e-09
2	0x30c5923f	1.4375202e-09
3	0x3112b760	2.1350033e-09
4	0x318af78f	4.0444728e-09
5	0x344034b3	1.7900565e-07
6	0x345f559c	2.0799638e-07
7	0x33981880	7.082508e-08
8	0x340c50c3	1.3067897e-07
9	0x3519c562	5.728417e-07
10	0x333521d4	4.2173113e-08
11	0x34750a50	2.2821155e-07
12	0x3259907b	1.26639135e-08
13	0x332249c9	3.778567e-08
14	0x33b847ae	8.581206e-08
15	0x31c6416e	5.769997e-09
16	0x311f0d6b	2.3145172e-09
17	0x3076b031	8.974466e-10
18	0x3220cfd8	9.360484e-09
19	0x323be610	1.0937143e-08
20	0x3234cc00	1.0523763e-08
21	0x326168d4	1.3120559e-08
22	0x32a8e7fe	1.9663272e-08
23	0x32ccf688	2.3860835e-08
24	0x32cc057e	2.3751223e-08
25	0x3367e71f	5.3994082e-08
26	0x3457f130	2.0111179e-07
27	0x33229cf4	3.7861312e-08
28	0x3408ac2a	1.272862e-07
29	0x33017b83	3.0147486e-08
30	0x34ab8c43	3.1953286e-07
31	0x33d04268	9.697834e-08
32	0x3418a4cc	1.4216056e-07
33	0x341d8cde	1.4673012e-07
34	0x354f911c	7.732467e-07
35	0x3275cd36	1.43075365e-08
36	0x314c9672	2.9771425e-09
37	0x31c13792	5.623357e-09
38	0x31b458b8	5.2487756e-09
39	0x31f49bd0	7.1190485e-09
40	0x33c38e92	9.1063285e-08
41	0x31e7e7f9	6.749357e-09
42	0x32d8a578	2.5220956e-08
43	0x31fd7e0d	7.3775994e-09
44	0x321f91f1	9.288201e-09
45	0x3404924e	1.2346683e-07
46	0x31879007	3.945391e-09
47	0x34922bad	2.7226397e-07
48	0x33c3d440	9.119003e-08
49	0x3351385c	4.8712863e-08

exp_avg f4 [10]
0	0x2d300fbb	1.0007935e-11
1	0xae3cef84	-4.2958984e-11
2	0xac9b6388	-4.416415e-12
3	0x2d83f426	1.50014e-11
4	0xae02e062	-2.975787e-11
5	0x2e88b050	6.2158834e-11
6	0xaf342b96	-1.638639e-10
7	0xabd8bab0	-1.5399539e-12
8	0xae533ab0	-4.802797e-11
9	0x2e55f8f0	4.8651694e-11

exp_avg_sq f4 [10]
0	0x1b4471cb	1.6249508e-22
1	0x1df8e20a	6.5878772e-21
2	0x1c74a7be	8.094963e-22
3	0x1ac48af6	8.1288204e-23
4	0x1ac9aca8	8.341059e-23
5	0x1ba61a5a	2.7479426e-22
6	0x1cf38c8a	1.611672e-21
7	0x1a9144db	6.0081836e-23
8	0x1d000a7e	1.6946083e-21
9	0x1d3034fc	2.3320798e-21

exp_avg f4 [10]
0	0xba1eab1b	-0.00060527184
1	0x3b431ecb	0.0029772993
2	0xba620f93	-0.00086235366
3	0xb9bd3fe6	-0.00036096497
4	0x3a1e1b8c	0.00060313265
5	0xb9d14249	-0.00039912973
6	0xb9bc14af	-0.00035873565
7	0xb9da50b3	-0.00041640326
8	0x3a5af4a7	0.0008352496
9	0xbab15089	-0.001352803

exp_avg_sq f4 [10]
0	0x3217bb17	8.831896e-09
1	0x3486cfe3	2.5110702e-07
2	0x32b17a21	2.066105e-08
3	0x316a74e2	3.4117922e-09
4	0x3223a1f6	9.524674e-09
5	0x31a32550	4.7481663e-09
6	0x31c4e8e8	5.730829e-09
7	0x31a0ea02	4.6832165e-09
8	0x32a86478	1.9603462e-08
9	0x33e185ca	1.0501715e-07

exp_avg f4 [10]
0	0xba12f27c	-0.0005605591
1	0x39629b5e	0.00021610918
2	0xb9ad8cb7	-0.00033101972
3	0xb9b8abfd	-0.00035223356
4	0x39d65079	0.00040877218
5	0xb9ab171c	-0.0003263288
6	0x39af9ffc	0.000334978
7	0xb9c4ca5c	-0.00037534803
8	0x3a91afc7	0.0011115008
9	0xba54af54	-0.0008113284

exp_avg_sq f4 [10]
0	0x32031b83	7.631459e-09
1	0x3226c789	9.707841e-09
2	0x3225766e	9.631192e-09
3	0x315d21dc	3.217898e-09
4	0x3195c459	4.358793e-09
5	0x321f4f52	9.273053e-09
6	0x318e1194	4.1347423e-09
7	0x31816db7	3.7668673e-09
8	0x330adcba	3.233138e-08
9	0x338150e1	6.0217424e-08

exp_avg f4 [5, 10]
0	0xbad3bd56	-0.0016154449
1	0x3bf9a37c	0.007618366
2	0xbbf90858	-0.0075998716
3	0xba801663	-0.0009772297
4	0x3b66e323	0.00352306
5	0x39e19fe8	0.00043034484
6	0xbba796eb	-0.0051144264
7	0xbb13f2bc	-0.00225751
8	0xbadbc349	-0.0016766574
9	0xba999c74	-0.00117196
10	0x3b064475	0.002048758
11	0x3b596884	0.0033173868
12	0x3be60fcd	0.0070209266
13	0x3a902fbb	0.0011000553
14	0x3b9aac90	0.004720278
15	0xbbb0945d	-0.00538878
16	0xb9ced84f	-0.00039452544
17	0x3ab4e606	0.0013801462
18	0xbad34d0c	-0.0016120984
19	0xbb906700	-0.00440681
20	0xbaa6e7b7	-0.0012733851
21	0x3a00eeb7	0.0004918384
22	0x3aa7145a	0.0012747154
23	0xba385525	-0.00070317305
24	0xb9e12264	-0.00042940967
25	0xb97559a5	-0.00023398416
26	0x3af0a241	0.0018358902
27	0xbb017cfa	-0.001975833
28	0xba0c21c1	-0.0005345606
29	0x3a330a0c	0.0006829805
30	0xbb4d4de0	-0.0031326935
31	0x3b75bd35	0.003749681
32	0x3a1cf37b	0.0005987209
33	0xbb152437	-0.0022757181
34	0x398808da	0.00025946536
35	0x3b1ed33e	0.0024234797
36	0x39a85da5	0.00032113228
37	0xbb149e30	-0.0022677295
38	0xba9f5602	-0.001215637
39	0x38605f68	5.3494616e-05
40	0x3a81b9e1	0.0009897315
41	0xba34e335	-0.00069003116
42	0xb9c03e8a	-0.0003666769
43	0xb8b79aa4	-8.754924e-05
44	0xb8991e55	-7.301258e-05
45	0xba240c5b	-0.00062579446
46	0xbabfd91e	-0.001463685
47	0xb96bc97f	-0.0002248641
48	0xb809d88a	-3.2865013e-05
49	0xb98cc4c8	-0.00026849494

exp_avg_sq f4 [5, 10]
0	0x33eb0ed7	1.09457396e-07
1	0x35cc40d5	1.5218053e-06
2	0x35bc24ab	1.4017763e-06
3	0x3316d71f	3.5120248e-08
4	0x34b871d2	3.4355486e-07
5	0x34013d27	1.2036308e-07
6	0x352ec02e	6.509971e-07
7	0x33ff1810	1.187874e-07
8	0x339fc944	7.4406245e-08
9	0x3333c6dd	4.185755e-08
10	0x33f028b2	1.1183273e-07
11	0x354a1de9	7.529439e-07
12	0x35b8ebf9	1.3777745e-06
13	0x333f8e40	4.460003e-08
14	0x35241a92	6.1133426e-07
15	0x3555d729	7.966178e-07
16	0x3368f26c	5.423719e-08
17	0x336c5e5e	5.503386e-08
18	0x34b8658b	3.4346553e-07
19	0x3594a070	1.1073553e-06
20	0x333dc75e	4.4186315e-08
21	0x31e1be17	6.5699726e-09
22	0x333b29b7	4.357727e-08
23	0x335ccc98	5.140882e-08
24	0x319f3bfa	4.6343276e-09
25	0x30e48792	1.6627715e-09
26	0x33ce1da8	9.598017e-08
27	0x3416d31f	1.4046644e-07
28	0x332c1510	4.0066027e-08
29	0x329cfac3	1.8274823e-08
30	0x347aa85a	2.334431e-07
31	0x34bd750c	3.5289156e-07
32	0x32d74d93	2.506457e-08
33	0x3404c264	1.2364177e-07
34	0x3200f13f	7.505434e-09
35	0x341b22bc	1.4448136e-07
36	0x31fddc84	7.388339e-09
37	0x3414612d	1.3818926e-07
38	0x332790f4	3.901455e-08
39	0x31681e34	3.3777612e-09
40	0x32c8a466	2.3357824e-08
41	0x325202f8	1.2224284e-08
42	0x319eb2c4	4.6187285e-09
43	0x3060ff5e	8.1853624e-10
44	0x30e43e74	1.6606934e-09
45	0x322a2a40	9.904909e-09
46	0x336960df	5.4337644e-08
47	0x30c0ac16	1.4018748e-09
48	0x3016db87	5.488165e-10
49	0x30fe8cb7	1.8520926e-09

exp_avg f4 [5]
0	0xaf9698a6	-2.7393304e-10
1	0x2f27cf87	1.526229e-10
2	0xae129dc9	-3.3336698e-11
3	0x2ec674ed	9.024768e-11
4	0xad5126a8	-1.1888858e-11

exp_avg_sq f4 [5]
0	0x1e7d8b09	1.342246e-20
1	0x1e9b20db	1.6424852e-20
2	0x1cb80d14	1.2179479e-21
3	0x1c6b0658	7.7763177e-22
4	0x1c2dec26	5.7546113e-22

exp_avg f4 [5]
0	0x370a4cd6	8.243331e-06
1	0x35f6f2a3	1.8399045e-06
2	0x342f2867	1.6312843e-07
3	0xb319e227	-3.5828773e-08
4	0x35ce11f7	1.5353424e-06

exp_avg_sq f4 [5]
0	0x2be786f2	1.6450992e-12
1	0x29f9cd65	1.10934516e-13
2	0x2825ea8e	9.210201e-15
3	0x2609b3d7	4.777515e-16
4	0x298d368c	6.27112e-14

exp_avg f4 [5]
0	0x3abd051c	0.0014421078
1	0xba01976d	-0.00049435237
2	0xb896bd26	-7.187789e-05
3	0xb75c470c	-1.3129564e-05
4	0x3999eeb9	0.00029360296

exp_avg_sq f4 [5]
0	0x3349c3bc	4.697698e-08
1	0x32139e64	8.59254e-09
2	0x30596224	7.9083606e-10
3	0x2f62cee4	2.0628083e-10
4	0x311cdfc0	2.2828175e-09

exp_avg f4 [5]
0	0x3b5725d3	0.0032828941
1	0xbc160ebd	-0.009158787
2	0xbb15dfec	-0.0022869064
3	0xba9f8575	-0.0012170511
4	0x39f7dee1	0.0004727757

exp_avg_sq f4 [5]
0	0x348e4914	2.6502732e-07
1	0x36046d56	1.9733175e-06
2	0x340167cb	1.2051821e-07
3	0x3318d2f6	3.5582126e-08
4	0x31e175e8	6.5617662e-09

exp_avg f4 [5]
0	0x3b8329ef	0.0040028016
1	0xbbdfc054	-0.006828347
2	0xbad28398	-0.0016060947
3	0xba699728	-0.00089107687
4	0x3a2bf122	0.0006559064

exp_avg_sq f4 [5]
0	0x34cbcc78	3.7960467e-07
1	0x3596687f	1.1206283e-06
2	0x33831e11	6.105632e-08
3	0x32b1a281	2.067941e-08
4	0x324adc7d	1.1808081e-08

exp_avg f4 [5]
0	0xba0f0ee9	-0.0005457239
1	0x3acbd807	0.0015552052
2	0x39e9e17d	0.00044609225
3	0x3957e7d8	0.00020590366
4	0xb8907bba	-6.889501e-05

exp_avg_sq f4 [5]
0	0x31fcfc50	7.36285e-09
1	0x33739549	5.671362e-08
2	0x319d223a	4.5731925e-09
3	0x308b94e8	1.0155903e-09
4	0x2f1a29be	1.4021048e-10

exp_avg f4 [5]
0	0xb7369459	-1.0882585e-05
1	0xb9d902e0	-0.00041391607
2	0xb900d052	-0.00012284637
3	0xb86ec14a	-5.6923636e-05
4	0xb6a635c2	-4.9534437e-06

exp_avg_sq f4 [5]
0	0x2d8bf454	1.5910974e-11
1	0x3185d6ca	3.895228e-09
2	0x2fba81bf	3.3925393e-10
3	0x2e9f9692	7.2572295e-11
4	0x2b27f6fe	5.967309e-13

exp_avg f4 [3, 5]
0	0xbc0a0f5b	-0.008426513
1	0xbcac634f	-0.021043448
2	0xbcba0170	-0.022705764
3	0xbcaf2f9f	-0.021385012
4	0xbbe0d9f9	-0.006861922
5	0xb8850a86	-6.343894e-05
6	0xba251944	-0.00062980154
7	0xb92f7d7b	-0.00016736046
8	0xb9c610f7	-0.00037778143
9	0xb8cc7cd0	-9.750726e-05
10	0xb9a7929f	-0.00031961963
11	0xbc514ca4	-0.01277462
12	0xbb82944f	-0.003984965
13	0xba35a22b	-0.0006928767
14	0xb692a838	-4.3707223e-06

exp_avg_sq f4 [3, 5]
0	0x35f4a43e	1.8227217e-06
1	0x372dc556	1.0357549e-05
2	0x37495def	1.2002404e-05
3	0x37321114	1.0613603e-05
4	0x35b7de1c	1.3699205e-06
5	0x2f080f60	1.237459e-10
6	0x3215dc9c	8.723102e-09
7	0x306d98f6	8.643747e-10
8	0x316943c2	3.3944478e-09
9	0x2fad330f	3.1504796e-10
10	0x31539e38	3.0794478e-09
11	0x367ba43b	3.749751e-06
12	0x34bf768a	3.566277e-07
13	0x328d3630	1.6439202e-08
14	0x2b83b74c	9.358985e-13

exp_avg f4 [3]
0	0xbe2c0c10	-0.16801476
1	0xbd851772	-0.064986125
2	0xbcd70325	-0.026246617

exp_avg_sq f4 [3]
0	0x3a2e2f07	0.0006644581
1	0x38cb2200	9.686127e-05
2	0x37830bd3	1.5621923e-05
