lightning_logs/version_0/checkpoints/epoch=0-step=2.ckpt (torch, 28015 bytes, 56 tensors)

layers.0.weight f4 [5]
0	0x3f7fa085	0.9985431
1	0x3f802da6	1.0013931
2	0x3f803e4c	1.0019011
3	0x3f800e0f	1.000429
4	0x3f7fcb70	0.99919796

layers.0.bias f4 [5]
0	0xb7ce293c	-2.4576315e-05
1	0xb795481b	-1.779576e-05
2	0x3839a754	4.4263274e-05
3	0xb7b210b3	-2.122703e-05
4	0x378e4767	1.6960968e-05

layers.0.running_mean f4 [5]
0	0x41999559	19.197924
1	0x419973f6	19.181622
2	0x4199782b	19.183676
3	0x41998d64	19.194038
4	0x41998dd3	19.19425

layers.0.running_var f4 [5]
0	0x3f5f238d	0.8716362
1	0x3f5f23fd	0.8716429
2	0x3f6014a5	0.875315
3	0x3f6009d1	0.8751498
4	0x3f5fa9a4	0.87368226

layers.1.weight f4 [10, 5]
0	0xbd95748e	-0.07297622
1	0xbedbf0c1	-0.42957118
2	0x3e945f62	0.2897902
3	0x3ed110d2	0.40833145
4	0xbd1ab264	-0.037767783
5	0x3e5ea7d1	0.21743704
6	0x3ec9e4cf	0.3943238
7	0xbe223747	-0.15841399
8	0x3e904bea	0.28182918
9	0xbe4f1873	-0.2022417
10	0xbc94cafb	-0.018163195
11	0x3e7daa1d	0.24771924
12	0x3e071f88	0.13195622
13	0x3cf1c977	0.029515011
14	0xbdcd39b1	-0.100207694
15	0x3ebd95b7	0.37028286
16	0x3ec6e067	0.3884308
17	0xbeb7ae78	-0.35875297
18	0x3ecd9a10	0.40156603
19	0x3e9df0b9	0.3084772
20	0xbb9472ad	-0.004530272
21	0xbe19b308	-0.15009701
22	0x3ea0ddde	0.3141927
23	0xbed69c7d	-0.41916266
24	0x3e458303	0.19288258
25	0x3edc3a97	0.4301345
26	0x3d3c3a42	0.045953996
27	0xbe936c57	-0.28793594
28	0xbe665ee0	-0.2249713
29	0xbdf20bbe	-0.11818646
30	0x3ed51d78	0.41624045
31	0x3eaabfd5	0.3334948
32	0x3e1bb19e	0.15204474
33	0xbea10b2a	-0.3145383
34	0xbcbd90a6	-0.023140263
35	0x3e0836a9	0.13302101
36	0xbe73bdd2	-0.2380288
37	0xbde9cb9b	-0.11415788
38	0x3e355737	0.17709051
39	0xbe976e79	-0.2957647
40	0x3ecde465	0.40213314
41	0x3ea688d8	0.32526278
42	0x3ded2ee1	0.11581207
43	0x3ed0f52f	0.4081206
44	0x3e47489d	0.19461294
45	0xbe0e22b6	-0.13880429
46	0xbd8f7b22	-0.070059076
47	0xbedb24b3	-0.42801437
48	0x3e006316	0.12537798
49	0x3e55fb92	0.20896748

layers.1.bias f4 [10]
0	0x3e36aa74	0.1783846
1	0xbe922076	-0.2854039
2	0x3e64dba7	0.22349416
3	0x3ec925d5	0.39286676
4	0x3e82105b	0.25403103
5	0xbd3bd99e	-0.045861833
6	0xbea9a136	-0.33130807
7	0x3dc5dd2f	0.09661328
8	0x3ea6d8d6	0.32587308
9	0xbe7408a6	-0.23831424

layers.2.weight f4 [10]
0	0x3f7f7d0c	0.9980018
1	0x3f8040ce	1.0019777
2	0x3f803cbd	1.0018536
3	0x3f80408f	1.0019702
4	0x3f7f7d87	0.99800915
5	0x3f7f8021	0.99804884
6	0x3f7f8387	0.9981007
7	0x3f803e5b	1.0019029
8	0x3f802b9b	1.0013307
9	0x3f803d17	1.0018643

layers.2.bias f4 [10]
0	0x3afc8557	0.0019265813
1	0x3b02e5fa	0.0019973502
2	0x3affd51a	0.0019518465
3	0xbae718a5	-0.0017631246
4	0xbb030942	-0.0019994532
5	0x3987e880	0.00025922433
6	0x3ada889e	0.0016672795
7	0x3ad0b564	0.0015923199
8	0x3af9bdda	0.0019053773
9	0x3b01aa12	0.0019785208

layers.2.running_mean f4 [10]
0	0x3d0adc54	0.033901528
1	0xbd5e1490	-0.05421883
2	0x3d2deb03	0.042460453
3	0x3d98de32	0.074642554
4	0x3d45b1c0	0.04826522
5	0xbc0ed2c6	-0.0087172445
6	0xbd80ec28	-0.06295043
7	0x3c966eb3	0.018363332
8	0x3d7d9ac8	0.06191519
9	0xbd39847e	-0.04529237

layers.2.running_var f4 [10]
0	0x3f641596	0.8909544
1	0x3f60b0b9	0.8776966
2	0x3f53f330	0.8279295
3	0x3f6e1dbc	0.9301412
4	0x3f60f2ef	0.8787069
5	0x3f5e89c0	0.8692894
6	0x3f64ccd1	0.89375025
7	0x3f598fe2	0.8498517
8	0x3f6684d9	0.9004646
9	0x3f5cf945	0.86317855

layers.4.weight f4 [5, 10]
0	0x3e828314	0.2549063
1	0xbe5afd88	-0.21385777
2	0x3e9e68cc	0.3093933
3	0xbe5a11b6	-0.21295819
4	0x3e27d6ec	0.1639058
5	0x3e476784	0.19473082
6	0xbe6a8a3d	-0.22904296
7	0xbe9d06ec	-0.30669343
8	0xbe35e995	-0.17764886
9	0x3e71ee8d	0.23626156
10	0x3ea08cd2	0.31357437
11	0xbe37a9e7	-0.17935906
12	0xbdd70a9a	-0.10500069
13	0x3ccdfbba	0.025144447
14	0xbd834345	-0.06409315
15	0xbe3e6051	-0.1859143
16	0x3e1c0f0b	0.15240113
17	0xbe92f6b2	-0.2870384
18	0xbe714f5d	-0.23565431
19	0xbddd3a34	-0.10802117
20	0xbe36b1a5	-0.17841204
21	0x3e9cf4b5	0.30655447
22	0xbdf84870	-0.12123191
23	0xbe760368	-0.24024737
24	0x3e0dc8b2	0.1384609
25	0xbe29d80f	-0.16586326
26	0xbe801754	-0.25017798
27	0xbe636c91	-0.22209384
28	0xbda14e64	-0.0787628
29	0xbe9f04a0	-0.31058216
30	0xbd307d88	-0.043088466
31	0xbe8a9509	-0.2706683
32	0x3e538fe1	0.20660354
33	0xbe1df07a	-0.15423766
34	0xbe5dedd7	-0.2167276
35	0xbd3beb30	-0.04587859
36	0x3cf41c16	0.029798549
37	0x3d92f6b1	0.07175959
38	0x3d931836	0.07182352
39	0xbe0671ac	-0.131293
40	0xbe1a5844	-0.15072733
41	0x3e3f75ee	0.1869733
42	0xbdcd0988	-0.100115836
43	0x3e2b47b3	0.1672657
44	0x3ddf5079	0.10904021
45	0x3e36f149	0.1786548
46	0x3e56cdd3	0.20976953
47	0xbe75a28d	-0.2398779
48	0xbe4d1426	-0.20027217
49	0x3ea28ccd	0.31748047

layers.4.bias f4 [5]
0	0x3e17624a	0.14783588
1	0x3e8bd4e9	0.27310875
2	0x3bc200ab	0.00592049
3	0xbc3296a5	-0.010900174
4	0x3d5c2d90	0.05375439

layers.5.weight f4 [5]
0	0x3f80244d	1.0011078
1	0x3f800ca6	1.000386
2	0x3f7f834f	0.99809736
3	0x3f8016a0	1.0006905
4	0x3f7f8458	0.99811316

layers.5.bias f4 [5]
0	0x3b009693	0.0019621
1	0x3b02b464	0.0019943947
2	0xbb0322fe	-0.002000987
3	0x3afad5f4	0.0019137249
4	0xbafd5e62	-0.0019330496

layers.5.running_mean f4 [5]
0	0x3d01a866	0.031654738
1	0x39c5eb20	0.0003774995
2	0xbdafd03e	-0.08584641
3	0xbd206745	-0.039160985
4	0x3d3e4b48	0.046458513

layers.5.running_var f4 [5]
0	0x3f55f4ab	0.8357646
1	0x3f54caf2	0.8312217
2	0x3f54b6ef	0.83091635
3	0x3f5166e5	0.8179763
4	0x3f56a6f6	0.8384851

layers.7.weight f4 [5]
0	0x3f8040ed	1.0019814
1	0x3f8040ca	1.0019772
2	0x3f7f7bdd	0.99798375
3	0x3f8040ed	1.0019814
4	0x3f7f7b87	0.9979786

layers.7.bias f4 [5]
0	0x3b0328cc	0.002001333
1	0x3b02fbb0	0.0019986443
2	0xbb02dc35	-0.001996768
3	0x3b031d69	0.0020006543
4	0xbb032742	-0.0020012413

layers.7.running_mean f4 [5]
0	0x3d99bcb6	0.07506697
1	0x3d973b81	0.07384396
2	0x3d9e124a	0.07718332
3	0x3d98e2df	0.07465147
4	0x3d99f582	0.0751753

layers.7.running_var f4 [5]
0	0x3f5a39ef	0.8524465
1	0x3f5b2400	0.85601807
2	0x3f5ebdf5	0.870086
3	0x3f5d681e	0.86486995
4	0x3f5e7912	0.8690349

layers.8.rho f4 [5]
0	0x3fefcd49	1.8734523
1	0x3f94769b	1.1598696
2	0x3fce2238	1.6104193
3	0x3fba6265	1.4561278
4	0x3fbb5d5e	1.4637868

layers.8.gam f4 [5]
0	0x3fe2dc38	1.7723455
1	0x3ffbdd3f	1.9676894
2	0x3fd1f648	1.6403284
3	0x3fc9de58	1.5770979
4	0x3ffecda1	1.9906503

layers.9.weight f4 [3, 5]
0	0xbe8e3b87	-0.2777979
1	0x3ec225d2	0.3791948
2	0xbe7b4b0f	-0.24540351
3	0x3ee0124a	0.43763953
4	0x3d2f6345	0.04281928
5	0x3ebcba13	0.36860713
6	0xbd674368	-0.056460768
7	0xbbeae680	-0.007168591
8	0xbe22854f	-0.15871166
9	0xbec0b33d	-0.37636748
10	0xbe9fb0a2	-0.31189448
11	0xbe326084	-0.1741963
12	0x3eb4f0d2	0.3533998
13	0x3e5c21d6	0.21497282
14	0xbe91ddd0	-0.28489542

layers.9.bias f4 [3]
0	0x3ebdb374	0.37050974
1	0x3e9c2e58	0.30504107
2	0xbea62828	-0.32452512

exp_avg f4 [5]
0	0x39035376	0.00012524225
1	0xb8d53dbe	-0.00010168132
2	0xb938fa07	-0.0001764075
3	0x394b5428	0.00019390939
4	0xb82dcc54	-4.143671e-05

exp_avg_sq f4 [5]
0	0x319c5a9a	4.5504978e-09
1	0x316687b8	3.3546552e-09
2	0x310b8357	2.030182e-09
3	0x31ebc766	6.862069e-09
4	0x310986d0	2.0012756e-09

exp_avg f4 [5]
0	0x2d7ae148	1.4260877e-11
1	0xae3147af	-4.030881e-11
2	0x2d428f5c	1.10594554e-11
3	0x2e3d1eb8	4.300091e-11
4	0x2cfd70a4	7.203198e-12

exp_avg_sq f4 [5]
0	0x1a145521	3.067445e-23
1	0x1c5baa54	7.2681166e-22
2	0x1c3942d6	6.129775e-22
3	0x1b6676c5	1.906353e-22
4	0x1b08b6d5	1.1308733e-22

exp_avg f4 [10, 5]
0	0xb9a60f9c	-0.00031673617
1	0x3a161c4e	0.00057262636
2	0xb97bf57f	-0.0002402868
3	0x3a295037	0.00064587913
4	0xba32f682	-0.00068268937
5	0x39dd2ae0	0.0004218435
6	0xb96621a8	-0.00021947047
7	0xb997ca58	-0.00028951722
8	0xb91a22e0	-0.00014699576
9	0x386d899a	5.6633355e-05
10	0x3a0e46b4	0.00054274057
11	0x38d71c04	0.00010257217
12	0x3879be13	5.9543247e-05
13	0x395ce6fc	0.00021066883
14	0x39a3b310	0.00031223195
15	0xb880ba2d	-6.1381936e-05
16	0x3996bf58	0.00028752792
17	0xb7ae02f5	-2.0743793e-05
18	0xb942b030	-0.00018566917
19	0xb89a7910	-7.365842e-05
20	0x398a76bd	0.00026409878
21	0xb9054b8a	-0.00012712009
22	0xb925a807	-0.00015798221
23	0xb80621dd	-3.1979627e-05
24	0x38c11f0a	9.2087386e-05
25	0x3969f91b	0.0002231341
26	0xb9cf0f84	-0.00039493677
27	0x3a045c81	0.00050491845
28	0xb9e746b5	-0.00044112434
29	0x3997d0cd	0.00028956533
30	0x36c2a6e0	5.8010774e-06
31	0x38574140	5.1320763e-05
32	0xb7deeb20	-2.657395e-05
33	0x38b05740	8.4085856e-05
34	0xb9e114da	-0.0004293088
35	0x399757a8	0.00028866273
36	0xb95b0d08	-0.00020890322
37	0xb95ddcef	-0.00021158507
38	0xb995ec49	-0.0002859554
39	0x395fb205	0.00021333255
40	0xb915c649	-0.00014283614
41	0xb7f0e020	-2.8714596e-05
42	0xb991289b	-0.0002768681
43	0x392a3b5d	0.00016234578
44	0x392af144	0.00016302342
45	0x399101c1	0.00027657862
46	0xb9f112a0	-0.0004598098
47	0xb8b25e7e	-8.505302e-05
48	0xba08550c	-0.0005200661
49	0x39248626	0.00015690233

exp_avg_sq f4 [10, 5]
0	0x32729bd4	1.4121685e-08
1	0x32d98e55	2.532685e-08
2	0x31bc9c0c	5.4892606e-09
3	0x32d1fc5c	2.4445562e-08
4	0x32df2135	2.5975718e-08
5	0x3241b600	1.1275461e-08
6	0x31d66162	6.239291e-09
7	0x32119353	8.4736085e-09
8	0x30c7c864	1.453611e-09
9	0x312979b6	2.4661921e-09
10	0x32fa5fbe	2.9147369e-08
11	0x30ea7a61	1.7060523e-09
12	0x30a0a05a	1.1687107e-09
13	0x33170d6f	3.5169645e-08
14	0x31e09826	6.5365553e-09
15	0x3123c91a	2.3833935e-09
16	0x328beefd	1.6290409e-08
17	0x2dd2e528	2.3976002e-11
18	0x3127bd20	2.4409204e-09
19	0x32543286	1.2351512e-08
20	0x31cb21ca	5.911919e-09
21	0x3195859b	4.35166e-09
22	0x319fa89a	4.646677e-09
23	0x2f2971ab	1.5410843e-10
24	0x30a15819	1.1739331e-09
25	0x31de8e32	6.477216e-09
26	0x321a7745	8.9910985e-09
27	0x3274b5b3	1.4243983e-08
28	0x329cd056	1.825553e-08
29	0x31ada282	5.0534377e-09
30	0x31a43ff4	4.780299e-09
31	0x3159b94f	3.1682992e-09
32	0x2fec4d6b	4.298316e-10
33	0x3077a40b	9.0091196e-10
34	0x3235844a	1.0565666e-08
35	0x319e797f	4.6122177e-09
36	0x313fc532	2.790625e-09
37	0x318b215c	4.049225e-09
38	0x31a48ac2	4.788803e-09
39	0x3193d9e1	4.303033e-09
40	0x309e2884	1.1507528e-09
41	0x30af0654	1.2734724e-09
42	0x325c60b3	1.2827672e-08
43	0x31747efa	3.557885e-09
44	0x30d129a8	1.5218591e-09
45	0x3265cea7	1.3376542e-08
46	0x329e050c	1.8395916e-08
47	0x2fdbd153	3.9984602e-10
48	0x3298f803	1.7807912e-08
49	0x30bca530	1.3725749e-09

exp_avg f4 [10]
0	0x2e91eb85	6.635673e-11
1	0x2e6147ae	5.122274e-11
2	0xadb851ec	-2.0954759e-11
3	0x2d9eb852	1.8044375e-11
4	0xad23d70a	-9.3132255e-12
5	0xade7ae15	-2.6338967e-11
6	0xaaa3d710	-2.9103846e-13
7	0x2e800000	5.820766e-11
8	0x2aa3d710	2.9103846e-13
9	0xae770a3e	-5.6170395e-11

exp_avg_sq f4 [10]
0	0x1c76c483	8.164856e-22
1	0x1c17678f	5.0095555e-22
2	0x1a82f0e1	5.41559e-23
3	0x1a8b417d	5.7594855e-23
4	0x1aa3b57d	6.770843e-23
5	0x1b67a627	1.9161559e-22
6	0x180301a8	1.693219e-24
7	0x1bccccce	3.388132e-22
8	0x180301a8	1.693219e-24
9	0x1b9c0315	2.5810027e-22

exp_avg f4 [10]
0	0x3a04603b	0.000504974
1	0xb91637a0	-0.00014325837
2	0xb962f57e	-0.00021644493
3	0xb90e454b	-0.00013567989
4	0x39bf0188	0.000364315
5	0x3851ced6	5.0022114e-05
6	0x393c6dae	0.00017969936
7	0xb9a2e330	-0.00031068316
8	0xb7d21a1c	-2.5046109e-05
9	0xb98b57a0	-0.00026577432

exp_avg_sq f4 [10]
0	0x327d8933	1.4757734e-08
1	0x309ce510	1.1415597e-09
2	0x316982b2	3.3980254e-09
3	0x308ee19b	1.0395981e-09
4	0x3205f413	7.797115e-09
5	0x2f2facd1	1.5977554e-10
6	0x311eed16	2.3126794e-09
7	0x31d79bfc	6.275057e-09
8	0x2f9b31fc	2.8229852e-10
9	0x31abd6a5	5.0011573e-09

exp_avg f4 [10]
0	0xb951fd40	-0.00020026136
1	0xb99bcd10	-0.00029716687
2	0xb985e309	-0.0002553689
3	0x38dfb6de	0.0001066753
4	0x394602db	0.00018883815
5	0x38ce9b93	9.8518234e-05
6	0xb893fb3b	-7.0563015e-05
7	0xb910e5ac	-0.0001381847
8	0xb9127a36	-0.00013969172
9	0xb940d9f0	-0.00018391735

exp_avg_sq f4 [10]
0	0x3131bcbb	2.586417e-09
1	0x31a8e78e	4.9157682e-09
2	0x3188f0b2	3.985485e-09
3	0x3094941d	1.0810514e-09
4	0x3107d5d8	1.9766642e-09
5	0x30872031	9.831692e-10
6	0x302a3120	6.191545e-10
7	0x314f176c	3.0135778e-09
8	0x30b52770	1.3180692e-09
9	0x31066b3b	1.956052e-09

exp_avg f4 [5, 10]
0	0xb8f549a4	-0.00011696227
1	0xb881cf9f	-6.189872e-05
2	0xba00de3f	-0.000491593
3	0xb8d01b26	-9.92327e-05
4	0x3a4131dc	0.00073697953
5	0x395cdccb	0.00021063087
6	0x36217dca	2.4064088e-06
7	0xb76a1b7e	-1.3953888e-05
8	0x37dfc94e	2.6677411e-05
9	0xb888f39d	-6.530362e-05
10	0x3ac0184a	0.0014655676
11	0x3a335cce	0.0006842137
12	0x3a8c66b3	0.0010711759
13	0x39a3bfcb	0.0003123268
14	0xbb3ba642	-0.0028633033
15	0x3a1c9efe	0.00059746194
16	0x38cd110c	9.778337e-05
17	0x3a74eafc	0.0009342877
18	0x398575b5	0.00025455435
19	0x38114218	3.463225e-05
20	0xb8d078e4	-9.9407305e-05
21	0x38741408	5.819279e-05
22	0x387feba0	6.101618e-05
23	0xb7ffc104	-3.0488249e-05
24	0xb946d986	-0.00018963785
25	0xb82ceeee	-4.1230516e-05
26	0x37ff517d	3.0436315e-05
27	0x3834d61c	4.311475e-05
28	0x388b2ec2	6.636746e-05
29	0xb77df802	-1.5137719e-05
30	0x39683b60	0.00022147363
31	0xb980f9df	-0.0002460023
32	0x398e8c16	0.00027188723
33	0x39b864d6	0.00035170343
34	0xb91a8f04	-0.00014739862
35	0xb9ad5e86	-0.00033067557
36	0xb8ea97da	-0.00011186274
37	0xba30cb17	-0.000674413
38	0xb817a260	-3.615243e-05
39	0x39e19a44	0.0004303028
40	0xb9dbd6e5	-0.00041931044
41	0xba298bac	-0.0006467651
42	0x3829b06e	4.0457053e-05
43	0xba3ba47b	-0.00071579934
44	0x39e66782	0.00043946138
45	0x3a0c860a	0.00053605495
46	0x3a5a8309	0.0008335566
47	0xb813159a	-3.506765e-05
48	0xb972cc89	-0.00023155114
49	0xba224166	-0.00061895547

exp_avg_sq f4 [5, 10]
0	0x30b0550c	1.2829857e-09
1	0x30a33b2c	1.1876629e-09
2	0x327fec8a	1.4896736e-08
3	0x307f3092	9.283748e-10
4	0x3306f11c	3.1418594e-08
5	0x3151f658	3.0553533e-09
6	0x2ab5994e	3.2258435e-13
7	0x2e62c1ce	5.1558584e-11
8	0x2ebe9ba9	8.6678505e-11
9	0x2fdd5826	4.02623e-10
10	0x34038baa	1.2251135e-07
11	0x32dec9fe	2.5936057e-08
12	0x3389bc7d	6.4138455e-08
13	0x31c978e2	5.8636127e-09
14	0x34f314e6	4.5277483e-07
15	0x32aa2f40	1.9812092e-08
16	0x301df88a	5.746946e-10
17	0x3357175a	5.0079827e-08
18	0x317ea4a4	3.7055452e-09
19	0x323bfd70	1.0942458e-08
20	0x30f107d4	1.7537283e-09
21	0x32a6b518	1.9407295e-08
22	0x32da2608	2.5395835e-08
23	0x313eb994	2.7754128e-09
24	0x3201763a	7.53567e-09
25	0x2f091b89	1.246986e-10
26	0x2f0328aa	1.1928827e-10
27	0x3068e75b	8.4729884e-10
28	0x30c69fe6	1.4451842e-09
29	0x2dfe8379	2.8934842e-11
30	0x320d73cf	8.233612e-09
31	0x32f046f8	2.797195e-08
32	0x32dae4d8	2.5482606e-08
33	0x31eb8e93	6.855609e-09
34	0x31184341	2.215714e-09
35	0x328edca4	1.6631311e-08
36	0x31e0a579	6.53807e-09
37	0x3302504c	3.0341013e-08
38	0x3297601a	1.7622416e-08
39	0x3232584b	1.0381039e-08
40	0x322cac13	1.0050843e-08
41	0x32d53d76	2.4824413e-08
42	0x30125721	5.323831e-10
43	0x33420c54	4.5180357e-08
44	0x32c57b1c	2.2989802e-08
45	0x3297c374	1.7667595e-08
46	0x335303d4	4.9130747e-08
47	0x30dc9b64	1.6051271e-09
48	0x32499bba	1.1735148e-08
49	0x3322c281	3.7895465e-08

exp_avg f4 [5]
0	0x2de7ae15	2.6338967e-11
1	0xaf266666	-1.5133991e-10
2	0xaea7d70b	-7.63248e-11
3	0xaef147ae	-1.0972144e-10
4	0xae11eb85	-3.3178366e-11

exp_avg_sq f4 [5]
0	0x1a67a9e3	4.7906914e-23
1	0x1cc71de7	1.3176445e-21
2	0x1bf28293	4.0119923e-22
3	0x1d153e9a	1.975235e-21
4	0x1b878c87	2.242469e-22

exp_avg f4 [5]
0	0xb1770c36	-3.5950172e-09
1	0x34166ecc	1.4010146e-07
2	0x33d11e78	9.737863e-08
3	0x324d0bfc	1.1935295e-08
4	0x34354f83	1.6885865e-07

exp_avg_sq f4 [5]
0	0x234b4e67	1.1021254e-17
1	0x276d513a	3.293439e-15
2	0x262d672e	6.0161267e-16
3	0x2510e761	1.2568403e-16
4	0x270c2490	1.9448724e-15

exp_avg f4 [5]
0	0xb8297c9c	-4.040879e-05
1	0xb9b68462	-0.00034812378
2	0x38b13140	8.449191e-05
3	0xb92b9837	-0.00016364535
4	0x397b5d5a	0.00023972002

exp_avg_sq f4 [5]
0	0x2ed6c3f1	9.7663995e-11
1	0x31e92d54	6.7863457e-09
2	0x2fd8deaf	3.9448397e-10
3	0x30f4193b	1.7760508e-09
4	0x317b2add	3.6549672e-09

exp_avg f4 [5]
0	0xb9e74fde	-0.0004411926
1	0xbae59709	-0.0017516325
2	0x3acc5c5f	0.0015591494
3	0xba9ca21a	-0.0011950165
4	0x3b2696f3	0.0025419563

exp_avg_sq f4 [5]
0	0x3238ac79	1.0749425e-08
1	0x3437756e	1.7085924e-07
2	0x3411a2f4	1.356346e-07
3	0x33a95e64	7.886845e-08
4	0x34bf92b8	3.5683274e-07

exp_avg f4 [5]
0	0xb9da4f76	-0.00041639403
1	0xbaeb6764	-0.001795989
2	0x3aa10c3a	0.0012286969
3	0xba8c0352	-0.0010682142
4	0x3b08a36c	0.002084936

exp_avg_sq f4 [5]
0	0x32247f7b	9.575042e-09
1	0x34404cee	1.790938e-07
2	0x33b4afbc	8.413869e-08
3	0x338782a2	6.310189e-08
4	0x3480e7ed	2.4010606e-07

exp_avg f4 [5]
0	0x386c92d4	5.640353e-05
1	0x3999bbb8	0.00029322295
2	0xb968968a	-0.00022181324
3	0x393ed9f9	0.00018201013
4	0xb9c30f36	-0.0003720463

exp_avg_sq f4 [5]
0	0x2f412b86	1.756871e-10
1	0x31a479de	4.786883e-09
2	0x313cafdd	2.7457567e-09
3	0x30fb751a	1.8295936e-09
4	0x320352fe	7.644074e-09

exp_avg f4 [5]
0	0xb6f8ef7c	-7.4188556e-06
1	0xb75174cf	-1.2484567e-05
2	0x3859572a	5.181801e-05
3	0xb7e21a5e	-2.6953578e-05
4	0x385c7fd7	5.2571148e-05

exp_avg_sq f4 [5]
0	0x2c55fc89	3.0409306e-12
1	0x2d23e1f9	9.315653e-12
2	0x2f248f2c	1.4966578e-10
3	0x2e354d3b	4.122323e-11
4	0x2f27e2f7	1.5269196e-10

exp_avg f4 [3, 5]
0	0xbbb6f21d	-0.0055830614
1	0xbb9e89c8	-0.004838202
2	0xbbd15b8a	-0.006389086
3	0xbb976e96	-0.004621337
4	0xbbb95ade	-0.005656584
5	0xbbaa8560	-0.005203888
6	0xbbb46b72	-0.0055059725
7	0xbbc05d6e	-0.0058705127
8	0xbbcb26c4	-0.0061996896
9	0xbbcbd4a4	-0.006220417
10	0xb6a5d704	-4.9424143e-06
11	0x00000000	0.0
12	0xb999617e	-0.0002925507
13	0xb979cc1e	-0.0002382253
14	0x00000000	0.0

exp_avg_sq f4 [3, 5]
0	0x35e7150a	1.7216964e-06
1	0x35aeda36	1.3027518e-06
2	0x3617e1be	2.2632153e-06
3	0x359e5323	1.1796113e-06
4	0x35ed3f08	1.767622e-06
5	0x35c8c974	1.4959792e-06
6	0x35e22b36	1.6850888e-06
7	0x36001475	1.9085394e-06
8	0x360e72e7	2.122653e-06
9	0x360f6eb9	2.137311e-06
10	0x2c540027	3.0127097e-12
11	0x00000000	0.0
12	0x31bdddaf	5.5258265e-09
13	0x315cc35c	3.2125262e-09
14	0x00000000	0.0

exp_avg f4 [3]
0	0xbd345009	-0.04402164
1	0xbd4645fb	-0.048406582
2	0xb9d0ef82	-0.000398513

exp_avg_sq f4 [3]
0	0x38e10d28	0.000107312866
1	0x3908022b	0.00012970778
2	0x32251e36	9.611133e-09
