lightning_logs/version_87/checkpoints/epoch=0-step=2.ckpt (torch, 28015 bytes, 56 tensors)

layers.0.weight f4 [5]
000000 6d 8b 7f 3f 8e 8b 7f 3f 7e 40 80 3f 93 7b 7f 3f
       0.9982212 0.9982232 1.0019681 0.99797934
000010 6b 3c 80 3f
       1.0018438

layers.0.bias f4 [5]
000000 72 48 7c 38 90 20 e5 35 9b 72 c8 38 ea 2b bb b8
       6.0148952e-05 1.7071307e-06 9.55809e-05 -8.9250345e-05
000010 ec 20 80 38
       6.109648e-05

layers.0.running_mean f4 [5]
000000 64 86 99 41 09 82 99 41 9c 6f 99 41 88 7c 99 41
       19.19062 19.188494 19.179497 19.185806
000010 ac 77 99 41
       19.183434

layers.0.running_var f4 [5]
000000 bc dd 5f 3f d4 fa 5e 3f 4d 4b 5f 3f cd dd 5f 3f
       0.87447715 0.87101483 0.87224275 0.87447816
000010 be 08 61 3f
       0.87903965

layers.1.weight f4 [10, 5]
000000 31 c3 b2 be e3 95 d8 3e 13 21 5e be 32 25 d9 3e
       -0.34914544 0.42301854 -0.21692304 0.4241119
000010 c2 21 df be a4 ca ba be a7 41 89 3e 02 b3 d0 3d
       -0.43580443 -0.36482728 0.268079 0.10190393
000020 9b a1 86 3e c0 6b d6 be cb bf ce 3e f2 89 8a be
       0.2629517 -0.41879082 0.403807 -0.2705837
000030 db 4c 88 be 9c 53 4c be 72 68 ad bd d8 cd dc be
       -0.26621136 -0.1995377 -0.08467187 -0.43125796
000040 f0 c4 c8 be b2 fa dc 3d 20 e9 1a 3e f6 47 59 3e
       -0.3921275 0.10790004 0.15127993 0.21218857
000050 65 89 93 3d 1e 78 2c be 26 11 bc be 03 3e 90 3e
       0.0720394 -0.16842696 -0.36731833 0.2817231
000060 40 31 2c be f3 fe e2 bc c4 44 1a be 42 36 db 3e
       -0.16815662 -0.02770946 -0.15065295 0.42814833
000070 47 d6 85 be bc 45 06 bd d5 9f 3f bd 3d 0b df be
       -0.26140043 -0.032781348 -0.046783287 -0.43563262
000080 58 b3 d8 3e 8c 7f 75 be c6 12 c2 be 7c 35 c1 3e
       0.42324328 -0.23974437 -0.37904948 0.37736118
000090 23 84 c2 3e d7 f9 e3 be 6a 7d d6 3e e0 9a 1f 3e
       0.37991437 -0.4452655 0.41892558 0.15586424
0000a0 a8 64 d5 bd 9f 96 27 be 7b e4 0e bd 40 92 7a be
       -0.10419589 -0.16366051 -0.034885865 -0.24469852
0000b0 31 40 84 3d e7 41 01 3d 59 0c 93 3d b6 4a 1e be
       0.06457556 0.03155699 0.071800895 -0.15458187
0000c0 0f 0f 59 3e a8 b6 88 be
       0.2119715 -0.26701856

layers.1.bias f4 [10]
000000 6d 47 db be 29 ae c9 3d db 75 31 3d 11 5e 77 be
       -0.4282793 0.098476715 0.043325286 -0.24156977
000010 e2 ec 3a be e5 c0 44 3b 59 3b c3 bd dc 78 17 3e
       -0.18254426 0.00300222 -0.09532804 0.14792198
000020 6d 37 51 be 35 20 e4 be
       -0.204313 -0.44555822

layers.2.weight f4 [10]
000000 75 a2 7f 3f dd 7f 7f 3f b7 38 80 3f de 40 80 3f
       0.99857265 0.9980448 1.0017308 1.0019796
000010 9d 7b 7f 3f eb 40 80 3f 60 3e 80 3f d0 34 80 3f
       0.99797994 1.0019811 1.0019035 1.0016117
000020 03 7c 7f 3f df 40 80 3f
       0.997986 1.0019797

layers.2.bias f4 [10]
000000 22 9b e7 ba 16 fc 1c ba a0 36 02 3b 8f ff 00 3b
       -0.0017670135 -0.00059884915 0.0019868985 0.0019683575
000010 c0 2b fe ba 54 23 e8 3a 76 05 01 3b 22 d2 95 3a
       -0.0019391701 0.0017710724 0.0019687093 0.0011430422
000020 a6 23 03 3b 63 20 00 3b
       0.0020010262 0.0019550554

layers.2.running_mean f4 [10]
000000 6a aa a6 bd 3c 3d 99 3c d6 b5 06 3c 65 0c 3c bd
       -0.08137973 0.018705957 0.008222064 -0.045910258
000010 c6 04 0e bd 5a e9 12 3a 3a 53 94 bc 62 30 e6 3c
       -0.03467252 0.000560423 -0.018106092 0.028099243
000020 78 03 1f bd 84 6d ad bd
       -0.038821667 -0.08468154

layers.2.running_var f4 [10]
000000 34 d2 71 3f 02 85 66 3f 37 d7 61 3f af 5b 61 3f
       0.9446137 0.90046704 0.88219017 0.88030523
000010 27 b5 5c 3f 8b e7 5c 3f 21 ab 6d 3f 78 16 70 3f
       0.86213917 0.86290807 0.92839247 0.93784285
000020 e7 2b 54 3f d6 f3 55 3f
       0.8287949 0.8357519

layers.4.weight f4 [5, 10]
000000 8d 83 80 be f7 a9 9f 3e 65 1b 29 be 1c f8 5b be
       -0.25100365 0.3118436 -0.16514356 -0.21481365
000010 14 98 58 3e b2 b8 69 3e d7 b9 89 3e ae 12 0e 3e
       0.21151763 0.22824362 0.26899597 0.13874313
000020 f1 14 ab 3d d6 4d 8d 3e 53 e8 da bd 7e a6 91 3e
       0.08353604 0.27598447 -0.106888436 0.28447336
000030 13 a1 81 3e fa ef 84 3d 1d 92 9f 3c 00 8b 42 3e
       0.25318202 0.064910844 0.019478852 0.18998337
000040 f2 7b 18 be 4e 8c 7e 3e 12 73 30 be ac dc 1f be
       -0.14891031 0.2485821 -0.17231396 -0.15611523
000050 8f e6 97 be 9a 83 5d bc 7d 54 18 be e5 51 96 3e
       -0.2966809 -0.013520146 -0.1487598 0.29359356
000060 4e 81 9e 3e f0 69 fb bd 81 b6 58 3e 8a e6 f9 bd
       0.30958027 -0.12276065 0.2116337 -0.12202175
000070 fe d5 38 3e 2a cc 4d be 0e c9 95 3e bd 2e c0 bd
       0.18050382 -0.20097414 0.29254955 -0.093839146
000080 bb 25 2c 3e 53 cf b4 bd 1e aa 89 3e f8 12 0b be
       0.16811268 -0.088286065 0.26887602 -0.13581455
000090 c5 b1 18 be a7 07 86 be 15 dd af 3d db 16 54 be
       -0.14911564 -0.26177713 0.0858709 -0.20711844
0000a0 0f 84 90 3d ff 24 8f 3e 10 4d 3a be f9 d4 81 be
       0.07056438 0.27957913 -0.1819346 -0.25357798
0000b0 fd 28 de bd 0e ce 55 be 45 88 06 be ce a5 41 3d
       -0.10847662 -0.20879385 -0.1313792 0.047277264
0000c0 6f 90 e1 bc ae b8 2c be
       -0.027534692 -0.16867325

layers.4.bias f4 [5]
000000 12 ae ac bd 72 c0 27 3d a2 23 2e be ff d3 b5 3d
       -0.08431639 0.040955015 -0.1700578 0.08878326
000010 33 d5 0c 3e
       0.13753204

layers.5.weight f4 [5]
000000 be 10 80 3f 3a 0a 80 3f 87 0c 80 3f 1b 8e 7f 3f
       1.0005109 1.0003121 1.0003823 0.9982621
000010 5b 12 80 3f
       1.0005602

layers.5.bias f4 [5]
000000 e5 67 00 3b 04 e8 02 3b b4 0c 01 3b 56 b2 02 bb
       0.0019593176 0.0019974718 0.001969141 -0.0019942722
000010 bb 9c 00 3b
       0.0019624669

layers.5.running_mean f4 [5]
000000 06 3e 52 3d 7b 49 38 3d 50 12 cf bc f8 5c fa 3b
       0.05132868 0.04499195 -0.025277287 0.0076404773
000010 d1 6b d7 bc
       -0.026296528

layers.5.running_var f4 [5]
000000 d1 c5 54 3f e2 ff 50 3f d7 c2 57 3f 2d 5f 52 3f
       0.83114344 0.81640446 0.84281677 0.82176477
000010 e1 1c 55 3f
       0.8324719

layers.7.weight f4 [5]
000000 bb 40 80 3f a4 40 80 3f 0d 40 80 3f e1 82 7f 3f
       1.0019754 1.0019727 1.0019547 0.9980908
000010 c3 40 80 3f
       1.0019764

layers.7.bias f4 [5]
000000 77 47 02 3b 5e 04 03 3b fa 36 02 3b 3b 2f ff ba
       0.0019879022 0.0019991617 0.0019869194 -0.0019469032
000010 e6 e5 02 3b
       0.0019973456

layers.7.running_mean f4 [5]
000000 f4 12 a0 3d 62 99 99 3d 60 a4 95 3d f4 8c 9c 3d
       0.07816115 0.074999586 0.07306743 0.07644072
000010 71 e4 a0 3d
       0.07856072

layers.7.running_var f4 [5]
000000 d4 27 64 3f 4a 8f 60 3f 4b 45 61 3f 13 fc 5f 3f
       0.8912327 0.8771864 0.8799636 0.8749401
000010 c8 9c 5f 3f
       0.87348604

layers.8.rho f4 [5]
000000 c9 22 ad 3f 3e a6 fe 3f 3e c6 d8 3f a2 c9 a6 3f
       1.352624 1.9894483 1.6935499 1.3030283
000010 1f bd c8 3f
       1.5682715

layers.8.gam f4 [5]
000000 94 6f c9 3f b2 b5 a7 3f 73 0c a7 3f 77 e1 fd 3f
       1.5737176 1.3102324 1.3050674 1.9834431
000010 a5 01 fd 3f
       1.9766127

layers.9.weight f4 [3, 5]
000000 31 bb 01 be 1c 91 89 be 89 51 2d bd c5 27 bd 3e
       -0.12669064 -0.26868522 -0.042314086 0.36944404
000010 98 e0 ad bc 70 97 dd 3e a4 9a f2 3d 7c 2b c9 3e
       -0.021225259 0.432796 0.118459016 0.39290988
000020 5d cb bb be 42 9f 97 bc 3e 1b 7b 3e 50 2b cb 3e
       -0.3667859 -0.018508557 0.24522111 0.39681482
000030 8c 73 6f 3c e4 fc c7 be 3a cb cc 3e
       0.014614951 -0.39060128 0.399988

layers.9.bias f4 [3]
000000 02 29 c9 3e ca e1 25 bd c0 be 76 3e
       0.392891 -0.040498532 0.24096203

exp_avg f4 [5]
000000 1c 18 1b 3a b3 fc 32 39 de 99 00 ba af a0 67 39
       0.00059163733 0.0001706954 -0.00049057405 0.00022089736
000010 b4 c3 00 ba
       -0.00049119745

exp_avg_sq f4 [5]
000000 3d 92 10 33 d9 95 41 31 ac 79 6a 32 8a 71 39 31
       3.3660616e-08 2.8170375e-09 1.3648258e-08 2.6985583e-09
000010 af d1 99 32
       1.7906897e-08

exp_avg f4 [5]
000000 0a d7 05 ae 3e 0a 57 ae c2 f5 e0 ae b9 1e a9 2e
       -3.0431692e-11 -4.8894437e-11 -1.0229996e-10 7.690688e-11
000010 71 3d 9a ae
       -7.0140234e-11

exp_avg_sq f4 [5]
000000 6d 28 8c 1b d8 d2 23 1c c9 b1 2f 1c b8 8e dd 1b
       2.3187182e-22 5.4204685e-22 5.8132425e-22 3.6653613e-22
000010 a6 80 ac 1b
       2.853815e-22

exp_avg f4 [10, 5]
000000 d1 8c 97 b9 15 b1 4f ba d4 e1 10 3a 22 35 44 3a
       -0.0002890588 -0.00079228106 0.0005526815 0.0007484724
000010 d0 6f a3 b8 70 a3 43 39 0f 6d 0c 3a 46 3b 27 b9
       -7.7932724e-05 0.00018657534 0.0005356827 -0.00015948442
000020 20 7d 70 b7 93 4f 0e 39 c6 ce 67 39 4a ec b4 b9
       -1.4334248e-05 0.00013571819 0.00022106906 -0.00034508324
000030 9b 03 f2 39 d9 02 9e 39 d6 5d 33 37 79 1e 52 ba
       0.00046160523 0.0003013823 1.0691079e-05 -0.0008015405
000040 1b 82 b0 38 ca 8c 71 ba ec f9 2d ba 87 09 10 ba
       8.416568e-05 -0.00092143996 -0.00066366675 -0.0005494584
000050 a8 07 1e ba 00 49 50 39 d5 b8 82 38 15 01 bc 39
       -0.00060283625 0.0001986362 6.233311e-05 0.0003585896
000060 80 35 ac 37 38 92 87 39 e4 6c 5c b9 a1 c6 82 b7
       2.052891e-05 0.00025858148 -0.000210214 -1.5589701e-05
000070 e0 59 93 37 41 09 e9 39 ba 50 4d 38 f8 46 29 b9
       1.7565617e-05 0.00044448118 4.895099e-05 -0.00016143534
000080 cc 25 27 ba 68 e8 1e ba 2f 1c 16 b9 32 a3 96 39
       -0.00063761766 -0.0006061853 -0.00014315614 0.0002873182
000090 1b fa db 39 75 3d 53 39 96 83 b4 b9 fe d7 70 b9
       0.00041957278 0.00020145423 -0.00034430315 -0.00022968647
0000a0 59 1d 27 ba 2c db 41 39 86 7f 5d ba 84 51 bc 39
       -0.00063749176 0.00018487562 -0.00084494834 0.00035918888
0000b0 07 59 9c 39 9e d3 bf b8 8f e6 b4 3a 07 29 bb ba
       0.0002982097 -9.1470065e-05 0.0013801622 -0.0014279195
0000c0 90 41 83 39 a2 0a b8 3a
       0.00025035115 0.0014041255

exp_avg_sq f4 [10, 5]
000000 95 44 30 32 b4 08 27 33 10 f7 ba 32 a4 b5 38 33
       1.0260142e-08 3.8890633e-08 2.17656e-08 4.300604e-08
000010 e8 df b0 31 e6 56 08 31 e9 8f e7 32 52 2b d7 31
       5.1477294e-09 1.984e-09 2.6957382e-08 6.2622485e-09
000020 e0 a5 90 32 2c 8c 28 31 50 f1 40 32 01 65 e5 31
       1.6839238e-08 2.4526896e-09 1.1230739e-08 6.67626e-09
000030 72 09 c0 32 67 40 23 32 1b d5 8e 2e 2c 9b 25 33
       2.2356037e-08 9.502492e-09 6.4952675e-11 3.8558184e-08
000040 d6 4d 4d 30 a6 68 49 33 39 61 ea 32 c5 b1 f6 32
       7.4689177e-10 4.6894137e-08 2.7285397e-08 2.871901e-08
000050 f0 b8 e8 32 61 b4 34 31 60 ad 71 2f ac bc 9f 32
       2.7092455e-08 2.629598e-09 2.1980417e-10 1.8595834e-08
000060 cc 76 79 32 52 30 e7 31 42 b4 37 32 cc fc e3 2d
       1.4520719e-08 6.728478e-09 1.0692988e-08 2.5919177e-11
000070 98 c4 9c 31 ff bb 44 32 16 cd 34 31 96 df 24 31
       4.5625477e-09 1.1451447e-08 2.6310025e-09 2.3992235e-09
000080 ec 0e c1 32 70 28 cc 32 bd 16 9c 30 99 8c 1f 32
       2.2474943e-08 2.3767114e-08 1.1356956e-09 9.286986e-09
000090 b2 2e 70 32 98 e7 27 31 4b c4 e3 31 59 8b 09 32
       1.3980456e-08 2.4433344e-09 6.6288854e-09 8.0061335e-09
0000a0 b4 5d d8 32 66 2a 20 32 34 fe 29 33 3b 99 02 32
       2.518832e-08 9.322866e-09 3.9579575e-08 7.6018365e-09
0000b0 d2 26 f2 31 3f 99 32 32 c2 a0 2d 34 f9 6d 18 34
       7.0475403e-09 1.0395808e-08 1.6170364e-07 1.4196111e-07
0000c0 5b 83 6e 31 74 a0 0e 34
       3.4708225e-09 1.3283153e-07

exp_avg f4 [10]
000000 ad 47 e1 2c 00 00 c0 ad 66 66 a6 ae b9 1e 95 ae
       6.4028422e-12 -2.1827873e-11 -7.5669956e-11 -6.781193e-11
000010 48 e1 fa 2e 52 b8 1e ae ec 51 58 2e 29 5c 0f ae
       1.1408702e-10 -3.608875e-11 4.9185475e-11 -3.259629e-11
000020 52 b8 1e ae 71 3d 0a af
       -3.608875e-11 -1.2572855e-10

exp_avg_sq f4 [10]
000000 a7 ce a3 19 c8 07 2d 1b fc 5c ed 1b 8a 96 b4 1b
       1.6937271e-23 1.4312739e-22 3.926845e-22 2.9875786e-22
000010 7d 41 8b 1c 12 ec d8 1c 60 95 83 1b 7d b5 a3 1a
       9.215177e-22 1.4354704e-21 2.1768663e-22 6.770843e-23
000020 7d 41 8b 1b fc 4e 13 1d
       2.3037942e-22 1.9496122e-21

exp_avg f4 [10]
000000 94 04 1d 38 1a 99 96 39 8a ad 5e b9 ee f1 d9 b9
       3.743598e-05 0.000287243 -0.00021236218 -0.00041569717
000010 40 6a 92 3a 17 18 25 b9 22 6d 87 b9 8d a1 3c b9
       0.0011170581 -0.000157446 -0.00025830517 -0.0001798926
000020 34 e1 4c 38 e8 f5 8a b9
       4.8847127e-05 -0.00026504626

exp_avg_sq f4 [10]
000000 fc 8b 00 30 12 7d b3 31 ac 34 98 31 5b 85 24 32
       4.676506e-10 5.2238045e-09 4.4297703e-09 9.576378e-09
000010 76 5e 94 33 02 2e bc 30 d3 cf 94 31 ef 4f 9a 31
       6.9089694e-08 1.3691877e-09 4.330994e-09 4.4910773e-09
000020 73 07 13 2f b0 ba 85 31
       1.3372219e-10 3.8920334e-09

exp_avg f4 [10]
000000 57 13 a1 38 ea ca 05 b9 cd a9 ee b8 e3 5e 9e b9
       7.6806806e-05 -0.0001275946 -0.00011380352 -0.00030206805
000010 36 97 d1 39 97 26 9f b8 a0 d4 31 b9 d8 24 ea b7
       0.00039976247 -7.588899e-05 -0.00016959244 -2.791213e-05
000020 14 91 8b b8 5a 33 a4 b9
       -6.6550594e-05 -0.00031318777

exp_avg_sq f4 [10]
000000 22 78 18 30 69 81 c0 31 3f 62 4a 30 08 21 b9 31
       5.5467997e-10 5.6026477e-09 7.362679e-10 5.387964e-09
000010 f6 5a 2c 32 9c 6c 13 30 0f 3f e9 30 f4 d9 10 31
       1.00324e-08 5.363263e-10 1.6970904e-09 2.107865e-09
000020 78 88 86 2f 13 97 cc 31
       2.4471425e-10 5.9543566e-09

exp_avg f4 [5, 10]
000000 cf cc 13 3a 0a 01 11 b9 88 b2 2b 39 80 73 16 b9
       0.0005638124 -0.00013828665 0.00016374339 -0.00014348142
000010 83 81 a8 3a 4f a6 5a ba b4 a4 a3 ba 94 98 a4 3a
       0.001285598 -0.0008340822 -0.0012484998 0.0012557679
000020 ce 9d 5c b9 64 9b 7f 3a c3 8e 03 b9 0c 72 aa 37
       -0.00021039622 0.0009750633 -0.00012546316 2.0318686e-05
000030 68 c0 70 3a 88 37 59 ba d0 55 c4 38 95 96 86 b8
       0.0009183944 -0.0008286168 9.361992e-05 -6.417666e-05
000040 1a 87 b4 38 bc 92 0a ba 8e bc 90 39 c0 00 8c b6
       8.6082335e-05 -0.00052861474 0.00027606305 -4.1724124e-06
000050 b8 08 d5 38 ca 84 32 b9 ac de 96 3a 9c 45 84 ba
       0.000101582555 -0.0001702487 0.0011510453 -0.0010091546
000060 82 a3 8e 3a 3c d9 01 ba 7d 98 43 39 e0 01 0e 38
       0.0010882469 -0.000495333 0.00018653455 3.3857184e-05
000070 a4 bb 75 3a 64 ed 15 3a 3e 9c e3 39 ef 18 65 39
       0.0009373969 0.0005719273 0.00043413223 0.0002184843
000080 8c c3 60 ba 03 fe ba 3a f3 71 03 3b 9e 04 1e ba
       -0.00085740606 0.0014266375 0.0020056933 -0.00060279097
000090 58 e8 f3 b9 cb f2 3f 3a 3a c6 23 ba aa 47 ba 3a
       -0.0004652168 0.0007322251 -0.00062474946 0.0014212031
0000a0 8a 48 73 3a 1f 8e 9f 3a 7a fa 1a 3a 81 12 ce b8
       0.00092805235 0.0012173093 0.00059119577 -9.826292e-05
0000b0 1c 75 c4 39 e4 33 fe 39 76 2a 2d 39 4c cf 2e ba
       0.00037471286 0.00048485317 0.00016514384 -0.0006668463
0000c0 09 b2 24 39 e2 26 4c 3a
       0.00015706582 0.00077877764

exp_avg_sq f4 [5, 10]
000000 26 16 9e 32 eb 46 dd 31 b0 fa ff 30 20 92 8c 32
       1.8403693e-08 6.440009e-09 1.8624942e-09 1.6364595e-08
000010 a7 c7 c4 33 17 9a 28 33 18 c8 c7 33 22 e1 c3 33
       9.163278e-08 3.9255692e-08 9.3030565e-08 9.1213465e-08
000020 6b 4b 16 32 67 ce 61 33 45 59 f3 30 8c 27 1a 30
       8.748297e-09 5.2574617e-08 1.7705949e-09 5.6081073e-10
000030 6c 2c 87 33 f4 5c 42 33 4c ee a0 32 40 b5 7b 2f
       6.294508e-08 4.5253685e-08 1.8734816e-08 2.289271e-10
000040 40 98 39 30 b3 7e 87 32 8f cf dd 31 4a 9f ae 31
       6.751897e-10 1.5773685e-08 6.455543e-09 5.0821756e-09
000050 1e c1 0e 31 94 c8 5e 31 de 5a 9d 33 3d 57 81 33
       2.0773494e-09 3.2419267e-09 7.327411e-08 6.022899e-08
000060 92 81 8d 33 c4 e4 6f 32 70 aa 08 31 b2 9d e6 30
       6.589393e-08 1.3963646e-08 1.9887487e-09 1.6779522e-09
000070 27 e8 58 33 a0 8a 9b 32 65 e2 0f 33 9e fe 5d 32
       5.050256e-08 1.8107414e-08 3.3500687e-08 1.2921786e-08
000080 62 db 46 33 c2 39 0e 34 d6 2c 6f 34 39 95 b4 32
       4.6299995e-08 1.3245793e-07 2.2274921e-07 2.1022617e-08
000090 2a df 5d 32 fb f6 6a 33 5d 4a 0a 33 d8 da 00 34
       1.2914635e-08 5.4706998e-08 3.2198262e-08 1.2000544e-07
0000a0 a3 56 54 33 14 c2 b0 33 aa 0b a6 32 2b d5 5d 30
       4.9438892e-08 8.230941e-08 1.9330248e-08 8.070226e-10
0000b0 45 15 3e 32 a5 96 77 32 27 9e 74 31 dd 65 e0 32
       1.1064292e-08 1.4411545e-08 3.5596572e-09 2.6123354e-08
0000c0 4d a1 46 31 e9 c9 25 33
       2.890448e-09 3.8600692e-08

exp_avg f4 [5]
000000 50 b8 4e ae a5 70 cd ae c2 f5 08 af 48 e1 3a ae
       -4.700268e-11 -9.3423304e-11 -1.2456439e-10 -4.2491594e-11
000010 0a d7 a3 ad
       -1.8626451e-11

exp_avg_sq f4 [5]
000000 2d 01 08 1e 26 07 54 1c f3 ad d7 1c 0e ff a7 1d
       7.200023e-21 7.0154155e-22 1.4272471e-21 4.4468252e-21
000010 7d b5 a3 1b
       2.7083372e-22

exp_avg f4 [5]
000000 3f 52 84 33 1f 1b 5c 33 48 50 dc 33 0b de 2e 34
       6.1616895e-08 5.1247408e-08 1.02591514e-07 1.6285792e-07
000010 ca 20 2d 33
       4.0309523e-08

exp_avg_sq f4 [5]
000000 54 41 96 26 91 d4 e5 25 50 6b 00 27 91 42 26 27
       1.0426048e-15 3.9869208e-16 1.7821743e-15 2.3073213e-15
000010 fa 05 25 26
       5.7253974e-16

exp_avg f4 [5]
000000 ee 01 a3 b9 c6 4d 00 b9 fa 77 68 b9 5f e5 9b 39
       -0.0003109122 -0.00012236004 -0.00022169939 0.000297348
000010 15 f3 81 b9
       -0.00024785908

exp_avg_sq f4 [5]
000000 a8 d7 c7 31 bf 06 65 30 79 1e 47 31 c1 28 aa 31
       5.8161795e-09 8.33193e-10 2.8975633e-09 4.9522844e-09
000010 78 59 7c 31
       3.6721683e-09

exp_avg f4 [5]
000000 86 ce 2f bb 1a c3 48 ba ea 9e e6 ba 8e 33 11 3a
       -0.0026825978 -0.0007658467 -0.0017594968 0.0005538993
000010 e1 7c 05 bb
       -0.0020368623

exp_avg_sq f4 [5]
000000 b6 ec d7 34 2e 94 0d 33 cf c8 41 34 64 95 b8 32
       4.02191e-07 3.296389e-08 1.804758e-07 2.1488354e-08
000010 0e 84 78 34
       2.3144841e-07

exp_avg f4 [5]
000000 c4 d5 07 bb b7 a8 2d ba f5 e4 b5 ba bf 7a 3c 3a
       -0.002072678 -0.0006624567 -0.0013877439 0.00071899215
000010 06 f4 e4 ba
       -0.0017467744

exp_avg_sq f4 [5]
000000 ae db 82 34 0c 16 d1 32 58 1d eb 33 ce 1d 09 33
       2.4374225e-07 2.4340828e-08 1.0948378e-07 3.1924905e-08
000010 42 61 36 34
       1.6985453e-07

exp_avg f4 [5]
000000 ac aa df 39 e0 0c cf 38 53 0b 84 39 a8 13 b6 b8
       0.00042661035 9.872927e-05 0.0002518544 -8.6820975e-05
000010 15 3e 96 39
       0.00028656484

exp_avg_sq f4 [5]
000000 ae b4 2e 32 6c 8b 16 30 0e fe 7d 31 86 47 11 30
       1.0169215e-08 5.476781e-10 3.696076e-09 5.2852334e-10
000010 a4 5f 9d 31
       4.5801745e-09

exp_avg f4 [5]
000000 9a f4 c4 b8 e0 63 df b7 18 5c 94 b8 02 b6 41 b7
       -9.391569e-05 -2.663018e-05 -7.074344e-05 -1.1546073e-05
000010 04 6c 1f b8
       -3.800915e-05

exp_avg_sq f4 [5]
000000 00 f3 05 30 e5 61 3a 2e d8 39 aa 2f 6c 85 19 2d
       4.873044e-10 4.237845e-11 3.096392e-10 8.726669e-12
000010 7c b1 b1 2e
       8.080556e-11

exp_avg f4 [3, 5]
000000 cb e9 c0 bb 0e 19 9e bb 30 86 a3 bb 10 ad 9e bb
       -0.0058872453 -0.004824764 -0.0049903616 -0.004842408
000010 64 4f be bb 38 4c ae bb 88 fc 82 bb c2 54 a0 bb
       -0.005807804 -0.0053191446 -0.003997389 -0.0048929164
000020 95 11 4a ba 80 84 fb ba d7 57 ae bb 08 56 80 bb
       -0.00077083084 -0.0019189268 -0.00532053 -0.0039165057
000030 12 55 9a bb 9c 77 83 bb 31 82 a2 bb
       -0.004709848 -0.0040120613 -0.0049593677

exp_avg_sq f4 [3, 5]
000000 f0 9d 00 36 93 a0 ae 35 1e 5e bc 35 0e d3 ad 35
       1.9165418e-06 1.3010743e-06 1.4034483e-06 1.2950929e-06
000010 38 26 fb 35 7a dd d2 35 a6 39 77 35 cc 6a b6 35
       1.871208e-06 1.5710677e-06 9.209856e-07 1.3591139e-06
000020 af 29 72 33 49 c3 5d 34 35 85 d2 35 e4 23 66 35
       5.6382927e-08 2.0653273e-07 1.5684988e-06 8.5733905e-07
000030 52 4e a7 35 90 a9 6e 35 a3 7b b7 35
       1.2465264e-06 8.8908655e-07 1.3670546e-06

exp_avg f4 [3]
000000 b4 92 37 bd 96 e8 b4 bc fc fb 33 bd
       -0.04481764 -0.022083562 -0.043941483

exp_avg_sq f4 [3]
000000 00 5b e9 38 d4 9d e6 37 d4 4d e0 38
       0.00011127256 2.7491631e-05 0.00010695649
