lightning_logs/version_20/checkpoints/epoch=0-step=2.ckpt (torch, 28015 bytes, 56 tensors)

layers.0.weight f4 [5]
00000000: 8f7b 7f3f 593f 803f 8dcc 7f3f 2c1d 803f
00000010: 443d 803f
0.9979791 1.0019332 0.99921495 1.0008903 1.0018697

layers.0.bias f4 [5]
00000000: 5330 c538 3bb3 0f39 3ff7 3538 f01d f5b8
00000010: 5593 27b8
9.402693e-05 0.00013704311 4.338403e-05 -0.00011688087 -3.9953116e-05

layers.0.running_mean f4 [5]
00000000: 997e 9941 d86b 9941 1a83 9941 e680 9941
00000010: c27d 9941
19.186815 19.177658 19.189014 19.187939 19.186405

layers.0.running_var f4 [5]
00000000: 7dcf 5f3f ca49 5f3f 1df7 5f3f f5bf 5f3f
00000010: c57c 5f3f
0.87425977 0.8722197 0.8748644 0.8740228 0.8729976

layers.1.weight f4 [10, 5]
00000000: b451 8c3e 1d9f 3e3e cb2a 90be 4050 093e
00000010: 55a5 f83d bac9 963e 2a49 af3e 93a5 d4bd
00000020: ca6b 01be 2bc8 7a3d 84aa b1be 079c f4bc
00000030: 9fab 86be 06dc c73d 7684 afbd 1013 c23c
00000040: 883a 53bd 74ad 4c3e 25ed c7bd 465b d93d
00000050: b693 72be d11e b33e 1ca0 7c3e 448c 9abe
00000060: a56e 4a3e a3a7 8dbe c8f5 36be fae0 2abe
00000070: 1c75 9fbe 673a b3be 2af3 bc3e a24b 053e
00000080: 107f 323d 0e73 a9be fbf2 003e 8a6e d5be
00000090: c121 97bd 0f14 8ebd 2fed bcbe b478 82bd
000000a0: 7ae8 51be b727 1b3e 4d9c 2f3e e936 e5bd
000000b0: 49ec e3be 63dd d23e a6f4 e93d de22 d9be
000000c0: 0e23 203e 76d2 a7be
0.27406085 0.18615384 -0.28157648 0.13409519 0.121409096 0.2945078 0.34235507 -0.10383143
-0.12638775 0.06122605 -0.34700406 -0.029859556 -0.26302812 0.09758763 -0.08570187 0.02369073
-0.05156949 0.19988042 -0.097620286 0.10613112 -0.2368916 0.3498445 0.24670452 -0.3018514
0.1976877 -0.2766696 -0.17867196 -0.16687384 -0.31144035 -0.35005495 0.3690427 0.13017133
0.043578207 -0.33095592 0.1259269 -0.41685897 -0.07379485 -0.069374196 -0.36899707 -0.063706785
-0.20498839 0.15151869 0.17149468 -0.11192114 -0.4451621 0.4118453 0.11423616 -0.42409414
0.15638372 -0.32777756

layers.1.bias f4 [10]
00000000: f16d c0bd 2ac3 46bd 05bf 633e f78b 8fbe
00000010: 6da9 c43d ffc8 2cbe b0ed 853e 17d6 08bb
00000020: 1b58 aebe 34a3 333e
-0.0939597 -0.048525967 0.22240837 -0.28036472 0.09602628 -0.16873549 0.26157904 -0.002087956
-0.34051594 0.17542726

layers.2.weight f4 [10]
00000000: 8d3f 803f e640 803f 9b39 803f 0bcd 7f3f
00000010: f27b 7f3f be11 803f f47b 7f3f 2c08 803f
00000020: 8040 803f 757d 7f3f
1.0019394 1.0019805 1.001758 0.99922246 0.997985 1.0005414 0.9979851 1.0002494
1.0019684 0.9980081

layers.2.bias f4 [10]
00000000: 421e 64ba ecd7 a33a 9e65 023b 4a95 b5ba
00000010: 6fac d63a 123b 9a3a fa83 f4b9 b44e 593a
00000020: 5b86 023b 7c9c e8ba
-0.00087020185 0.0012500263 0.0019896994 -0.0013853696 0.0016378294 0.0011766872 -0.00046637637 0.0008289621
0.0019916508 -0.0017746831

layers.2.running_mean f4 [10]
00000000: 434f 92bc faca 16bc 251b 2d3d 123d 5abd
00000010: ca46 953c eb48 03bd 7686 4b3d 42ca ceb9
00000020: c987 84bd e98b 083d
-0.01786006 -0.009203667 0.042262215 -0.053280897 0.018222231 -0.032051962 0.04968878 -0.00039442076
-0.064712115 0.033336554

layers.2.running_var f4 [10]
00000000: ee78 5a3f e50e 5a3f 04b6 583f 483b 523f
00000010: f65b 633f a4ea 613f 6938 5c3f f0a3 5f3f
00000020: eea8 5f3f 674f 673f
0.85340774 0.8517898 0.84652734 0.82121706 0.88812196 0.8824866 0.86023575 0.87359524
0.8736714 0.90355533

layers.4.weight f4 [5, 10]
00000000: baaa 2dbe 2b79 6fbe 8d7d 16be 452f 93be
00000010: 99ea 823e 3adb 7dbe fa0b 3d3d f30f 413e
00000020: 2583 1abd 1401 183d 89d4 2a3e 9075 5ebc
00000030: 3aef 903e 398e 91be 2282 d33c ef2b 1e3e
00000040: e9d1 09bd c64e 4c3d 03f2 773d 9d77 84be
00000050: a6f8 5fbe c801 63bd 4093 4bbd f263 83bd
00000060: 4e65 063d d804 1bbe 2908 c3bd 47bd ebbc
00000070: 3921 80be eb95 13be f351 f03c ed4e 9c3e
00000080: c8cd 0e3e a565 dabd c133 60be f545 b03d
00000090: 930c 97be b99a 2cbd c670 473e c8ca 33bd
000000a0: 985e 223e f499 903e 94a2 7dbd 0f66 993e
000000b0: 4008 683e 8ec0 403e dde7 57be dd48 ba3d
000000c0: 8d09 9a3e 2ec9 1a3c
-0.16959658 -0.23386066 -0.14696331 -0.28747 0.2556961 -0.2479066 0.046154 0.1885374
-0.037722725 0.037110403 0.16682638 -0.013577834 0.28307515 -0.2842882 0.025818888 0.15446447
-0.03364745 0.04987981 0.060533535 -0.25872508 -0.21872196 -0.05542162 -0.049700975 -0.064155474
0.032811455 -0.15138566 -0.09523041 -0.028776778 -0.25025347 -0.14412658 0.029335951 0.30528966
0.13945687 -0.106639184 -0.21894743 0.08607093 -0.2950178 -0.042139743 0.19476613 -0.04389456
0.15856397 0.28242457 -0.061922625 0.29960677 0.22659397 0.18823454 -0.21084543 0.09095929
0.30085412 0.009447379

layers.4.bias f4 [5]
00000000: c75c edbd 2056 793d 8196 46be dbda bf3d
00000010: 44df c7bd
-0.115899615 0.06087315 -0.1939335 0.09367915 -0.097593814

layers.5.weight f4 [5]
00000000: 67a4 7f3f 200b 803f a982 7f3f eb21 803f
00000010: 9b08 803f
0.99860233 1.0003395 0.99808747 1.0010351 1.0002626

layers.5.bias f4 [5]
00000000: a0f2 02bb 8d97 013b 6e1b 03bb dd68 013b
00000010: db7b 023b
-0.0019981042 0.001977417 -0.0020005363 0.0019746341 0.001991025

layers.5.running_mean f4 [5]
00000000: 6896 8dbd c8c5 c53c c147 efbd 70d9 b93c
00000010: a1a1 a53d
-0.06913453 0.024142161 -0.11683608 0.02268669 0.08087469

layers.5.running_var f4 [5]
00000000: 547e 513f 2320 553f 31ff 513f dcb6 533f
00000010: 0483 553f
0.81833386 0.8325216 0.82030016 0.82700896 0.8340304

layers.7.weight f4 [5]
00000000: 917c 7f3f 1c40 803f e37b 7f3f ea40 803f
00000010: ec40 803f
0.9979945 1.0019565 0.9979841 1.001981 1.0019813

layers.7.bias f4 [5]
00000000: f096 02bb 247b 023b a2b3 02bb ac1e 033b
00000010: 7a12 033b
-0.0019926392 0.0019909823 -0.0019943495 0.0020007296 0.0020000027

layers.7.running_mean f4 [5]
00000000: 042d 973d 8c3a 9e3d 3c40 a03d 809f 943d
00000010: 1037 a03d
0.07381633 0.07726011 0.07824752 0.07256985 0.07823002

layers.7.running_var f4 [5]
00000000: 726a 613f 699b 623f 35d2 5c3f 2ab9 5b3f
00000010: d6cc 643f
0.8805305 0.8851839 0.8625825 0.8582941 0.89375055

layers.8.rho f4 [5]
00000000: fc22 c43f 8927 ab3f 3c5e 8c3f f4a3 e83f
00000010: f64c 903f
1.5323176 1.337144 1.0966258 1.8175035 1.1273487

layers.8.gam f4 [5]
00000000: abf0 973f ae33 d33f 78ad a63f 46da f33f
00000010: 6230 dc3f
1.1870321 1.6500146 1.3021688 1.9050987 1.7202265

layers.9.weight f4 [3, 5]
00000000: 966a c2bc 1719 203e a32e 97be 5d5e 113e
00000010: 2d9e b53e 57c7 04bd 83af 7e3e bb0d cdbe
00000020: 5842 0b3e 1536 e13e 7199 233e 720c bb3e
00000030: 63b2 64be 3bc9 dabe 74e3 8dbe
-0.023732465 0.15634571 -0.29527768 0.14196153 0.3547224 -0.032416668 0.2487164 -0.40049538
0.13599527 0.43986574 0.15976502 0.36532933 -0.22333674 -0.42731652 -0.27712595

layers.9.bias f4 [3]
00000000: b1dc a33e 6cf3 15bd 97cd 8dbe
0.32004312 -0.0366091 -0.27695915

exp_avg f4 [5]
00000000: 4c07 923a a109 1fba fe9b 57b8 c80c e437
00000010: 28e0 fcb9
0.0011141091 -0.00060668035 -5.1405274e-05 2.718567e-05 -0.00048232195

exp_avg_sq f4 [5]
00000000: 2d57 9333 54af c032 9f2a 3631 8656 ae31
00000010: 01d0 8b32
6.861078e-08 2.2431472e-08 2.6508713e-09 5.073903e-09 1.6276319e-08

exp_avg f4 [5]
00000000: 6666 8eae 16ae 8fae 713d 8aae 2a5c db2e
00000010: 7a14 aead
-6.475602e-11 -6.533811e-11 -6.2864276e-11 9.9753386e-11 -1.9790603e-11

exp_avg_sq f4 [5]
00000000: 927e 021c 7ed4 ea1c 6312 ae1b f085 411c
00000010: fb48 5a1c
4.317698e-22 1.5539749e-21 2.8797767e-22 6.4031453e-22 7.2224474e-22

exp_avg f4 [10, 5]
00000000: 12ca 2a3a 227e 92ba 32fd e8b8 d88f df38
00000010: ac16 27b9 d059 29ba 7094 7238 5c1b 6cba
00000020: 43df 62b9 7eb4 443a 5277 40b8 94ef 2f39
00000030: 04f1 66b9 9695 52ba 9a37 b7b8 adb9 84bb
00000040: 5e44 80ba 182a 95b9 dc03 aeba c72a b7b9
00000050: e89e 9fba ceb2 84ba 000b d536 93d0 2539
00000060: 22c5 0d3a 433b 0fba cb45 ec39 b67f 6439
00000070: 18a1 dab9 56a2 f939 ad0a 853a 615c 023a
00000080: 9cc9 1dba c85f 3a3a e8b1 bfba 6908 4bb9
00000090: 403b afb6 6ee3 6839 da58 0639 6caf a339
000000a0: 46fa 8cba 6f97 0dba bae4 ddb9 f00e 13ba
000000b0: 3c25 9c39 9c57 4239 de8c 3cb9 7ea8 a338
000000c0: 3d46 dc39 c811 9039
0.0006515096 -0.0011176507 -0.000111097834 0.000106602616 -0.00015934807 -0.00064602215 5.783554e-05 -0.00090067624
-0.00021636211 0.0007503702 -4.5887493e-05 0.0001677855 -0.00022024295 -0.00080331543 -8.7364766e-05 -0.0040504546
-0.0009786 -0.00028450857 -0.0013276297 -0.00034936352 -0.0012178095 -0.0010124089 6.3491752e-06 0.00015813326
0.0005408098 -0.0005463848 0.00045065428 0.0002179135 -0.00041700224 0.0004761393 0.0010150276 0.0004972872
-0.0006019117 0.00071096094 -0.0014625164 -0.00019362722 -5.222304e-06 0.00022209968 0.00012812336 0.00031220482
-0.001075574 -0.00054012885 -0.0004232282 -0.0005609831 0.0002978238 0.00018533919 -0.00017981554 7.80383e-05
0.00042014002 0.00027479068

exp_avg_sq f4 [10, 5]
00000000: 2b57 e832 4c7e 9433 c87d 1432 a7cc a031
00000010: 569f e332 7cd3 f732 4acc d631 2373 5933
00000020: 109a e231 5b5e 1733 4049 0a2f ca06 3c32
00000030: 3d8d 8b31 6489 2033 eed2 8a30 edc4 7435
00000040: dfc5 b333 8fe6 9e31 3268 fc33 a38d 5b32
00000050: e582 b233 8654 9b33 c7e3 4233 9d93 1832
00000060: 9daa 0933 1701 eb32 2011 7132 8a81 3f32
00000070: 74c1 4c32 d5a9 8632 847f 7433 eeaa e432
00000080: d332 b032 5d79 f332 10c4 0234 f162 4631
00000090: e35f 1131 811f 4c32 2605 ce30 fdf3 b831
000000a0: 5fe4 8c33 8c1d a632 f59f 3e33 e747 ce32
000000b0: 7322 ae31 10b5 1531 4e92 f830 9bde ed2f
000000c0: 8cf1 2732 fb82 9131
2.7047994e-08 6.91476e-08 8.643333e-09 4.679879e-09 2.6498736e-08 2.8850756e-08 6.2514447e-09 5.0628966e-08
6.5949806e-09 3.5243243e-08 1.257705e-10 1.0944584e-08 4.0614894e-09 3.737786e-08 1.0100771e-09 9.118365e-07
8.3713296e-08 4.6246167e-09 1.17536175e-07 1.2779682e-08 8.3125805e-08 7.233125e-08 4.5376307e-08 8.881128e-09
3.205297e-08 2.7358096e-08 1.403194e-08 1.1147117e-08 1.1918349e-08 1.5676884e-08 5.6926652e-08 2.6620423e-08
2.0512209e-08 2.8344113e-08 1.217852e-07 2.8869034e-09 2.1154782e-09 1.1881526e-08 1.4989936e-09 5.382843e-09
6.5607985e-08 1.933838e-08 4.4383302e-08 2.4014254e-08 5.067983e-09 2.1785276e-09 1.8085957e-09 4.326822e-10
9.775601e-09 4.234946e-09

exp_avg f4 [10]
00000000: c3f5 80ae 15ae c72e 48e1 7a2e c8cc 4cad
00000010: f628 5caf ec51 482e 2a5c cfae e17a 942d
00000020: 2a5c cfae 0000 0000
-5.864422e-11 9.0803955e-11 5.704351e-11 -1.1641528e-11 -2.0023436e-10 4.5547496e-11 -9.429642e-11 1.6880221e-11
-9.429642e-11 0.0

exp_avg_sq f4 [10]
00000000: 30f9 7b1b d8d2 231c 7d41 8b1b 68d5 271d
00000010: d8de 271d 2e72 0b1b deb8 a51c a7ce a319
00000020: deb8 a51c 0000 0000
2.084275e-22 5.4204685e-22 2.3037942e-22 2.2212594e-21 2.2217473e-21 1.1534704e-22 1.0966571e-21 1.6937271e-23
1.0966571e-21 0.0

exp_avg f4 [10]
00000000: 92f8 38b8 5cb0 3cba 8ccc 73b8 12a8 19b9
00000010: 209d c039 6651 3739 37ef c439 79f7 4639
00000020: 1783 8eb9 6a4b 0b39
-4.4100518e-05 -0.00071979105 -5.8126214e-05 -0.00014653828 0.0003673816 0.00017482563 0.00037562262 0.00018974942
-0.0002718202 0.00013284167

exp_avg_sq f4 [10]
00000000: 4c9d 002f 5a2b f632 5add a92f 7ab9 ad32
00000010: 3fb2 0132 1a30 1732 569e 0732 4a6f 8031
00000020: c9e3 8f31 222b 8e30
1.1697415e-10 2.8657883e-08 3.08982e-10 2.0224196e-08 7.549317e-09 8.800294e-09 7.894036e-09 3.7379424e-09
4.187744e-09 1.0344119e-09

exp_avg f4 [10]
00000000: 3003 8db7 2c06 34b8 dacc 5bb9 46db 0339
00000010: a7a6 1cb9 aad6 8cb8 a80a e8b8 ec84 8137
00000020: 21cd adb9 b492 9b38
-1.6809994e-05 -4.2921092e-05 -0.0002096178 0.00012574819 -0.00014939402 -6.7157045e-05 -0.00011064607 1.5439895e-05
-0.00033149964 7.4183015e-05

exp_avg_sq f4 [10]
00000000: 0564 7f30 0c3d e030 a6b0 2a31 e290 ca31
00000010: 7dbe 5031 6969 0932 8e9e 2331 7629 f82f
00000020: 6a9c d431 6775 0b30
9.2910596e-10 1.6315496e-09 2.483867e-09 5.895445e-09 3.0376264e-09 7.998417e-09 2.380975e-09 4.5140397e-10
6.1877943e-09 5.0734744e-10

exp_avg f4 [5, 10]
00000000: d13f 91b8 895a a4b8 a6f0 0db9 0ebe b138
00000010: 6e20 ecb7 5c31 fab8 bc4d c8b8 0783 4db9
00000020: b858 2339 14f8 80b8 d860 f9b9 2234 9639
00000030: 7b76 abb8 188b b139 997b 5039 25d0 2e3a
00000040: a888 ca39 8872 5e3a 52ab 8637 e8a9 72b9
00000050: ba0e adb9 60bb d3b7 f63b 523a b373 e03a
00000060: 1471 473b 6004 e538 1fee 0f3a 5680 c53a
00000070: 56a5 9538 fc30 2bba 911f 8e39 445c 9839
00000080: 1a26 7839 6568 9138 a4bf 9739 ea25 4fb9
00000090: 3c85 fe37 c690 02b9 b974 11b9 a38e a039
000000a0: 9680 c1b9 758e 40bb 2f80 583a 069b 9b39
000000b0: 867d bc3a 3b6f ce39 bbf1 0bbb 64a1 1b3b
000000c0: 3a6b 43ba d45c 6aba
-6.9260255e-05 -7.836993e-05 -0.00013536456 8.475418e-05 -2.8148494e-05 -0.00011930123 -9.551222e-05 -0.00019599135
0.00015577942 -6.149724e-05 -0.00047565135 0.00028649071 -8.175984e-05 0.00033863704 0.0001988247 0.0006668589
0.0003863026 0.00084856944 1.6053822e-05 -0.00023142213 -0.00033008103 -2.5240413e-05 0.0008019799 0.0017124325
0.003043239 0.00010920386 0.00054905 0.0015068154 7.13567e-05 -0.00065304316 0.0002710787 0.00029060442
0.00023665317 6.933584e-05 0.00028943748 -0.00019755182 3.0341202e-05 -0.00012451698 -0.0001387176 0.0003062385
-0.00036907633 -0.0029381786 0.0008258847 0.00029679405 0.0014380671 0.00039374255 -0.00213538 0.002374732
-0.00074546377 -0.0008940224

exp_avg_sq f4 [5, 10]
00000000: ff76 a42f 31b6 c62f dc8a 2831 fc74 0330
00000010: 48ef 902e 18f7 b430 825b 1630 dd47 4d31
00000020: 3043 e430 3662 922f 4a62 7832 9c32 9c31
00000030: 6ab6 f02f 1af0 f331 2685 1e31 bcf6 1433
00000040: 8761 1a32 099e 3e33 6660 3530 4e8f 4d31
00000050: e730 d131 0ca3 4832 077f 9e34 93b9 c334
00000060: b11c 1235 24a3 8c33 ccc0 8633 a0ab 2d34
00000070: 2e30 3332 75c7 e532 bcf9 2d32 e906 2032
00000080: 9bc5 8331 a5c7 9a2f 8708 da31 a447 1e32
00000090: d81b d630 4c73 9932 d938 4e32 e8a8 f831
000000a0: 9031 0732 2c3c 0035 9765 8533 02b4 0434
000000b0: a8a5 f633 b5a0 8433 bb99 8d34 8ccc c734
000000c0: 8491 4233 56dc 4833
2.9915978e-10 3.6145445e-10 2.452615e-09 4.7823767e-10 6.590867e-11 1.3166952e-09 5.469972e-10 2.9872276e-09
1.6608279e-09 2.6627028e-10 1.4457848e-08 4.545951e-09 4.378536e-10 7.099527e-09 2.3067712e-09 3.468334e-08
8.986155e-09 4.4381554e-08 6.5984407e-10 2.9912886e-09 6.08826e-09 1.1678605e-08 2.9522218e-07 3.6456603e-07
5.443099e-07 6.548933e-08 6.274931e-08 1.6174317e-07 1.0430126e-08 2.6749811e-08 1.0126708e-08 9.314797e-09
3.835067e-09 2.8154293e-10 6.3456045e-09 9.2131e-09 1.5578463e-09 1.7863975e-08 1.2003704e-08 7.2369524e-09
7.869303e-09 4.777128e-07 6.211774e-08 1.2358944e-07 1.14854004e-07 6.1759614e-08 2.637515e-07 3.7215466e-07
4.530149e-08 4.6766523e-08

exp_avg f4 [5]
00000000: cdcc ac2c 0000 0000 ae47 81ae 5c8f 02ae
00000010: cdcc ccaf
4.9112715e-12 0.0 -5.878974e-11 -2.9685907e-11 -3.7252904e-10

exp_avg_sq f4 [5]
00000000: ae69 8a19 0000 0000 ec6b 8d1c 0e17 b11c
00000010: 6f12 831e
1.431155e-23 0.0 9.358494e-22 1.1718837e-21 1.3877788e-20

exp_avg f4 [5]
00000000: 53f9 9d32 78fb 1e34 4888 7334 7873 a3b1
00000010: 3e4f 1335
1.8390585e-08 1.480638e-07 2.2680717e-07 -4.7570516e-09 5.487708e-07

exp_avg_sq f4 [5]
00000000: 913c 0424 6698 6727 6052 7427 60f5 3825
00000010: d954 1b29
2.867424e-17 3.2140305e-15 3.3906458e-15 1.6042592e-16 3.4490507e-14

exp_avg f4 [5]
00000000: 707d df37 d949 9cb9 e42a 7b39 1d3b b1b8
00000010: 9b95 84ba
2.6642083e-05 -0.0002980966 0.00023953203 -8.4510284e-05 -0.0010115387

exp_avg_sq f4 [5]
00000000: cc77 2d2e 0ef7 b031 9a15 5a31 18da e42f
00000010: 26c5 7733
3.9442047e-11 5.150361e-09 3.1735454e-09 4.1627923e-10 5.7688474e-08

exp_avg f4 [5]
00000000: b60c 3439 13af fcba 45eb 313b c881 cbba
00000010: 4120 6cbb
0.00017170873 -0.001927825 0.0027148288 -0.0015526349 -0.0036029967

exp_avg_sq f4 [5]
00000000: e609 e730 44ca 6734 deec dc34 b40d 0f34
00000010: 6e79 4035
1.6810275e-09 2.1587135e-07 4.1150537e-07 1.3322898e-07 7.170228e-07

exp_avg f4 [5]
00000000: de12 1439 66ce d2ba fafc 1c3b 1df3 a6ba
00000010: 64f9 60bb
0.00014121408 -0.001608324 0.0023954497 -0.0012737248 -0.0034328336

exp_avg_sq f4 [5]
00000000: fa02 9a30 439b 1c34 5887 ac34 56a3 c033
00000010: 6329 2f35
1.1205821e-09 1.4585116e-07 3.2135972e-07 8.970407e-08 6.5252806e-07

exp_avg f4 [5]
00000000: df5f deb7 b495 a039 b1cf 02ba 29f1 5139
00000010: 6ad3 233a
-2.6509106e-05 0.00030629116 -0.0004990055 0.00020021632 0.00062494597

exp_avg_sq f4 [5]
00000000: ce27 302e 4224 bb31 54e7 6e32 233c 1831
00000010: d94b b932
4.005312e-11 5.4465383e-09 1.3906021e-08 2.2153095e-09 2.1571326e-08

exp_avg f4 [5]
00000000: 8540 0537 48be 69b8 6beb a938 07b7 1db8
00000010: b709 71b8
7.94244e-06 -5.5728742e-05 8.102398e-05 -3.7602174e-05 -5.7467925e-05

exp_avg_sq f4 [5]
00000000: 66fe 852c 5559 622f 9a59 c72f 74b4 ab2e
00000010: af48 632f
3.8083313e-12 2.0586317e-10 3.6261555e-10 7.8082346e-11 2.0671352e-10

exp_avg f4 [3, 5]
00000000: 6597 a0bb f139 99bb a08a 02bc 47fa 97bb
00000010: 3c31 8cbb 38f0 3cbb cfe4 a4bb 3436 f9b9
00000020: c05f bcbb 4bb8 a9bb 19dc 1fb9 6a95 f4b9
00000030: f07c 90b7 0569 7eb5 f5b9 0eb8
-0.00490086 -0.0046760966 -0.007967621 -0.0046379897 -0.00427833 -0.0028829705 -0.005032159 -0.00047533365
-0.005748719 -0.00517944 -0.00015245414 -0.0004665063 -1.7224316e-05 -9.4775197e-07 -3.4028624e-05

exp_avg_sq f4 [3, 5]
00000000: 5590 b235 a76e a535 18f3 6b36 6796 9f35
00000010: 04f2 8835 beeb fd34 24f3 bf35 a4ac 5832
00000020: 34fa f435 1448 c735 d0fc 4431 8b8f e632
00000030: dfec 202e 9275 f929 6c06 1d2f
1.330404e-06 1.2325662e-06 3.5159228e-06 1.1890196e-06 1.0203225e-06 4.7296447e-07 1.4301372e-06 1.2612109e-08
1.8252235e-06 1.4847633e-06 2.8665461e-09 2.68408e-08 3.6590172e-11 1.10782165e-13 1.4281348e-10

exp_avg f4 [3]
00000000: 42c1 3bbd d167 a6bc 815b 17ba
-0.045838602 -0.020313175 -0.0005773828

exp_avg_sq f4 [3]
00000000: 14f8 f338 682a bf37 3e97 3033
0.00011633351 2.2788721e-05 4.1115747e-08
