lightning_logs/version_16/checkpoints/epoch=0-step=2.ckpt (torch, 28015 bytes, 56 tensors)

layers.0.weight f4 [5]
0	0x3f800992	1.0002921
1	0x3f7f7ecb	0.99802846
2	0x3f80409b	1.0019716
3	0x3f7fae7f	0.99875635
4	0x3f80120c	1.0005507

layers.0.bias f4 [5]
0	0x384e8a6d	4.9243146e-05
1	0xb5d7ba88	-1.6073036e-06
2	0xb8856c6e	-6.362131e-05
3	0xb8aeb814	-8.331254e-05
4	0x3870ab60	5.7380064e-05

layers.0.running_mean f4 [5]
0	0x4199855e	19.19012
1	0x41998597	19.19023
2	0x41997968	19.18428
3	0x41998de6	19.194286
4	0x41998830	19.191498

layers.0.running_var f4 [5]
0	0x3f5fa1b0	0.8735609
1	0x3f5e1d8b	0.8676383
2	0x3f5fef16	0.8747419
3	0x3f5f0a70	0.871253
4	0x3f5f22fe	0.8716277

layers.1.weight f4 [10, 5]
0	0x3ec68ba0	0.387784
1	0xbc99af54	-0.01876036
2	0x3ee0fa18	0.43940806
3	0xbe6a25b4	-0.22865945
4	0xbe0c33f8	-0.136917
5	0x3e867d53	0.2626749
6	0x3d8172c3	0.06320717
7	0xbdad9eab	-0.08477529
8	0x3e135b1a	0.14390221
9	0x3ed9337c	0.42422092
10	0x3e5043ba	0.20338336
11	0xbea2d07a	-0.3179968
12	0xbe1c5a09	-0.1526872
13	0xbe94b55a	-0.2904461
14	0x3e20cfde	0.15704295
15	0xbe9afafc	-0.3026961
16	0xbe606849	-0.21914782
17	0xbe0d3e42	-0.1379328
18	0x3ebd75d9	0.37003973
19	0xbe407d88	-0.18797886
20	0x3d9cb92b	0.076525055
21	0xbd120ab4	-0.03565474
22	0x3e21815c	0.15772003
23	0xbedb297e	-0.42805094
24	0xbe9147c3	-0.28375062
25	0x3dc93f33	0.098265074
26	0xbead7e2c	-0.33885324
27	0x3e803e98	0.25047755
28	0x3eda94e4	0.4269172
29	0xbde78365	-0.113043584
30	0x3e0d03a1	0.13770916
31	0xbe894407	-0.26809713
32	0x3ecb6e6e	0.3973269
33	0x3ed05dce	0.40696567
34	0xbe81c772	-0.25347477
35	0x3c555245	0.013020103
36	0x3d9705f3	0.073741816
37	0xbc56824e	-0.0130925905
38	0xbe179a67	-0.14804994
39	0xbe6ffae4	-0.23435551
40	0xbdfae5ec	-0.12250885
41	0x3ebc7aa5	0.3681232
42	0x3e41bbc9	0.1891929
43	0x3ec7a2c0	0.38991356
44	0x3ea3c7ce	0.31988376
45	0x3ee357da	0.44402963
46	0x3e9ef5a9	0.310468
47	0xbe7f5c47	-0.24937545
48	0x3e825810	0.2545781
49	0x3dc0cabf	0.09413671

layers.1.bias f4 [10]
0	0x3dc22d48	0.09481293
1	0xbee306c3	-0.44341096
2	0xbdd82a7c	-0.10554978
3	0x3c7eabb4	0.015543867
4	0x3d478218	0.04870805
5	0xbda9977b	-0.08280846
6	0xbe134a1d	-0.1438374
7	0xbe8bc8fd	-0.2730178
8	0x3e8690fc	0.2628249
9	0xbee43efc	-0.44579303

layers.2.weight f4 [10]
0	0x3f7f7d16	0.9980024
1	0x3f8040e1	1.00198
2	0x3f8039e5	1.0017668
3	0x3f7f7dc9	0.9980131
4	0x3f7f8dc7	0.9982571
5	0x3f800979	1.0002891
6	0x3f7f94a2	0.9983617
7	0x3f8040c5	1.0019766
8	0x3f803ffc	1.0019526
9	0x3f801c72	1.0008681

layers.2.bias f4 [10]
0	0xbafcde28	-0.0019292282
1	0x3b02fc0a	0.0019986653
2	0x3a918a2e	0.0011103803
3	0xb991be54	-0.0002779836
4	0xbae14901	-0.0017187895
5	0x3a5a6e4e	0.0008332477
6	0xba9fb101	-0.0012183489
7	0x3af9b16c	0.0019050068
8	0x3aff313b	0.0019469628
9	0x3acdd20a	0.0015702855

layers.2.running_mean f4 [10]
0	0x3c938e91	0.018012317
1	0xbdac8942	-0.08424617
2	0xbca4475f	-0.020053564
3	0x3b40e2fb	0.0029432166
4	0x3c17b434	0.009259272
5	0xbc80f2a0	-0.015740693
6	0xbcdfd6dc	-0.027324133
7	0xbd54750f	-0.05186945
8	0x3d4c8874	0.04993482
9	0xbdad752e	-0.08469616

layers.2.running_var f4 [10]
0	0x3f6232c6	0.88358724
1	0x3f5f78fc	0.8729398
2	0x3f5cc0cb	0.8623168
3	0x3f5fd914	0.8744061
4	0x3f5d5982	0.86464703
5	0x3f622330	0.8833494
6	0x3f66407a	0.89942133
7	0x3f536ba5	0.8258613
8	0x3f64fe25	0.89450294
9	0x3f6553f1	0.8958121

layers.4.weight f4 [5, 10]
0	0xbe525e8f	-0.20543884
1	0x3e838311	0.25685933
2	0xbdd7e89e	-0.10542415
3	0x3d7f6410	0.062351286
4	0xbe7ff910	-0.24997354
5	0xbafb7f17	-0.0019187656
6	0x3e80f2d9	0.25185278
7	0xbd9ca852	-0.07649292
8	0x3e9b6efb	0.3035811
9	0xbe29ac39	-0.16569604
10	0xbe8bd35d	-0.27309695
11	0x3e95cf57	0.2925975
12	0xbe84708f	-0.25867125
13	0x3e8fe618	0.28105235
14	0x3e81272b	0.25225195
15	0xbdd0b769	-0.10191233
16	0x3e804233	0.25050506
17	0x3c540244	0.012939993
18	0x3e8213b3	0.25405654
19	0xbb7116fd	-0.0036787384
20	0x3dfcec2a	0.12349732
21	0xbe9587f2	-0.2920528
22	0xbe95e74c	-0.29278028
23	0x3e2ed08d	0.17071743
24	0x3e0f79a5	0.14011247
25	0x3e4ba600	0.19887543
26	0x3c515126	0.012775695
27	0x3e040359	0.12891902
28	0xbe404d60	-0.18779516
29	0x3e0786e6	0.13235053
30	0xbd0ad576	-0.03389498
31	0x3e22e582	0.15907863
32	0xbdf1e592	-0.11811365
33	0x3e750ec0	0.23931408
34	0xbdd463bd	-0.10370586
35	0x3e9b3b30	0.30318594
36	0xbe98baae	-0.29829925
37	0x3dc96ad9	0.09834833
38	0xbe6039a5	-0.2189699
39	0xbe9971d0	-0.29969645
40	0xbe10d3f0	-0.14143348
41	0x3e778b35	0.24174197
42	0x3df88745	0.121351756
43	0x3e8292eb	0.25502715
44	0xbea10805	-0.3145143
45	0xbe81beb5	-0.2534081
46	0x3d29647a	0.041355588
47	0x3e874a41	0.2642384
48	0x3e87714e	0.26453632
49	0x3e91d442	0.28482252

layers.4.bias f4 [5]
0	0xbe77ffb0	-0.24218631
1	0x3e63421d	0.22193189
2	0xbe286830	-0.16445994
3	0xbc0cd317	-0.00859525
4	0xbe52f1f4	-0.2060011

layers.5.weight f4 [5]
0	0x3f7f9a31	0.9984465
1	0x3f800aa5	1.0003248
2	0x3f802597	1.0011472
3	0x3f800c9f	1.0003852
4	0x3f800b2c	1.0003409

layers.5.bias f4 [5]
0	0xbb032736	-0.0020012385
1	0xbb015fc2	-0.0019740914
2	0x3b02d95c	0.0019965982
3	0x3b032864	0.0020013088
4	0x3b0044de	0.0019572298

layers.5.running_mean f4 [5]
0	0xbd28ef12	-0.04124362
1	0x3dc4ef88	0.096159995
2	0xbca97b50	-0.020688683
3	0xbcac1b64	-0.021009155
4	0x3ca5c98c	0.020237707

layers.5.running_var f4 [5]
0	0x3f596f2c	0.8493526
1	0x3f55349f	0.8328342
2	0x3f56fe09	0.83981377
3	0x3f536e8b	0.8259055
4	0x3f584c77	0.84491676

layers.7.weight f4 [5]
0	0x3f7f7e83	0.99802417
1	0x3f803f93	1.0019401
2	0x3f8040d1	1.001978
3	0x3f8040e9	1.0019809
4	0x3f804006	1.0019538

layers.7.bias f4 [5]
0	0xbb024f6e	-0.001988377
1	0x3afb80ee	0.0019188204
2	0x3b031438	0.0020001065
3	0x3b03238c	0.0020010201
4	0x3b022c2f	0.0019862761

layers.7.running_mean f4 [5]
0	0x3d9aa7c2	0.075515285
1	0x3da077b6	0.07835333
2	0x3da0a8ce	0.07844697
3	0x3d97f9d7	0.074207
4	0x3d9a4936	0.07533495

layers.7.running_var f4 [5]
0	0x3f5e45c6	0.86825216
1	0x3f608e82	0.8771745
2	0x3f5df6bf	0.8670463
3	0x3f62005a	0.88281786
4	0x3f63199e	0.88710964

layers.8.rho f4 [5]
0	0x3fad7b52	1.3553259
1	0x3fe7ae3e	1.810005
2	0x3f928a4b	1.1448454
3	0x3f95263a	1.1652291
4	0x3f974a24	1.1819501

layers.8.gam f4 [5]
0	0x3fba9800	1.4577637
1	0x3ffa72cc	1.9566283
2	0x3ff28b12	1.8948691
3	0x3fe0c418	1.7559843
4	0x3f8ca38b	1.0987409

layers.9.weight f4 [3, 5]
0	0xbe9af4e1	-0.30264953
1	0xbd9caf20	-0.0765059
2	0x3e3b37e9	0.18283047
3	0x3e8ac82d	0.27105847
4	0x3ea17f87	0.31542608
5	0x3ddcc28e	0.10779296
6	0x3ed20420	0.41018772
7	0x3d403ada	0.046931125
8	0xbdecd79e	-0.11564563
9	0x3e8945c5	0.26811042
10	0xbec334a0	-0.38126087
11	0x3e4dd6fe	0.20101544
12	0xbdbb2006	-0.09136967
13	0xbe65a8d5	-0.22427686
14	0xbc607e1a	-0.01370194

layers.9.bias f4 [3]
0	0xbd2c60ee	-0.042084627
1	0xbe8d6b38	-0.27620864
2	0xbdbe151e	-0.092813715

exp_avg f4 [5]
0	0x37ceb45e	2.4641104e-05
1	0x3a0b81f9	0.00053217966
2	0xba2be900	-0.0006557852
3	0x384da668	4.9030787e-05
4	0x3853ed28	5.052719e-05

exp_avg_sq f4 [5]
0	0x2e9c69c4	7.1128464e-11
1	0x3294c8e8	1.732083e-08
2	0x32d01122	2.4222178e-08
3	0x3136e580	2.6614941e-09
4	0x3053055c	7.676897e-10

exp_avg f4 [5]
0	0xae333333	-4.0745362e-11
1	0x2dbb851e	2.1318555e-11
2	0x2e251eb8	3.754394e-11
3	0x2e4a3d71	4.5984053e-11
4	0xae8fc290	-6.5374484e-11

exp_avg_sq f4 [5]
0	0x1affcb94	1.05794426e-22
1	0x1aecc743	9.792924e-23
2	0x1b8417ca	2.1852941e-22
3	0x1bffc091	4.2310654e-22
4	0x1b954b03	2.4698457e-22

exp_avg f4 [10, 5]
0	0x3997f46a	0.00028983067
1	0x39502ba6	0.00019852686
2	0xb973cb02	-0.00023249912
3	0xb9138cce	-0.00014071466
4	0x399ba39b	0.000296858
5	0x3981adb0	0.00024734205
6	0xb9a6765e	-0.00031750178
7	0xb9471c76	-0.00018988721
8	0xb7fa5630	-2.9842457e-05
9	0xb9104e82	-0.00013762157
10	0xb9b9261d	-0.00035314346
11	0x36081cc0	2.0282314e-06
12	0xb98cfc7c	-0.00026890996
13	0xb8df156a	-0.00010637457
14	0xb69a9fa0	-4.6081404e-06
15	0x39304990	0.00016812072
16	0xba27dcf9	-0.0006403472
17	0x3a572334	0.0008206845
18	0x36fd46f8	7.5482494e-06
19	0xb8ccafec	-9.760246e-05
20	0x39004e9c	0.00012236316
21	0xb8430626	-4.649735e-05
22	0xb833d3e0	-4.287425e-05
23	0x39a3e14b	0.0003125764
24	0xb9ecb026	-0.0004514467
25	0xb8247f3c	-3.9219143e-05
26	0xb823e2ae	-3.907334e-05
27	0xb9ff3369	-0.00048675694
28	0x39c4ef58	0.00037562358
29	0x39e624d8	0.0004389647
30	0xb9a2386e	-0.0003094109
31	0xba36e28c	-0.0006976507
32	0xb9fa571c	-0.00047748617
33	0xb9fcba6c	-0.0004820408
34	0xba756370	-0.00093608256
35	0x3a0c543c	0.0005353128
36	0xb84a397c	-4.821409e-05
37	0x3a403212	0.000733168
38	0xb9be1f1e	-0.00036262808
39	0x395ff99a	0.00021359921
40	0xb902c891	-0.00012472483
41	0x38e0f376	0.000107265005
42	0xb93e2c0a	-0.00018136218
43	0x39857d22	0.00025460968
44	0xb9c6dcf0	-0.00037930114
45	0xb82bfc29	-4.100442e-05
46	0x3a127e81	0.00055883086
47	0x3a1407f5	0.00056469376
48	0x365bdb00	3.2761018e-06
49	0xb93ec6ef	-0.0001819392

exp_avg_sq f4 [10, 5]
0	0x31b1ed4c	5.1783555e-09
1	0x329036d0	1.6788732e-08
2	0x316b2011	3.4215228e-09
3	0x3166b841	3.3574141e-09
4	0x321c0386	9.081196e-09
5	0x3197e5be	4.420797e-09
6	0x338ff937	6.704288e-08
7	0x31d11ce2	6.085984e-09
8	0x31d96aad	6.327659e-09
9	0x3090544a	1.0501335e-09
10	0x32015fba	7.530554e-09
11	0x2fa68212	3.0287645e-10
12	0x31b3200f	5.2132303e-09
13	0x302bfd9f	6.2569855e-10
14	0x322a116a	9.899262e-09
15	0x31b783dd	5.340992e-09
16	0x334dbdaa	4.790278e-08
17	0x33289f4f	3.926044e-08
18	0x2f9c07a6	2.838167e-10
19	0x32108a95	8.413413e-09
20	0x30671a34	8.407455e-10
21	0x2ff46851	4.4457463e-10
22	0x3096c110	1.0968808e-09
23	0x31bd3b42	5.507361e-09
24	0x3241709a	1.1259681e-08
25	0x30f44bd6	1.777489e-09
26	0x30402f86	6.991673e-10
27	0x32936c99	1.7162437e-08
28	0x320cf7e6	8.205438e-09
29	0x3243313e	1.136169e-08
30	0x31b7ae54	5.34582e-09
31	0x32ea6fa0	2.7291946e-08
32	0x325cac83	1.284491e-08
33	0x326611a0	1.33917695e-08
34	0x3350ae93	4.8587548e-08
35	0x33144c88	3.452854e-08
36	0x31defab2	6.489551e-09
37	0x32fff720	2.9798287e-08
38	0x322a8046	9.924468e-09
39	0x312d436d	2.521314e-09
40	0x30afedbf	1.2800497e-09
41	0x3212ccfc	8.5449265e-09
42	0x321bddc2	9.072609e-09
43	0x32172500	8.79777e-09
44	0x322af177	9.950205e-09
45	0x2fa26978	2.9542568e-10
46	0x32a173e0	1.879556e-08
47	0x3297aafb	1.7656467e-08
48	0x3109db96	2.0060944e-09
49	0x31added7	5.0602966e-09

exp_avg f4 [10]
0	0xad8f5c29	-1.6298145e-11
1	0xadf0a3d6	-2.7357599e-11
2	0xac8f5c2a	-4.0745367e-12
3	0xae0a3d71	-3.1432138e-11
4	0x2d851eb8	1.5133991e-11
5	0xad3851ec	-1.0477379e-11
6	0x2e428f5b	4.423782e-11
7	0x2e147ae1	3.3760442e-11
8	0x2ba3d710	1.1641538e-12
9	0x2e19999a	3.4924598e-11

exp_avg_sq f4 [10]
0	0x19a3b57d	1.6927108e-23
1	0x1c2e07a3	5.758164e-22
2	0x1a54d834	4.401522e-23
3	0x1b134efc	1.2185076e-22
4	0x1a8b2208	5.754403e-23
5	0x1982f0e1	1.3538975e-23
6	0x1c621a73	7.481131e-22
7	0x1aa3cea7	6.7749085e-23
8	0x1a0301a8	2.7091503e-23
9	0x1b1374bc	1.2197274e-22

exp_avg f4 [10]
0	0x39190ca3	0.00014595925
1	0xb9c644f2	-0.0003781687
2	0xb894a4da	-7.087896e-05
3	0x3a01a448	0.0004945439
4	0x3889b2bb	6.56596e-05
5	0x39952765	0.00028448846
6	0x39b14e3b	0.00033818357
7	0xb8e2e086	-0.000108183405
8	0xba4bd77e	-0.0007775946
9	0x36e40304	6.7952806e-06

exp_avg_sq f4 [10]
0	0x30a9a8a6	1.2344301e-09
1	0x3208124d	7.920403e-09
2	0x2ff6ffbe	4.4928855e-10
3	0x3278e104	1.44866625e-08
4	0x2ffb22e8	4.5681436e-10
5	0x32215199	9.389987e-09
6	0x328e4f1c	1.656695e-08
7	0x303353e6	6.523905e-10
8	0x331802f2	3.5392937e-08
9	0x2f610e98	2.0468816e-10

exp_avg f4 [10]
0	0x3822dee0	3.883138e-05
1	0xba0b0488	-0.00053031044
2	0xb7aada28	-2.0367166e-05
3	0xb91056ed	-0.00013765293
4	0x392ab352	0.00016279265
5	0x38393d40	4.416448e-05
6	0x38512d36	4.987159e-05
7	0xb8994778	-7.3089206e-05
8	0xb9f07847	-0.0004586598
9	0xb7f312b6	-2.897657e-05

exp_avg_sq f4 [10]
0	0x2ed49430	9.666967e-11
1	0x32861f46	1.5613875e-08
2	0x310182a6	1.8846236e-09
3	0x310a6574	2.0139312e-09
4	0x31432ce7	2.8401759e-09
5	0x31857d49	3.8850527e-09
6	0x31467ac6	2.888258e-09
7	0x2fc68836	3.6112774e-10
8	0x325f29ae	1.2989785e-08
9	0x2f1d2788	1.4293111e-10

exp_avg f4 [5, 10]
0	0xb97216b3	-0.00023087375
1	0xb999c1ce	-0.0002932683
2	0xb91578e7	-0.00014254787
3	0x3ab7e00a	0.0014028561
4	0xb9418952	-0.0001845707
5	0x3a828ff0	0.000996111
6	0x3a3969ab	0.00070729357
7	0xb94df780	-0.00019642524
8	0xba7efe18	-0.0009727194
9	0x391b5ea4	0.00014817208
10	0xb8699bc3	-5.5696593e-05
11	0xbaa889f6	-0.0012858498
12	0xb94ea549	-0.00019707264
13	0x3aeb2e62	0.00179429
14	0x39a098a0	0.00030631293
15	0x3a4bb42a	0.0007770682
16	0x3a4a1be0	0.0007709842
17	0x3a3f3140	0.00072934106
18	0xbad487e8	-0.001621482
19	0xba9325a8	-0.0011226432
20	0x3a7a348c	0.0009544573
21	0x398b0e9c	0.0002652303
22	0x399af424	0.00029555068
23	0xb9a135c5	-0.00030748374
24	0xb92c864e	-0.0001645323
25	0x3a822e0e	0.0009931938
26	0x3a7d68b4	0.0009666786
27	0xba017ed9	-0.0004939861
28	0x39b3d8bc	0.0003430302
29	0x3984aaa8	0.0002530415
30	0x38ce9c36	9.851942e-05
31	0x3a4813ce	0.00076323457
32	0xb6d54e5a	-6.357016e-06
33	0x39316af5	0.0001691988
34	0xb998540c	-0.0002905432
35	0x3a0d775d	0.00053965097
36	0x394a5056	0.00019294149
37	0xb9daa1fe	-0.00041700894
38	0x3a5a62da	0.000833077
39	0x398637f2	0.00025600154
40	0x397743e7	0.00023581051
41	0x38d7e5da	0.00010294812
42	0xb9e29c5a	-0.0004322257
43	0xb9bb01f0	-0.00035668863
44	0x395c6786	0.000210194
45	0xb4fb0800	-4.6758214e-07
46	0x394ab9ae	0.00019333392
47	0xb8f3ca0f	-0.00011624779
48	0x3a27cb39	0.0006400827
49	0x397a5680	0.00023874082

exp_avg_sq f4 [5, 10]
0	0x321c18c2	9.086024e-09
1	0x323607c8	1.05955635e-08
2	0x309ac708	1.1261543e-09
3	0x33e96f26	1.0870126e-07
4	0x31024cc4	1.8961126e-09
5	0x339743c5	7.0438126e-08
6	0x33628f85	5.2750256e-08
7	0x311bff53	2.2700604e-09
8	0x336b3ace	5.4768684e-08
9	0x31af32d4	5.098949e-09
10	0x3081b34e	9.436947e-10
11	0x33c42190	9.133066e-08
12	0x315ed858	3.242823e-09
13	0x34424062	1.809108e-07
14	0x31b46817	5.250523e-09
15	0x33455f73	4.5954447e-08
16	0x3330a03d	4.112393e-08
17	0x32fedd02	2.9669994e-08
18	0x342568d5	1.540496e-07
19	0x3395b42b	6.9711255e-08
20	0x33619791	5.2524744e-08
21	0x3199a058	4.471115e-09
22	0x31bd74ff	5.513925e-09
23	0x31b4a711	5.2576827e-09
24	0x320bcfa3	8.138076e-09
25	0x3372ab5e	5.6500873e-08
26	0x3366dd85	5.375252e-08
27	0x3281fdf1	1.5133056e-08
28	0x32229ff9	9.466015e-09
29	0x321fce42	9.301916e-09
30	0x321bad8d	9.061648e-09
31	0x330ad44e	3.232372e-08
32	0x2d08f687	7.785445e-12
33	0x30e5b9bc	1.6714732e-09
34	0x3205539b	7.760629e-09
35	0x32de1552	2.5853897e-08
36	0x329aa876	1.8004567e-08
37	0x32288ff0	9.811615e-09
38	0x333433e6	4.1956717e-08
39	0x318f6c03	4.1741273e-09
40	0x317e8634	3.703815e-09
41	0x31b28701	5.19583e-09
42	0x323ca248	1.0979939e-08
43	0x3255bfed	1.2441871e-08
44	0x3187e49a	3.955006e-09
45	0x31da62c2	6.3558625e-09
46	0x312780b2	2.4374853e-09
47	0x31153893	2.1714512e-09
48	0x32c3a20c	2.2774678e-08
49	0x32197ffc	8.934872e-09

exp_avg f4 [5]
0	0xaf247ae2	-1.495937e-10
1	0x2c0f5c2a	2.0372684e-12
2	0x2ca00000	4.5474735e-12
3	0x2f27851f	1.5235856e-10
4	0xae4f5c2a	-4.714821e-11

exp_avg_sq f4 [5]
0	0x1d09b9c8	1.8227846e-21
1	0x1927ded8	8.6787006e-24
2	0x1a09a440	2.8463616e-23
3	0x1cc2afb0	1.2883257e-21
4	0x1ba5b8de	2.7416428e-22

exp_avg f4 [5]
0	0x3408ce0e	1.2740949e-07
1	0x33c2372f	9.043867e-08
2	0xb204cf74	-7.730581e-09
3	0x33571f66	5.0087145e-08
4	0x3405e850	1.2471105e-07

exp_avg_sq f4 [5]
0	0x26de9b6e	1.5446474e-15
1	0x26ad30a7	1.2017474e-15
2	0x249ce5f0	6.8043745e-17
3	0x2603f698	4.578395e-16
4	0x2726e713	2.3162393e-15

exp_avg f4 [5]
0	0x395f2515	0.00021280751
1	0x393e59bf	0.00018153245
2	0xb8759260	-5.8548874e-05
3	0xb91ec361	-0.00015140839
4	0xb9776bd0	-0.00023595919

exp_avg_sq f4 [5]
0	0x312be4be	2.50138e-09
1	0x3104261b	1.9230189e-09
2	0x2f521a52	1.910874e-10
3	0x30adffe4	1.2660135e-09
4	0x316734c4	3.3644918e-09

exp_avg f4 [5]
0	0x39b0e09c	0.00033736683
1	0xba9247aa	-0.0011160274
2	0xbaa7bcc1	-0.0012797342
3	0xbaa9ad7a	-0.0012945377
4	0xbad52422	-0.0016261379

exp_avg_sq f4 [5]
0	0x31ed05f8	6.8982864e-09
1	0x33a0afe6	7.482576e-08
2	0x33c3894b	9.1053685e-08
3	0x33c6f342	9.264342e-08
4	0x3425ce98	1.5441981e-07

exp_avg f4 [5]
0	0x3a01756b	0.0004938456
1	0xba1229c3	-0.0005575681
2	0xba876d7c	-0.0010332312
3	0xba82e63e	-0.000998683
4	0xbaaae768	-0.0013038935

exp_avg_sq f4 [5]
0	0x326d7d8f	1.3823764e-08
1	0x32af26f7	2.03904e-08
2	0x337dd66a	5.910116e-08
3	0x336cb6b4	5.51142e-08
4	0x33cfd4e0	9.6779104e-08

exp_avg f4 [5]
0	0xb8633be2	-5.4176788e-05
1	0x3916a66c	0.00014367112
2	0x396371a0	0.00021690736
3	0x39668fee	0.00021988127
4	0x399aca49	0.00029523883

exp_avg_sq f4 [5]
0	0x2f437724	1.7777474e-10
1	0x30aa5b04	1.2394996e-09
2	0x3133b988	2.615339e-09
3	0x3137a8a8	2.6725875e-09
4	0x31aed02d	5.0877333e-09

exp_avg f4 [5]
0	0xb77572b2	-1.4629843e-05
1	0xb86d33c2	-5.6553406e-05
2	0xb7eff5be	-2.8605453e-05
3	0xb8292c80	-4.0334184e-05
4	0xb8a68d29	-7.94179e-05

exp_avg_sq f4 [5]
0	0x2d5e2372	1.2627109e-11
1	0x2f477874	1.8141738e-10
2	0x2e4bbb10	4.6323e-11
3	0x2ec5a89f	8.988476e-11
4	0x2fd15e3e	3.8083842e-10

exp_avg f4 [3, 5]
0	0xbac55b80	-0.0015057176
1	0xbb2ac0c2	-0.0026054834
2	0xbbe06418	-0.0068478696
3	0xbbc0917a	-0.005876717
4	0xbb723aa3	-0.003696122
5	0xbb7f63d6	-0.003896942
6	0xbb8a6204	-0.00422311
7	0xba083b8b	-0.0005196861
8	0xba464d54	-0.00075646234
9	0xbb4dcba3	-0.0031401895
10	0x00000000	0.0
11	0x00000000	0.0
12	0x00000000	0.0
13	0x00000000	0.0
14	0x00000000	0.0

exp_avg_sq f4 [3, 5]
0	0x340693f3	1.2533546e-07
1	0x34cb582c	3.787585e-07
2	0x362ed3cd	2.6051305e-06
3	0x36001818	1.908751e-06
4	0x354c892c	7.6195533e-07
5	0x356d0260	8.8292836e-07
6	0x3588b500	1.0185468e-06
7	0x32833953	1.5276475e-08
8	0x33229248	3.7851606e-08
9	0x351626d6	5.593587e-07
10	0x00000000	0.0
11	0x00000000	0.0
12	0x00000000	0.0
13	0x00000000	0.0
14	0x00000000	0.0

exp_avg f4 [3]
0	0xbcb8bd8a	-0.022551317
1	0xbbce87ad	-0.006302795
2	0x00000000	0.0

exp_avg_sq f4 [3]
0	0x37ec8db9	2.8199387e-05
1	0x361a5212	2.299556e-06
2	0x00000000	0.0
