modules_test/model/lightning_logs/version_6/checkpoints/epoch=2-step=3.ckpt (torch, 27835 bytes, 56 tensors)

layers.0.weight f4 [5]
00000000: 0661 803f c15f 803f 8139 7f3f 143b 7f3f
00000010: 6a61 803f
1.0029609 1.0029222 0.9969712 0.9969952 1.0029728

layers.0.bias f4 [5]
00000000: 7794 c436 6a0a 7338 fe70 bf38 b9c7 d6b7
00000010: a13b ae37
5.8585388e-06 5.7945414e-05 9.128636e-05 -2.5603791e-05 2.0770183e-05

layers.0.running_mean f4 [5]
00000000: b690 5d44 88be f244 fc8c 6c44 214c e344
00000010: 7dae a344
886.2611 1941.9541 946.2029 1818.379 1309.4528

layers.0.running_var f4 [5]
00000000: e138 9a4c 6570 2d4d 20c6 a44c b1bd 224d
00000010: d9e6 e54c
8.085684e+07 1.8186402e+08 8.638899e+07 1.7064629e+08 1.2053473e+08

layers.1.weight f4 [10, 5]
00000000: 12ae fdbd f1ce 0e3e f9b2 cf3d f53a 8abd
00000010: 603a aabe 2f6c 843e 2933 cf3e 5d5e 623e
00000020: 73ab 8abe b2ea dd3e 7b57 b73e 35ec 323e
00000030: b304 983e e355 ca3e fd04 cbbe e52b acbe
00000040: f17f babe 66b5 bf3e 125f 4b3e 5fae e33e
00000050: b5a9 2d3e 835a b8be 9a72 d33e 080a 9d3e
00000060: c13b cf3e 7c8a a93c 871c df3d 90ed 97be
00000070: 0ae8 de3e 9201 1fbd f9c4 15be 2db4 cc3e
00000080: 77bb da3d 5d56 6f3e 4cce cebe 51ed 2fbe
00000090: f2f9 4a3d aa43 8fbe 1ca4 87bd d928 493e
000000a0: 07dc 02bc 8479 73be 47ca 5cbe 0b9a 983e
000000b0: f831 7b3c 832f 273e 6f9d 29bc 5e4d 623e
000000c0: b889 263e 67bf c83e
-0.12386717 0.1394613 0.10141558 -0.067495264 -0.33247662 0.25863788 0.4046872 0.22106309
-0.2708393 0.4334312 0.3580893 0.17472918 0.29691085 0.3951865 -0.39652243 -0.3362724
-0.36425737 0.37443084 0.19860485 0.44468972 0.1695927 -0.36006555 0.41298372 0.30671716
0.40475276 0.020695917 0.10894113 -0.29673433 0.43536407 -0.038819857 -0.1462592 0.39981213
0.10680287 0.23372789 -0.40391767 -0.17180373 0.049554773 -0.2798131 -0.06623098 0.19644488
-0.007987029 -0.23776823 -0.21561538 0.29805025 0.015331738 0.16326718 -0.0103524765 0.22099826
0.16263473 0.39208528

layers.1.bias f4 [10]
00000000: 875b 4cbc 93af 49be 5a78 d9be 999e 8fbe
00000010: a9d8 163e b379 443e 6bbc 4ebe 5c52 afbd
00000020: c66d f8bd 9881 34be
-0.012472994 -0.19695882 -0.42474633 -0.28050688 0.14731087 0.1918705 -0.20189063 -0.08560631
-0.121303126 -0.17627561

layers.2.weight f4 [10]
00000000: 2a4c 7f3f 3a34 803f 0a3a 7f3f f061 7f3f
00000010: 3261 803f a160 803f e43d 7f3f 9260 803f
00000020: 2361 803f e260 803f
0.9972559 1.0015938 0.99697936 0.99758816 1.0029662 1.0029489 0.9970381 1.0029471
1.0029644 1.0029566

layers.2.bias f4 [10]
00000000: a0eb 44bb 6200 44bb 8ea3 3fbb aed6 263b
00000010: c83e 433b 01cf 42bb cdc5 3bbb 1d90 3e3b
00000020: 8a8b 9cba 2ead 87b9
-0.003004767 -0.0029907455 -0.0029241773 0.002545755 0.002979206 -0.0029725435 -0.0028651834 0.0029077597
-0.0011943441 -0.00025878235

layers.2.running_mean f4 [10]
00000000: 406b bdbb a4fa bcbd d6cc 4bbe 2895 06be
00000010: 3864 8d3d 6f29 b83d becc c1bd 824d 24bd
00000020: ecc8 68bd d418 a9bd
-0.0057806075 -0.092274934 -0.19902357 -0.13142836 0.06903881 0.08992278 -0.094628796 -0.04011298
-0.05683224 -0.08256689

layers.2.running_var f4 [10]
00000000: 1da3 1c3f 8742 443f d18e 433f 9a73 573f
00000010: 3832 553f 0d8a 293f fef0 333f 1644 193f
00000020: 2356 203f 241f 2a3f
0.6118639 0.7666401 0.76389796 0.8416077 0.8327975 0.66226274 0.702896 0.59869516
0.62631434 0.66453767

layers.4.weight f4 [5, 10]
00000000: 4ca4 1cbe 4fa9 613d bae1 8cbd 99a9 603e
00000010: 2f74 933e 7173 d73d 8302 69be 7254 5c3e
00000020: deab 403e 343e f0bd f981 25be 9861 553e
00000030: e400 193e 60a8 f4bd 1857 8d3c 12fe 233e
00000040: ae92 97be 5048 10b9 20ae 0abe 043b d7bb
00000050: 42fa 8abe 3276 82be b95a 923e 6a17 1b3e
00000060: 13e6 28be 7e60 2bbe a110 8d3e 325e 863e
00000070: befd dabd 644f 22be a15b 903e 3c29 70be
00000080: a32b 913e 574b 2ebe 56b6 4a3e 33fd 9cbe
00000090: 7473 8dbe 5c12 2a3e 28a1 11be 6ee2 3e3e
000000a0: ec91 8cbd 4d56 abbd 5fee 633e bd63 8e3e
000000b0: f3b1 acbd 8e11 893d 8b1a 5cbe a3dc 9d3d
000000c0: 2488 723e 0cca d0bd
-0.1529705 0.055093106 -0.068789914 0.21939696 0.2879958 0.105200656 -0.22754864 0.21516588
0.18815562 -0.11730614 -0.16162862 0.2083801 0.14941746 -0.119461775 0.017253444 0.16014889
-0.29604095 -0.00013759849 -0.13542986 -0.0065683145 -0.27144057 -0.254808 0.2858484 0.1514565
-0.16494016 -0.16736028 0.2755175 0.2624374 -0.10692929 -0.15850598 0.28194907 -0.2345323
0.28353605 -0.17020927 0.19796118 -0.30661926 -0.27627146 0.16608566 -0.14221632 0.18641064
-0.0686377 -0.0836607 0.222589 0.2781047 -0.084323786 0.066928014 -0.214945 0.07708099
0.23684746 -0.101947874

layers.4.bias f4 [5]
00000000: 7c58 8b3e 13c4 47be efed 87be 7675 1c3d
00000010: 5ba1 84be
0.27215946 -0.1950839 -0.26548716 0.038197957 -0.25904354

layers.5.weight f4 [5]
00000000: df67 7f3f 7464 7f3f 16f0 7f3f d55e 7f3f
00000010: 8b6e 7f3f
0.9976787 0.99762654 0.9997572 0.9975408 0.9977805

layers.5.bias f4 [5]
00000000: 7402 44bb a601 43bb b8db 44bb b88a 44bb
00000010: 86cd 42bb
-0.0029908689 -0.0029755621 -0.003003819 -0.002998991 -0.0029724552

layers.5.running_mean f4 [5]
00000000: da5e 523e 8695 d0bd 922e 0dbe f0db ee3c
00000010: 0fbc 96bd
0.20543995 -0.10184769 -0.13787296 0.029157609 -0.07360088

layers.5.running_var f4 [5]
00000000: 9362 223f a26e 0c3f 78e9 0d3f a5ba 143f
00000010: 2037 133f
0.6343166 0.5485631 0.5543437 0.58097297 0.5750599

layers.7.weight f4 [5]
00000000: a939 7f3f 1e42 7f3f 1261 803f 1d39 7f3f
00000010: 543e 7f3f
0.9969736 0.9971026 1.0029624 0.9969652 0.9970448

layers.7.bias f4 [5]
00000000: a316 44bb 1a4f 41bb ea4e 433b 17d7 44bb
00000010: 3f4b 42bb
-0.002992072 -0.002949661 0.0029801675 -0.003003543 -0.00296469

layers.7.running_mean f4 [5]
00000000: 6e33 df3d f816 0c3e 6f7f d53d 02c0 f43d
00000010: b263 d83d
0.10898481 0.13680637 0.10424697 0.11950685 0.1056589

layers.7.running_var f4 [5]
00000000: da94 613f 71c7 423f bd51 133f 7b70 243f
00000010: 7e37 523f
0.88117754 0.76085573 0.575466 0.6423413 0.82115924

layers.8.rho f4 [5]
00000000: 1e26 8d3f d9b4 fd3f 26ac d23f 4b00 8c3f
00000010: 112c 8a3f
1.1027257 1.9820815 1.6458786 1.093759 1.0794698

layers.8.gam f4 [5]
00000000: 8f68 e43f 588b f83f a6db fe3f 4ca6 b93f
00000010: d2da ff3f
1.7844409 1.9417524 1.9910781 1.4503875 1.9988654

layers.9.weight f4 [3, 5]
00000000: 58dd 743e 1d2e ef3d cddb 92be 9881 203d
00000010: f587 58be 5448 c8be b9c4 763e e318 cc3e
00000020: 947e 7abe e1f0 c4be 1fdf dfbd 9004 e1be
00000030: 6500 6fbe 0806 6cbe 68cc 213e
0.23912561 0.11678717 -0.2868332 0.03918609 -0.21145613 -0.39117682 0.24098481 0.39862737
-0.24462348 -0.38465026 -0.10931229 -0.43948793 -0.23339994 -0.23049176 0.15800631

layers.9.bias f4 [3]
00000000: 356f 9fbe d674 b6bd 1e9d a63d
-0.31139532 -0.089090034 0.081354365

exp_avg f4 [5]
00000000: 1a2e 4eba aa99 2cba 47c4 003b dc69 f439
00000010: 9c93 80ba
-0.0007865146 -0.0006584177 0.001964824 0.00046618178 -0.0009809616

exp_avg_sq f4 [5]
00000000: 06da d932 8148 a432 eccc 2934 96e6 1c32
00000010: 8322 2833
2.536127e-08 1.9125084e-08 1.5813902e-07 9.132824e-09 3.9146936e-08

exp_avg f4 [5]
00000000: d84f 8d2b 8d97 a4ae fa53 a3ad 2db2 01ae
00000010: 30dd 04ad
1.0040814e-12 -7.4847774e-11 -1.8568248e-11 -2.9489456e-11 -7.552445e-12

exp_avg_sq f4 [5]
00000000: 33e5 e71b f43a 801c b662 971c cf3a b51b
00000010: b165 001d
3.836386e-22 8.485568e-22 1.0017858e-21 2.9981942e-22 1.6993232e-21

exp_avg f4 [10, 5]
00000000: e86b 01bb 0381 edb9 ce26 503a 9483 cfb7
00000010: 8f32 563a 86d1 b23a 8fc2 1cba 1a6c 4fba
00000020: 9395 15b9 dfc5 3b38 f64f 0fbb a288 bdba
00000030: 1af6 0fba 0b4c 843b 05b7 883a 78e9 0d3a
00000040: f6eb c538 d2a6 e7b8 67dc 003b a573 a3b9
00000050: c219 8237 aa30 0cba 9ae0 073a 1a85 f8ba
00000060: 5c96 d639 6d68 16ba 633e c3b9 31ec 65bb
00000070: ee75 14bb 8121 e039 68d2 e83a 8376 8cba
00000080: ddd8 8db9 27f1 be3b 71ee d73a 547e 9a3a
00000090: 8a8d e739 044f 39ba 1bd8 c6b9 70d2 80b9
000000a0: 9a1c 43bb 4514 44ba e712 54bb 6462 4abb
000000b0: 120c 9938 45a4 a037 3e61 2039 ea8e 0c3a
000000c0: 2c2d 4bbb 90b4 7a3a
-0.0019748155 -0.00045300284 0.00079403527 -2.4737594e-05 0.0008170986 0.0013642765 -0.0005979919 -0.0007912532
-0.00014265468 4.4768556e-05 -0.0021867729 -0.0014460275 -0.0005491689 0.0040373853 0.0010430521 0.00054135127
9.437643e-05 -0.00011046011 0.001966262 -0.00031175945 1.5509202e-05 -0.00053478277 0.00051833095 -0.0018960566
0.00040929287 -0.00057376066 -0.0003723978 -0.0035083408 -0.00226533 0.00042749572 0.0017762901 -0.0010716472
-0.00027055191 0.0058270874 0.0016474259 0.0011786916 0.00044165208 -0.0007068964 -0.00037926514 -0.0002457085
-0.0029771687 -0.0007479827 -0.00323599 -0.00308814 7.297857e-05 1.914998e-05 0.00015295015 0.0005361872
-0.0031002266 0.0009563649

exp_avg_sq f4 [10, 5]
00000000: 9a53 3534 6401 2334 46ff e232 d5ba 2331
00000010: 731a 1e33 c01d b633 df0a a732 9df1 e832
00000020: 1323 9030 c477 e72f 270d 5634 2ba3 2034
00000030: 42cf 8432 9ec4 3335 b9f4 4133 a376 6232
00000040: 2c90 f82f 0576 ab30 645f 2c34 94c7 9131
00000050: c984 342f 74cc 4932 d76b 3b32 1e93 1f34
00000060: 3160 f531 e4e8 8132 6e52 3532 8d4a 0b35
00000070: 4f2f 6734 07b0 0032 79e4 0d34 1b42 5133
00000080: 186c 7531 e7f1 be35 fc10 0234 b757 7933
00000090: 2d14 0f34 fc81 be32 eb20 ca31 af06 8431
000000a0: e582 ca34 9dbd c332 5462 e834 9b4d d334
000000b0: e1d8 2c30 d004 8a2f c020 a130 b93d 4832
000000c0: 6698 d434 476a 2233
1.6887353e-07 1.5181064e-07 2.6425948e-08 2.3825824e-09 3.6811297e-08 8.480447e-08 1.9446302e-08 2.7118228e-08
1.0487348e-09 4.2103754e-10 1.9935088e-07 1.4960521e-07 1.5461072e-08 6.696881e-07 4.5158888e-08 1.3181906e-08
4.5213377e-10 1.2475431e-09 1.6053451e-07 4.242745e-09 1.641808e-10 1.1746227e-08 1.09093525e-08 1.486155e-07
7.141374e-09 1.5123483e-08 1.0554329e-08 5.189002e-07 2.1530762e-07 7.490605e-09 1.3214766e-07 4.8721727e-08
3.5713636e-09 1.4226506e-06 1.2113372e-07 5.8054606e-08 1.3325253e-07 2.2178021e-08 5.882716e-09 3.8424655e-09
3.772067e-07 2.2787214e-08 4.328491e-07 3.9358278e-07 6.288144e-10 2.5105473e-10 1.17236e-09 1.1655566e-08
3.9598962e-07 3.7815223e-08

exp_avg f4 [10]
00000000: eb51 b02f 653b 5fad 47b6 73ad 91ed 7c2d
00000010: 5c8f c22d 8c97 4e2e cff7 03af 0400 80ad
00000020: 00aa 31ad 295c bf2e
3.207242e-10 -1.2689271e-11 -1.38534245e-11 1.4377292e-11 2.2118911e-11 4.6973578e-11 -1.200242e-10 -1.4551922e-11
-1.0099033e-11 8.702045e-11

exp_avg_sq f4 [10]
00000000: 6afe e61d 5669 441a 46c6 a31a 20d6 d41a
00000010: a801 031a f0b4 e51c 6067 2b1d b464 6e1d
00000020: 40cf cb1c 56c2 0f1c
6.114355e-21 4.061694e-23 6.773555e-23 8.802708e-23 2.7091503e-23 1.520072e-21 2.2685105e-21 3.15511e-21
1.3486986e-21 4.7565904e-22

exp_avg f4 [10]
00000000: 1bd7 063a 2a44 ecb7 3406 f63a 1576 5638
00000010: 38b6 91ba c885 a0ba 14d1 e73a df62 46ba
00000020: 733c 1bba e7b8 feb9
0.00051437475 -2.8165134e-05 0.0018770159 5.113155e-05 -0.0011116927 -0.0012246901 0.0017686212 -0.00075678335
-0.00059217884 -0.00048584418

exp_avg_sq f4 [10]
00000000: 1a1c 6632 e665 fd30 93ab 1d34 0972 de2f
00000010: 87d5 5a33 3474 8833 97ac 1634 1d1b d132
00000020: da3b 7632 5ad0 2732
1.3394152e-08 1.8437134e-09 1.4684183e-07 4.0462592e-10 5.0951282e-08 6.354131e-08 1.4032626e-07 2.4343132e-08
1.4332693e-08 9.768053e-09

exp_avg f4 [10]
00000000: de3a 8f3a d0f2 043a fa52 2b3a 0062 7cb9
00000010: e0a1 7eb9 8d10 7139 809b fc39 9b38 0ab9
00000020: c9f9 19b7 72e9 d9b6
0.0010927578 0.0005071582 0.0006535497 -0.000240691 -0.00024283631 0.00022989717 0.00048181042 -0.00013181793
-9.177668e-06 -6.4942806e-06

exp_avg_sq f4 [10]
00000000: 3ad1 4f33 a90e 3532 b44c a932 faf2 7b31
00000010: 37be 2c31 fb1e 1d31 f281 4e32 9751 6030
00000020: d6a4 5830 0c5a cd2e
4.8386234e-08 1.053892e-08 1.970907e-08 3.6663423e-09 2.5137419e-09 2.2864117e-09 1.2020324e-08 8.160667e-10
7.881459e-10 9.338316e-11

exp_avg f4 [5, 10]
00000000: e033 81b9 5429 63ba 8c86 85b9 a5f5 78ba
00000010: f02f 76ba fb1d 9439 883b 3db9 dd1f 723a
00000020: cfb3 a839 a9a8 90ba 15f3 06ba 3b41 b9ba
00000030: db82 d5b8 2e0f 27ba 9d05 5cba 218b a0b8
00000040: 1622 29ba fcf2 caba ffc7 7739 f0c2 5aba
00000050: 73c1 61ba b225 8ab9 8c44 033c 571c 633b
00000060: 9fa3 aa3b b97a 053c 3d11 a13b 00af 88bb
00000070: a1f0 c73b cf6f 733b b304 fc39 32df 5aba
00000080: 7fb0 3eba a743 013a 397b c7b9 ff86 e1b9
00000090: 0b89 80b8 f446 3ab9 2a18 b4b9 94df 48ba
000000a0: c51e 8eb9 f0d4 08ba 3c8a 88ba 4c15 7fba
000000b0: b11a 8bba 8083 efb9 9b7e 37ba d595 ff3a
000000c0: ec7d 0ab9 b967 76ba
-0.00024643447 -0.0008665521 -0.00025467982 -0.0009497053 -0.00093912985 0.00028251097 -0.00018046622 0.00092363154
0.00032177425 -0.0011036593 -0.00051479164 -0.001413382 -0.00010181005 -0.00063728064 -0.00083931704 -7.655309e-05
-0.00064519176 -0.0015483792 0.0002363026 -0.0008345088 -0.0008611895 -0.00026349496 0.008011948 0.0034654343
0.0052074934 0.008146935 0.004915385 -0.0041712523 0.0061016832 0.00371455 0.00048068687 -0.0008349299
-0.0007274225 0.00049310405 -0.00038048046 -0.00043015924 -6.129042e-05 -0.00017764774 -0.0003435028 -0.000766271
-0.00027107276 -0.00052197184 -0.0010417174 -0.00097306515 -0.0010612813 -0.00045683607 -0.00069997617 0.001949961
-0.00013207615 -0.0009399611

exp_avg_sq f4 [5, 10]
00000000: 6eff 2a31 7576 0433 2097 7231 d7e8 2033
00000010: 5ff2 1e33 b353 6c31 384f df30 41a7 1a33
00000020: 4b6d 9231 cf66 5933 f3da 5032 6b39 cc33
00000030: 6e40 3731 40b7 b832 73dd 4733 6709 9031
00000040: 0da9 d732 d32f d333 90a9 8432 26ed 3633
00000050: 56e2 7b33 dd45 a033 1774 3336 63a2 0635
00000060: a665 9635 7321 3936 6024 a035 e919 4435
00000070: ccb2 cc35 9bf4 1835 a10b 2132 b6fc f232
00000080: 0521 b932 12a2 2932 3b34 cb31 630d 0132
00000090: f791 2b2f 0bb0 b930 ca59 a431 5f9c cc32
000000a0: 3216 5431 3d13 4632 6bdd 4433 be69 2c33
000000b0: 62a3 4c33 7238 1932 2b14 b232 638e 2b34
000000c0: e26c 5530 2100 2133
2.488345e-09 3.084138e-08 3.530154e-09 3.746467e-08 3.7007677e-08 3.4390097e-09 1.6247901e-09 3.6008036e-08
4.2615844e-09 5.0617754e-08 1.2156977e-08 9.5099345e-08 2.666663e-09 2.1503752e-08 4.6534705e-08 4.1920205e-09
2.510617e-08 9.834152e-08 1.544393e-08 4.2590862e-08 5.8646343e-08 7.463289e-08 2.6740652e-06 5.0155194e-07
1.1205454e-06 2.7586618e-06 1.1931515e-06 7.3053394e-07 1.5251221e-06 5.698036e-07 9.3740775e-09 2.8287428e-08
2.155185e-08 9.873945e-09 5.9140155e-09 7.511832e-09 1.5604217e-10 1.3510556e-09 4.783236e-09 2.3819835e-08
3.0862677e-09 1.1529491e-08 4.5836185e-08 4.0143043e-08 4.7646047e-08 8.918606e-09 2.0731099e-08 1.5977416e-07
7.764368e-10 3.748585e-08

exp_avg f4 [5]
00000000: b6f3 bd2d ee7c 1f2e 22db f92e caa1 842e
00000010: b072 48ae
2.1595042e-11 3.6263374e-11 1.1362135e-10 6.0314045e-11 -4.5576598e-11

exp_avg_sq f4 [5]
00000000: a863 be1a 90ee 621c 68b7 8f1e 2576 901c
00000010: 06a7 f71a
7.874316e-23 7.508546e-22 1.5216569e-20 9.55966e-22 1.02426647e-22

exp_avg f4 [5]
00000000: 305d 0d35 87ad 7834 bdd5 3e35 0416 9434
00000010: 8016 a334
5.26622e-07 2.3159929e-07 7.1091546e-07 2.7583167e-07 3.0377487e-07

exp_avg_sq f4 [5]
00000000: 2efc 9228 8e4c 5c27 00df 2c29 eb53 9d27
00000010: 1b13 c627
1.6318622e-14 3.0572634e-15 3.8385094e-14 4.3667238e-15 5.4976754e-15

exp_avg f4 [5]
00000000: 57d7 033a 3a6e 7239 9418 5c3a c2bb 8039
00000010: a730 9d39
0.00050293416 0.00023119981 0.00083959964 0.00024553953 0.00029981622

exp_avg_sq f4 [5]
00000000: 6c20 3332 36b2 1a31 d1ba f532 ba4e 2931
00000010: b461 8131
1.0426543e-08 2.251125e-09 2.8606708e-08 2.4637488e-09 3.7655017e-09

exp_avg f4 [5]
00000000: ddc9 ef39 6ada 2c39 f25d 26bb e855 8c39
00000010: cc0b 4439
0.00045736032 0.00016484564 -0.0025385586 0.00026766886 0.00018696411

exp_avg_sq f4 [5]
00000000: 7f50 1332 ad5c b630 57d4 8d34 9981 4731
00000010: e160 d330
8.574829e-09 1.3268583e-09 2.6417794e-07 2.903198e-09 1.5379805e-09

exp_avg f4 [5]
00000000: 3e54 4b3a b364 d939 82bf 9fba 2c73 fa39
00000010: 8be2 e439
0.00077563885 0.00041464492 -0.0012187811 0.00047769526 0.00043656336

exp_avg_sq f4 [5]
00000000: 87c1 d432 aeba 0032 9f0f 8433 ff3c 1f32
00000010: ce69 0a32
2.4768054e-08 7.493027e-09 6.1495705e-08 9.268887e-09 8.056714e-09

exp_avg f4 [5]
00000000: cafc a6b8 3089 a7b7 b6a7 b539 24c3 4ab8
00000010: 87b0 07b8
-7.9625825e-05 -1.9971834e-05 0.00034647965 -4.8342292e-05 -3.2350912e-05

exp_avg_sq f4 [5]
00000000: eff7 8e2f d7cb ab2d 9e0b a931 123c d02e
00000010: 4ee4 4a2e
2.6005817e-10 1.9530972e-11 4.919868e-09 9.4694155e-11 4.6132258e-11

exp_avg f4 [5]
00000000: 70f7 72b7 be05 5cb7 6d95 fbb8 d4f1 62b7
00000010: 4a9f 67b7
-1.4481935e-05 -1.3114359e-05 -0.000119964454 -1.3526955e-05 -1.380576e-05

exp_avg_sq f4 [5]
00000000: 11c9 1b2d d3d7 fa2c 0c2b 2130 a8e8 032d
00000010: 6018 0a2d
8.855376e-12 7.1293887e-12 5.863263e-10 7.498148e-12 7.849804e-12

exp_avg f4 [3, 5]
00000000: 0000 0000 0000 0000 0000 0000 0000 0000
00000010: 0000 0000 9f7c a4b9 38d3 52b9 ada1 0cbc
00000020: 5887 69b8 d31e 7cb9 633d a7ba f4ff 58b9
00000030: bef4 ecba 9005 f8b9 344b f8ba
0.0 0.0 0.0 0.0 0.0 -0.00031373368 -0.00020105846 -0.008583468
-5.5677578e-05 -0.00024044076 -0.0012759384 -0.00020694715 -0.001807831 -0.0004730639 -0.0018943311

exp_avg_sq f4 [3, 5]
00000000: 0000 0000 0000 0000 0000 0000 0000 0000
00000010: 0000 0000 7ee2 8d31 3873 e530 4b8a 4936
00000020: 5d6c 0c2f ea04 2931 b761 8e33 f773 0431
00000030: bde8 1434 a6f6 1b32 a9b5 1d34
0.0 0.0 0.0 0.0 0.0 4.1293893e-09 1.669469e-09 3.003183e-06
1.2771424e-10 2.459553e-09 6.6301645e-08 1.9274446e-09 1.3868244e-07 9.078269e-09 1.4687852e-07

exp_avg f4 [3]
00000000: 0000 0000 82b4 77bc 373c 50bd
0.0 -0.01511872 -0.050838675

exp_avg_sq f4 [3]
00000000: 0000 0000 9a86 1c37 8350 dd38
0.0 9.329664e-06 0.00010553098
