lightning_logs/version_90/checkpoints/epoch=3-step=8.ckpt (torch, 28460 bytes, 56 tensors)

layers.0.weight f4 [5]
0	0x3f8002a6	1.0000808
1	0x3f802dc2	1.0013964
2	0x3f8046e6	1.0021636
3	0x3f807055	1.0034281
4	0x3f7e91c6	0.9944118

layers.0.bias f4 [5]
0	0xb8104bdc	-3.4402925e-05
1	0x34ad61b2	3.2294844e-07
2	0xb8cfc93c	-9.908012e-05
3	0x388651f0	6.40488e-05
4	0x37b51bba	2.1589793e-05

layers.0.running_mean f4 [5]
0	0x4283981c	65.79709
1	0x42838587	65.760796
2	0x42837fce	65.74962
3	0x42838a66	65.77031
4	0x428383ec	65.75766

layers.0.running_var f4 [5]
0	0x3f100832	0.56262505
1	0x3f0e9b95	0.5570615
2	0x3f104b95	0.5636533
3	0x3f0f901f	0.56079286
4	0x3f130fe5	0.5744613

layers.1.weight f4 [10, 5]
0	0xbedc7f74	-0.4306599
1	0xbe0a7c00	-0.13523865
2	0xbea2cdf7	-0.31797764
3	0xbeb56d01	-0.35434726
4	0x3ecbcee5	0.39806286
5	0x3e6e6e8d	0.2328436
6	0xbe376ad3	-0.17911844
7	0xbcfcaa33	-0.030842876
8	0xbebb943f	-0.3663654
9	0x3c4889be	0.012239872
10	0x3e5e84d9	0.21730365
11	0x3dca3575	0.09873477
12	0xbde10ff6	-0.109893724
13	0xbea03e64	-0.312976
14	0x3e48b39f	0.1959977
15	0xbea15282	-0.3150826
16	0x3ec0b3e8	0.37637258
17	0x3e822468	0.254184
18	0xbe82844e	-0.25491565
19	0xbd95422d	-0.07288013
20	0x3ec9da58	0.39424396
21	0xbe935ff0	-0.28784132
22	0xbe8c506c	-0.27405107
23	0xbde51955	-0.11186472
24	0xbe90c2ac	-0.28273523
25	0x3e8dec05	0.2771913
26	0xbe26ceb8	-0.16289794
27	0xba6a55ed	-0.00089391955
28	0xbcfbf34e	-0.030755665
29	0xbe827c9c	-0.25485694
30	0x3ed5c2dc	0.41750228
31	0xbe7f1b61	-0.24912788
32	0x3e1d4571	0.15358521
33	0xbe07194d	-0.13193245
34	0x3ec04352	0.3755136
35	0x3e78cfa5	0.2429796
36	0x3e39a536	0.18129429
37	0x3de9a9e4	0.11409357
38	0xbe9fb274	-0.31190836
39	0xbebd9995	-0.37031236
40	0x3dc3f366	0.09567909
41	0x3da06061	0.07830883
42	0xbeb8acc3	-0.36069307
43	0x3ecabd81	0.39597705
44	0x3d8be283	0.06830313
45	0x3cf2e5e4	0.029650636
46	0xbeb7d66b	-0.35905775
47	0xbea6c445	-0.32571617
48	0x3d0316ae	0.03200405
49	0xbedde253	-0.43336734

layers.1.bias f4 [10]
0	0x3e5faa7a	0.21842375
1	0x3ed200f8	0.41016364
2	0xbe3107bb	-0.17288105
3	0x3ed76a5e	0.4207334
4	0xbdb27305	-0.087133445
5	0x3e58bd84	0.21166044
6	0x3b9c5723	0.0047711297
7	0x3d53b7b2	0.051688857
8	0xbecefb6b	-0.40426192
9	0x3d8f066f	0.06983649

layers.2.weight f4 [10]
0	0x3f80c1aa	1.0059102
1	0x3f7d93ee	0.9905385
2	0x3f811eba	1.0087502
3	0x3f7d9f68	0.9907136
4	0x3f80c93f	1.0061415
5	0x3f7d8f44	0.9904673
6	0x3f80e6d5	1.0070444
7	0x3f809f03	1.0048527
8	0x3f81307c	1.0092921
9	0x3f7ef533	0.99592894

layers.2.bias f4 [10]
0	0xbbd2a6e3	-0.006428586
1	0xbc1bc36a	-0.00950704
2	0x3a076472	0.0005164809
3	0xbc105925	-0.008810316
4	0x3b82d79e	0.0039929887
5	0x3c038039	0.008026176
6	0x3b84efb0	0.0040568933
7	0x3a86e384	0.0010291194
8	0x3ba3ee58	0.005002778
9	0x3b3e774b	0.0029062803

layers.2.running_mean f4 [10]
0	0x3e11ad27	0.14226209
1	0x3e88cd86	0.26719302
2	0xbde6a73c	-0.11262366
3	0x3e8c4cc9	0.27402332
4	0xbd688f69	-0.05677739
5	0x3e0d2503	0.1378365
6	0x3b4bf919	0.0031123816
7	0x3d09c53a	0.033635356
8	0xbe86d79e	-0.26336378
9	0x3d3a72ce	0.045519643

layers.2.running_var f4 [10]
0	0x3f3bb876	0.7332834
1	0x3efe6f4c	0.49694288
2	0x3ef5a86e	0.47980064
3	0x3f1f2601	0.62167364
4	0x3f225147	0.6340527
5	0x3ef0b765	0.4701492
6	0x3f1adf41	0.6049691
7	0x3f12c0a9	0.57325226
8	0x3f10d9b2	0.56582177
9	0x3f229e42	0.6352273

layers.4.weight f4 [5, 10]
0	0x3dfef233	0.124485396
1	0x3d66a362	0.056308158
2	0xbd50a79a	-0.050941087
3	0x3e9d08f0	0.3067088
4	0xbd8b17c1	-0.0679164
5	0x3e306e8d	0.17229672
6	0x3e92deee	0.28685707
7	0xbde06c26	-0.10958128
8	0x39ca7b66	0.0003862038
9	0x3e9a7ff9	0.3017576
10	0xbe677739	-0.22604074
11	0x3e989ba3	0.2980624
12	0xbdad6b7d	-0.084677674
13	0x3e89e845	0.2693502
14	0xbe70a029	-0.23498596
15	0xbe007207	-0.12543498
16	0x3dc69e25	0.096981324
17	0xbe420494	-0.18947059
18	0x3dbf9142	0.093538776
19	0x3d8e3f85	0.06945709
20	0xbe956709	-0.29180172
21	0x3e49da58	0.19712198
22	0xbe180293	-0.14844732
23	0x3de89340	0.11356211
24	0x3c39b2f1	0.011334167
25	0xbe156000	-0.14587402
26	0xbe7ac6ce	-0.244899
27	0x3dfcc38c	0.12341985
28	0x3e7ef878	0.24899471
29	0xbda8084c	-0.082047075
30	0x3e9b9673	0.3038822
31	0x3e30cd4a	0.17265812
32	0xbe093546	-0.13399228
33	0x3e81af51	0.25329068
34	0xbe83155e	-0.2560224
35	0xbe753dc3	-0.23949341
36	0xbd0ab001	-0.033859257
37	0x3e7036b6	0.2345837
38	0xbd7ff587	-0.062490012
39	0x3e22f0b3	0.15912132
40	0xbe806298	-0.2507522
41	0xbe3fcb7c	-0.18729967
42	0xbe3c0240	-0.18360233
43	0xbe40668f	-0.18789123
44	0xbe945509	-0.28971127
45	0xbcd7fe02	-0.026366238
46	0xbd8ec157	-0.069704704
47	0x3b25eaae	0.0025316882
48	0x3e8cc775	0.27495924
49	0xbcc6703e	-0.024223443

layers.4.bias f4 [5]
0	0xbc00e175	-0.007866253
1	0xbe89c9d1	-0.26911786
2	0xbde71767	-0.112837605
3	0xbe97606a	-0.29565746
4	0xbe990a3a	-0.29890615

layers.5.weight f4 [5]
0	0x3f7e2c57	0.9928641
1	0x3f7e8956	0.9942831
2	0x3f8082e4	1.0039945
3	0x3f7da763	0.99083537
4	0x3f7db929	0.99110657

layers.5.bias f4 [5]
0	0x3c2301a0	0.009949118
1	0x3c195ba2	0.009360226
2	0x3b6769ec	0.0035310937
3	0xbc1ef88b	-0.009702812
4	0xbc0366f5	-0.008020152

layers.5.running_mean f4 [5]
0	0x3e8b0e04	0.2715913
1	0xbe386656	-0.18007788
2	0xbe0260f6	-0.127323
3	0xbdb9de0e	-0.09075557
4	0xbee7d908	-0.4528277

layers.5.running_var f4 [5]
0	0x3ec38a93	0.3819166
1	0x3ec1228a	0.37721664
2	0x3ecb73a8	0.39736676
3	0x3ee0f179	0.4393423
4	0x3eed6e63	0.4637328

layers.7.weight f4 [5]
0	0x3f8145ca	1.0099423
1	0x3f8145db	1.0099443
2	0x3f814442	1.0098956
3	0x3f7d6eaf	0.98997015
4	0x3f7d6c6c	0.98993564

layers.7.bias f4 [5]
0	0x3c24473f	0.010026752
1	0x3c246e20	0.0100360215
2	0x3c23fd0d	0.0100090625
3	0xbc22ff71	-0.009948597
4	0xbc234b67	-0.009966708

layers.7.running_mean f4 [5]
0	0x3e86ea4f	0.26350638
1	0x3e8804e6	0.26566237
2	0x3e87868d	0.26469842
3	0x3e882554	0.2659098
4	0x3e88523b	0.26625237

layers.7.running_var f4 [5]
0	0x3f17275d	0.5904444
1	0x3f0cbd49	0.54976326
2	0x3f0a446b	0.5401065
3	0x3f14a835	0.58069164
4	0x3f082509	0.5318151

layers.8.rho f4 [5]
0	0x3fc6fd73	1.5546097
1	0x3fbaae33	1.4584411
2	0x3fec19f4	1.844542
3	0x3fb23b13	1.3924278
4	0x3fc3d19c	1.5298343

layers.8.gam f4 [5]
0	0x3ff96518	1.9483976
1	0x3f87f260	1.0620842
2	0x3f9c5020	1.2211952
3	0x3fcd8490	1.605608
4	0x3fbf1e9f	1.493122

layers.9.weight f4 [3, 5]
0	0x3e1c0984	0.15238005
1	0x3df43180	0.11923504
2	0x3dc78892	0.097428456
3	0xbe2d7420	-0.1693883
4	0x3e282c9c	0.16423267
5	0x3e3c6f92	0.18401936
6	0x3daafdb4	0.08349171
7	0x3e3e71da	0.18598118
8	0xbdaa9937	-0.08330005
9	0xbeba2f4b	-0.36364207
10	0xbe92d151	-0.2867532
11	0x3db04680	0.08607197
12	0x3eaeadee	0.34117073
13	0x3db41370	0.0879277
14	0xbe85beb2	-0.2612205

layers.9.bias f4 [3]
0	0xbe8a98d3	-0.2706972
1	0x3e99445c	0.29934967
2	0xbeb02205	-0.34400955

exp_avg f4 [5]
0	0x39992865	0.0002921253
1	0x382e3f54	4.154381e-05
2	0xb949a7b2	-0.00019231325
3	0xb95d1fb8	-0.00021088019
4	0x3891858d	6.9390146e-05

exp_avg_sq f4 [5]
0	0x32a77c53	1.9497895e-08
1	0x3102d41c	1.903806e-09
2	0x315152f9	3.0460667e-09
3	0x31b97af2	5.398186e-09
4	0x31c25379	5.655633e-09

exp_avg f4 [5]
0	0x2d57649a	1.2243673e-11
1	0xac004254	-1.8226714e-12
2	0x2da0f4bf	1.8298583e-11
3	0xae0c7826	-3.1939028e-11
4	0xad8ab982	-1.5771166e-11

exp_avg_sq f4 [5]
0	0x1b6aa297	1.9408562e-22
1	0x1abd4f2c	7.829648e-23
2	0x1b807263	2.1249744e-22
3	0x1c32e843	5.919545e-22
4	0x1b9ae11a	2.5622631e-22

exp_avg f4 [10, 5]
0	0x3907706a	0.00012916481
1	0x3a9c777c	0.0011937465
2	0xba137caf	-0.0005626184
3	0x3a398b44	0.0007077942
4	0x3a345368	0.00068788836
5	0x39c8a4e2	0.0003826982
6	0xb8b73fdf	-8.738017e-05
7	0x3a0fe7db	0.0005489566
8	0x398a4ce8	0.0002637871
9	0x39782dc5	0.00023668174
10	0xb99c4d32	-0.00029812154
11	0x3a0e5ad1	0.0005430403
12	0xb9cc4c9a	-0.00038966985
13	0x38cc09af	9.729282e-05
14	0xb8125179	-3.488499e-05
15	0x3a80e58c	0.0009834035
16	0x3a42e0a6	0.0007433988
17	0x39595736	0.00020727221
18	0x39972520	0.00028828625
19	0xba0f29cf	-0.0005461247
20	0x384d9a16	4.9019312e-05
21	0x3a0361be	0.0005011818
22	0x381a3172	3.676251e-05
23	0xb9c62488	-0.0003779272
24	0xb9a4afe6	-0.00031411572
25	0xb80c608a	-3.346851e-05
26	0x3a3515ad	0.0006907832
27	0xba022162	-0.0004964081
28	0xb9fa91b5	-0.00047792276
29	0xb9cc8a69	-0.00039013036
30	0x3ac9db0b	0.0015400363
31	0x396c91ac	0.00022560981
32	0xbaba928a	-0.0014234346
33	0xb585f93c	-9.981809e-07
34	0xba8634c3	-0.0010239113
35	0xb9888a0a	-0.00026042789
36	0x3a49f447	0.00077039417
37	0x37a03e4c	1.9102496e-05
38	0x39a63e3b	0.00031708353
39	0xb82c63f5	-4.1101088e-05
40	0xb9a227da	-0.0003092874
41	0xbad9fff1	-0.0016632063
42	0x39a3b76d	0.00031226446
43	0x3a413f77	0.0007371823
44	0xba07249f	-0.0005155298
45	0x3adbcee4	0.0016770032
46	0xb9bdf728	-0.00036233035
47	0x39d2e905	0.00040227934
48	0xba377541	-0.0006998368
49	0x38ba8c74	8.8953326e-05

exp_avg_sq f4 [10, 5]
0	0x31a57e5a	4.8164965e-09
1	0x3320878e	3.737619e-08
2	0x3249727b	1.172577e-08
3	0x328bf186	1.6291562e-08
4	0x3251ccdb	1.221198e-08
5	0x318f299d	4.1665786e-09
6	0x30e81f63	1.6889142e-09
7	0x32e42b54	2.6562397e-08
8	0x313515a2	2.6351263e-09
9	0x31c9a333	5.8684235e-09
10	0x3190300d	4.1964143e-09
11	0x32902986	1.6782689e-08
12	0x32c5bbd7	2.3019238e-08
13	0x31dfb571	6.5107817e-09
14	0x3112462d	2.1285687e-09
15	0x331cc9f2	3.650525e-08
16	0x325fe84b	1.3033126e-08
17	0x3154ec97	3.0984546e-09
18	0x32b2bf26	2.0808852e-08
19	0x31ee48a0	6.934968e-09
20	0x31393021	2.6948401e-09
21	0x31fb0173	7.305226e-09
22	0x325863c7	1.25955415e-08
23	0x3238ae06	1.0749778e-08
24	0x31aacde8	4.97106e-09
25	0x2eabde9c	7.815723e-11
26	0x324e02ab	1.1991385e-08
27	0x32bdcb40	2.2094923e-08
28	0x33265118	3.872364e-08
29	0x316a650a	3.4108916e-09
30	0x3369c1a2	5.4425648e-08
31	0x32409808	1.1210439e-08
32	0x3352ccd7	4.9080736e-08
33	0x30c6140e	1.4412096e-09
34	0x331ef987	3.7014185e-08
35	0x3187dca7	3.9541024e-09
36	0x32cd5006	2.3901531e-08
37	0x3082346d	9.473645e-10
38	0x31eae2d6	6.8360846e-09
39	0x30b522c1	1.3179361e-09
40	0x3236d50c	1.06422355e-08
41	0x33a16504	7.5155214e-08
42	0x31af3060	5.09867e-09
43	0x32937a73	1.7168736e-08
44	0x31e15cb0	6.558899e-09
45	0x33919309	6.778834e-08
46	0x31cf7ecc	6.038908e-09
47	0x3185e9a5	3.8973718e-09
48	0x32a2e891	1.8965041e-08
49	0x3145e20c	2.8795766e-09

exp_avg f4 [10]
0	0xad99118e	-1.7401882e-11
1	0x2e975aa5	6.882787e-11
2	0x2d493fe3	1.1439713e-11
3	0xac7fb328	-3.6337131e-12
4	0xae43ba1d	-4.450317e-11
5	0xae4e9b77	-4.6977058e-11
6	0x2decb08d	2.6908498e-11
7	0xada19c97	-1.837312e-11
8	0xaf17fdb6	-1.3823506e-10
9	0x2ea0bf89	7.309981e-11

exp_avg_sq f4 [10]
0	0x1bc4ee67	3.2579544e-22
1	0x1be70cfa	3.822413e-22
2	0x1b3b07c4	1.5470787e-22
3	0x1bc1ec19	3.2081746e-22
4	0x1b5518b8	1.7626934e-22
5	0x1bacf62e	2.8614103e-22
6	0x1bb543f5	2.9987854e-22
7	0x1a92b2c6	6.067301e-23
8	0x1d00a310	1.702496e-21
9	0x1befdd05	3.9682064e-22

exp_avg f4 [10]
0	0xb940a50e	-0.00018372035
1	0x3a2b2a6c	0.00065294537
2	0xb88d87d1	-6.748702e-05
3	0x398848df	0.00025994235
4	0xb9084b0e	-0.00012997931
5	0x39e295c3	0.0004321766
6	0xb8e47e3a	-0.00010895399
7	0xb98368d6	-0.00025064376
8	0xba3fac84	-0.00073117786
9	0x3916bfa7	0.00014376511

exp_avg_sq f4 [10]
0	0x30f008d8	1.7464812e-09
1	0x32652cbc	1.3339726e-08
2	0x2f115cf1	1.3220693e-10
3	0x311bfb7e	2.2698425e-09
4	0x2ff02cc7	4.3687562e-10
5	0x3196bca0	4.3870187e-09
6	0x2ffff1ef	4.6556134e-10
7	0x30dbead1	1.6001086e-09
8	0x3294a415	1.7304083e-08
9	0x31a763f3	4.8717026e-09

exp_avg f4 [10]
0	0x38c0f236	9.200389e-05
1	0x3a2ee8a7	0.0006672241
2	0xb871a853	-5.761564e-05
3	0x3926b572	0.00015898587
4	0xb952a045	-0.00020086866
5	0xb913c612	-0.000140928
6	0xb9124bc2	-0.00013951867
7	0xb8fc18bc	-0.000120209035
8	0x384484b2	4.6853624e-05
9	0x3806a5ef	3.2102627e-05

exp_avg_sq f4 [10]
0	0x30f02f76	1.7475787e-09
1	0x3265ab7b	1.33685445e-08
2	0x3053142a	7.679001e-10
3	0x30706754	8.745833e-10
4	0x314a911a	2.947735e-09
5	0x30aebbf6	1.2713588e-09
6	0x31c32ed7	5.680572e-09
7	0x30106baf	5.253992e-10
8	0x2f9312cb	2.6752497e-10
9	0x2e80891f	5.845124e-11

exp_avg f4 [5, 10]
0	0xbb16e2a6	-0.0023023277
1	0x3ab393fe	0.0013700721
2	0x39cd5ed2	0.00039171294
3	0x37782ff0	1.4793113e-05
4	0x3b218520	0.0024646
5	0x3b246990	0.0025087334
6	0xb994c8ab	-0.0002837827
7	0x3b22f499	0.002486503
8	0x3a125f4d	0.0005583659
9	0x3a600589	0.00085457467
10	0x39ec234b	0.00045039723
11	0x3a858cdd	0.0010189075
12	0x3a57a553	0.00082262343
13	0xb93eb716	-0.00018188017
14	0x39cad1c1	0.0003868472
15	0x39c0a3d1	0.00036743146
16	0x3a465abf	0.0007566623
17	0x382ee168	4.169476e-05
18	0xb9ba9443	-0.00035587148
19	0x37680236	1.3828792e-05
20	0x381d101e	3.7446727e-05
21	0x39efa9a2	0.0004571202
22	0x39406593	0.00018348386
23	0x3a47bdac	0.0007619511
24	0x3997a370	0.00028922735
25	0x38bb08ad	8.918471e-05
26	0x39ab686c	0.00032693462
27	0x3a177eec	0.00057791057
28	0xb9cb14a5	-0.0003873456
29	0x3a0c0974	0.0005341985
30	0x39e84f6e	0.00044309668
31	0x39033ffa	0.00012516967
32	0x39fcc621	0.00048212803
33	0xb9b4a58e	-0.00034455623
34	0xb97c7240	-0.00024075154
35	0xb919936e	-0.00014646139
36	0x38c2e947	9.294092e-05
37	0xb98466c2	-0.00025253562
38	0xb93f8f8a	-0.00018268652
39	0xb9c727ea	-0.00037985976
40	0xb9884ae3	-0.00025995736
41	0xba411a5d	-0.0007366294
42	0xba12a5ff	-0.00055941934
43	0xbac9ce80	-0.0015396625
44	0xb92bb338	-0.00016374595
45	0xb9864fb1	-0.00025617846
46	0x39be80d1	0.000363356
47	0xba9e84a8	-0.0012093978
48	0xbb173cfc	-0.002307712
49	0x3a502d94	0.0007941362

exp_avg_sq f4 [5, 10]
0	0x3412bdb3	1.3666322e-07
1	0x33468eeb	4.623045e-08
2	0x31a8a911	4.908664e-09
3	0x31f22be8	7.0481185e-09
4	0x34117ea6	1.3550252e-07
5	0x3417b1c3	1.412764e-07
6	0x316d6360	3.4544527e-09
7	0x341656c7	1.4001408e-07
8	0x321d344d	9.150495e-09
9	0x335748c5	5.0124772e-08
10	0x319cb302	4.5605484e-09
11	0x33000ec4	2.981575e-08
12	0x32cf8de3	2.4162494e-08
13	0x3183710b	3.8254533e-09
14	0x31805276	3.734665e-09
15	0x31672741	3.3637237e-09
16	0x32a57e87	1.9266066e-08
17	0x31b9e9c6	5.4107856e-09
18	0x31915a7d	4.2303427e-09
19	0x3000f5e2	4.691555e-10
20	0x31b5019d	5.2679767e-09
21	0x32f89772	2.893987e-08
22	0x30c91a3d	1.4632132e-09
23	0x3305e9da	3.1179162e-08
24	0x31103b66	2.0988522e-09
25	0x319f3eef	4.6346638e-09
26	0x3195b78c	4.3573376e-09
27	0x32ed9ffb	2.7663182e-08
28	0x32e5d7df	2.6757276e-08
29	0x31e306c1	6.6073373e-09
30	0x31aca28e	5.024339e-09
31	0x2fec54b6	4.298834e-10
32	0x31bb75e0	5.455817e-09
33	0x3149d44d	2.9370029e-09
34	0x3107dc35	1.9770259e-09
35	0x30c929f2	1.4636596e-09
36	0x2fe0af57	4.086995e-10
37	0x3155dd74	3.112146e-09
38	0x308473bf	9.637161e-10
39	0x319739c3	4.401245e-09
40	0x315fde57	3.2577157e-09
41	0x32679edd	1.3482091e-08
42	0x321625bc	8.739729e-09
43	0x337f39ea	5.9424487e-08
44	0x314fbeb9	3.0230878e-09
45	0x3182c069	3.8053725e-09
46	0x322a7f9c	9.924317e-09
47	0x332b51df	3.98885e-08
48	0x3416fa9d	1.4061011e-07
49	0x331b4dc3	3.6159474e-08

exp_avg f4 [5]
0	0x2f8e0d85	2.5839256e-10
1	0x2e599b29	4.9477897e-11
2	0xaf5f0aa4	-2.0285512e-10
3	0x2c692034	3.3129168e-12
4	0x2d5f3b30	1.2689225e-11

exp_avg_sq f4 [5]
0	0x1d89825c	3.6398386e-21
1	0x1bd10ef5	3.4585815e-22
2	0x1d1d2500	2.0797906e-21
3	0x1babda19	2.843052e-22
4	0x1d11cf50	1.9297768e-21

exp_avg f4 [5]
0	0x365b2194	3.2653088e-06
1	0x35448529	7.3209463e-07
2	0xb420600e	-1.4936106e-07
3	0x35b2d2a8	1.3323343e-06
4	0x35e6f691	1.7208096e-06

exp_avg_sq f4 [5]
0	0x2a8ca417	2.4982856e-13
1	0x28844127	1.46832e-14
2	0x27ec7c06	6.5637625e-15
3	0x2944737a	4.3620903e-14
4	0x29d889ca	9.6162295e-14

exp_avg f4 [5]
0	0xba26fa01	-0.0006369651
1	0xb92872c7	-0.00016064486
2	0xb8064fc4	-3.2022377e-05
3	0x397bf7c5	0.00024029527
4	0x39af34b4	0.00033417868

exp_avg_sq f4 [5]
0	0x3227d65b	9.769418e-09
1	0x30447e17	7.148357e-10
2	0x30a8a6a5	1.2270972e-09
3	0x30c3fd50	1.4260113e-09
4	0x319b238e	4.515136e-09

exp_avg f4 [5]
0	0xbb3df160	-0.0028982982
1	0xbadcea94	-0.0016854578
2	0xbb99089e	-0.0046702167
3	0x3ae1ac90	0.0017217565
4	0x3c19ed6d	0.009394986

exp_avg_sq f4 [5]
0	0x344eb8b7	1.9252444e-07
1	0x338ba638	6.502927e-08
2	0x35083bac	5.075078e-07
3	0x339b192d	7.2223294e-08
4	0x360cdc88	2.0989992e-06

exp_avg f4 [5]
0	0xbb312b84	-0.0027033994
1	0xbabb46df	-0.0014288089
2	0xbb694503	-0.0035594113
3	0x3abdb959	0.0014474794
4	0x3bfa537e	0.0076393476

exp_avg_sq f4 [5]
0	0x3435c2a6	1.6927751e-07
1	0x33494739	4.6863736e-08
2	0x349e5c65	2.949702e-07
3	0x33594a73	5.059196e-08
4	0x35bab997	1.3912094e-06

exp_avg f4 [5]
0	0x39d93820	0.00041431282
1	0x39905cb8	0.000275349
2	0x3a290e97	0.00064490124
3	0xb98b8624	-0.0002661209
4	0xbab60d1a	-0.0013889403

exp_avg_sq f4 [5]
0	0x3186c323	3.9220978e-09
1	0x30edd787	1.7305276e-09
2	0x3225c2da	9.648568e-09
3	0x30ee32b6	1.7331192e-09
4	0x3345c9c3	4.6051138e-08

exp_avg f4 [5]
0	0xb84cd978	-4.8839924e-05
1	0xb89cf991	-7.485145e-05
2	0xb97ac56d	-0.00023915405
3	0x383d72c3	4.516799e-05
4	0x39a166a0	0.00030784775

exp_avg_sq f4 [5]
0	0x2e7547f2	5.577045e-11
1	0x2f1066f8	1.3133306e-10
2	0x30b5fdaf	1.3241584e-09
3	0x2e6f96a4	5.4476104e-11
4	0x311f2f47	2.316442e-09

exp_avg f4 [3, 5]
0	0x00000000	0.0
1	0x00000000	0.0
2	0x00000000	0.0
3	0x00000000	0.0
4	0x00000000	0.0
5	0xbc847cc0	-0.016172767
6	0xbc9a8f9c	-0.018867306
7	0xbcaa59f0	-0.020794839
8	0xbca731b9	-0.020409452
9	0xbcc30e89	-0.023810642
10	0xb8a7c278	-7.999403e-05
11	0xbb1b2804	-0.0023674974
12	0xbb27387d	-0.0025515847
13	0xbb1d1fce	-0.0023975256
14	0x00000000	0.0

exp_avg_sq f4 [3, 5]
0	0x00000000	0.0
1	0x00000000	0.0
2	0x00000000	0.0
3	0x00000000	0.0
4	0x00000000	0.0
5	0x36cab0aa	6.0406355e-06
6	0x370b1382	8.289588e-06
7	0x37294f87	1.0091701e-05
8	0x37265d1c	9.91605e-06
9	0x37619e2b	1.3447871e-05
10	0x2fb1a602	3.2314068e-10
11	0x341aeec5	1.4429231e-07
12	0x3435b62d	1.6923214e-07
13	0x34192782	1.4263608e-07
14	0x00000000	0.0

exp_avg f4 [3]
0	0x00000000	0.0
1	0xbe273d7e	-0.16332051
2	0xbb53c25c	-0.0032311892

exp_avg_sq f4 [3]
0	0x00000000	0.0
1	0x3a24a51d	0.00062807073
2	0x3491494a	2.706168e-07
