lightning_logs/version_67/checkpoints/epoch=0-step=2.ckpt (torch, 28015 bytes, 56 tensors)

layers.0.weight f4 [5]
000000 ac eb 7f 3f 25 1f 80 3f 33 08 80 3f ed 3d 80 3f
       0.9996898 1.0009505 1.0002502 1.0018898
000010 85 d6 7f 3f
       0.99936706

layers.0.bias f4 [5]
000000 f4 99 a4 b7 66 37 4c b7 40 82 4a b8 64 ac 65 b7
       -1.9622013e-05 -1.2172246e-05 -4.8281858e-05 -1.36896015e-05
000010 40 98 de 36
       6.63384e-06

layers.0.running_mean f4 [5]
000000 5e 7e 99 41 18 90 99 41 67 85 99 41 76 7b 99 41
       19.186703 19.195358 19.190138 19.185284
000010 88 8e 99 41
       19.194595

layers.0.running_var f4 [5]
000000 21 3d 5f 3f 9a 87 5f 3f 0e 55 60 3f 3b b7 5f 3f
       0.8720265 0.87316287 0.87629783 0.8738896
000010 0f 40 5f 3f
       0.8720712

layers.1.weight f4 [10, 5]
000000 82 b9 4b bd f7 42 92 3e ec b6 74 3e 15 53 43 3d
       -0.04973746 0.28566715 0.23897904 0.047686655
000010 a2 de 96 be 59 8f 84 be 15 ff f2 bd 3f a4 ad 3d
       -0.2946673 -0.25890616 -0.11865059 0.08478593
000020 56 f7 7a 3e 53 8a 6d 3d 9f 19 be 3e 9d 57 77 be
       0.24508414 0.057993244 0.37128922 -0.24154516
000030 89 c8 b7 3e 89 a6 1e be ce 83 a1 3d 1e 76 63 bc
       0.35895184 -0.15493216 0.07886468 -0.013883142
000040 c2 7d d0 be b7 93 e2 be b7 a0 21 be b4 c6 c6 bd
       -0.40720946 -0.44253322 -0.15783964 -0.09705868
000050 eb c8 29 be 2d 5f da 3c 06 d5 2d 3d 9e b1 a2 bc
       -0.1658055 0.026656711 0.042439483 -0.019860085
000060 28 c8 cc 3d f6 de db 3d ca fb b1 be d8 af 35 be
       0.09999114 0.10735886 -0.34762412 -0.1774286
000070 4d 3e cc 3e d1 7c ca 3e 01 b1 a1 be b0 2a 8c 3d
       0.39891282 0.39548352 -0.31580356 0.068440795
000080 9e d1 92 3e bd 3f 82 3e 68 49 fb 3d 74 23 2d be
       0.2867555 0.25439253 0.122698605 -0.16908056
000090 ae 31 16 be b3 30 1a be 51 7f b1 bd e9 38 57 3c
       -0.14667389 -0.1505764 -0.08666862 0.013136127
0000a0 2a d5 95 be dc dc aa be 4e a1 ab be 1c 6e 34 be
       -0.29264194 -0.33371627 -0.33521503 -0.17620128
0000b0 b7 df 8f be cf 52 ac be 06 af 80 3e ca 86 de be
       -0.28100368 -0.33656928 0.25133532 -0.4346221
0000c0 5c c7 df be 4c b3 90 be
       -0.43706787 -0.28261793

layers.1.bias f4 [10]
000000 53 33 b8 3e ae b5 af 3c 38 a0 35 3e 91 35 c0 3e
       0.35976657 0.021448936 0.177369 0.37540868
000010 58 a4 85 be a9 94 2e be 03 68 9a 3e 5d 50 c0 3e
       -0.26101947 -0.17048897 0.3015748 0.37561312
000020 f7 fc 92 be 91 5c 13 be
       -0.28708622 -0.1439078

layers.2.weight f4 [10]
000000 76 de 7f 3f d2 7d 7f 3f ca 7c 7f 3f 55 3f 80 3f
       0.99948823 0.9980136 0.9979979 1.0019327
000010 77 83 7f 3f 65 3f 80 3f 71 3d 80 3f 1a 32 80 3f
       0.99809974 1.0019346 1.001875 1.001529
000020 5e 40 80 3f 77 84 7f 3f
       1.0019643 0.998115

layers.2.bias f4 [10]
000000 fc 26 35 ba d6 e2 fe ba 48 7f ff ba 1f 3b f3 3a
       -0.0006910411 -0.0019446264 -0.0019492889 0.0018557048
000010 c4 c0 77 ba 33 ea cc ba 28 4b f1 3a a6 f3 2d 3a
       -0.00094510266 -0.0015633762 0.0018409239 0.0006635733
000020 ba f1 01 3b f2 ef 02 bb
       0.0019827918 -0.0019979444

layers.2.running_mean f4 [10]
000000 88 02 8c 3d d6 21 86 3b a5 0f 0a 3d a2 19 92 3d
       0.0683642 0.004093389 0.033706326 0.07133795
000010 05 21 4b bd 64 b9 04 bd a6 c0 6a 3d 2c 28 92 3d
       -0.049592037 -0.032403365 0.05731263 0.071365684
000020 f8 69 5f bd c6 f4 df bc
       -0.05454442 -0.027338397

layers.2.running_var f4 [10]
000000 ee c6 5b 3f 25 9e 56 3f b6 a3 5f 3f 32 69 62 3f
       0.8585042 0.8383506 0.8735918 0.88441765
000010 79 76 51 3f fe a7 66 3f 9e b2 5c 3f 72 4f 53 3f
       0.818214 0.90100086 0.8621005 0.825431
000020 77 ec 61 3f 56 66 6e 3f
       0.8825144 0.931249

layers.4.weight f4 [5, 10]
000000 57 e6 87 3d 19 a5 7d 3e 6d a5 67 bd ad 8b 9b 3c
       0.06635731 0.24770011 -0.056554247 0.018987501
000010 10 e0 71 bd e4 2d 86 be 6c 80 94 bd a7 93 19 be
       -0.059051573 -0.26206887 -0.07251057 -0.14997731
000020 1c 78 2b be 13 10 33 be bb ea 37 3e b0 14 4f bd
       -0.16745037 -0.174866 0.17960636 -0.05055684
000030 21 4c 0d bc 29 63 14 3e d5 01 c9 bd 6f ee 82 be
       -0.008624108 0.14490952 -0.098148026 -0.25572535
000040 87 c4 b0 3d 5c 93 69 3e 10 28 3d bd 46 1a 40 3e
       0.086312346 0.2281012 -0.046180785 0.18760023
000050 99 cf 2d 3e 8f b4 07 be 00 67 98 3e a4 8e 88 be
       0.16973723 -0.13252471 0.29766083 -0.26671326
000060 75 97 1c be a2 ae 65 3e af a9 81 be c4 70 37 be
       -0.15292151 0.22429898 -0.2532477 -0.1791411
000070 a8 fa 9a bd 0e f5 9d 3e 47 0a 21 bd 90 91 4d 3e
       -0.0756734 0.30851024 -0.039316442 0.20075059
000080 12 5a 5e be 05 22 79 3d 6e bd 9d 3e 6f 35 7d 3e
       -0.21714047 0.06082346 0.30808586 0.24727415
000090 49 bb 9a be 3d 62 57 bd 68 20 8b 3e 31 05 a4 3d
       -0.30221012 -0.05258392 0.27173162 0.08008803
0000a0 ff c1 15 3e a4 21 30 3e 61 61 28 3e dd 87 4c 3e
       0.14624785 0.17200333 0.16443397 0.19973703
0000b0 f5 32 2f be fb 44 22 3e 58 d1 6b be ef 7a 01 be
       -0.17109282 0.15846626 -0.23029077 -0.12644552
0000c0 47 48 31 3d 9c 86 42 bd
       0.04328182 -0.047491655

layers.4.bias f4 [5]
000000 d2 79 fe bd 0c 5f 02 3d 50 4c 87 3c ad 6a 4a be
       -0.12425579 0.031828925 0.01651588 -0.19767256
000010 3f b1 9f 3e
       0.31189916

layers.5.weight f4 [5]
000000 ae 1e 80 3f 6e 90 7f 3f 67 26 80 3f f7 0b 80 3f
       1.0009363 0.9982976 1.001172 1.0003651
000010 0c 86 7f 3f
       0.99813914

layers.5.bias f4 [5]
000000 1a f7 02 3b 2c 11 03 bb b0 e2 e0 ba 62 f9 02 3b
       0.001998371 -0.001999925 -0.0017157402 0.001998507
000010 31 cd 02 bb
       -0.001995873

layers.5.running_mean f4 [5]
000000 3a 68 8f bd 7c a8 0a 3d 78 bb d6 ba 60 b4 aa 3b
       -0.070023015 0.033852085 -0.0016382774 0.0052094907
000010 8c cf a7 3d
       0.08193883

layers.5.running_var f4 [5]
000000 b6 91 52 3f ab 65 53 3f 50 da 57 3f 9f a3 55 3f
       0.8225359 0.8257701 0.84317493 0.8345279
000010 44 d4 52 3f
       0.8235514

layers.7.weight f4 [5]
000000 ea 40 80 3f 31 88 7f 3f cc 40 80 3f cc 40 80 3f
       1.001981 0.99817187 1.0019774 1.0019774
000010 a7 7b 7f 3f
       0.99798054

layers.7.bias f4 [5]
000000 c8 28 03 3b 0f c6 fc ba 34 98 01 3b bd f4 02 3b
       0.0020013321 -0.00192851 0.0019774558 0.0019982301
000010 a2 11 03 bb
       -0.0019999524

layers.7.running_mean f4 [5]
000000 ac fe 9a 3d 89 d4 9d 3d 48 38 9e 3d b7 f0 9c 3d
       0.07568106 0.077065535 0.077255785 0.076631
000010 66 17 99 3d
       0.07475166

layers.7.running_var f4 [5]
000000 19 de 5b 3f db 2c 60 3f 59 68 5d 3f 3a 17 63 3f
       0.8588577 0.87568444 0.86487347 0.88707316
000010 77 90 5d 3f
       0.8654856

layers.8.rho f4 [5]
000000 ab cf e3 3f 8b f2 de 3f c5 d5 fd 3f ab bb d6 3f
       1.779775 1.7417768 1.9830862 1.6776022
000010 9a 59 e1 3f
       1.7605469

layers.8.gam f4 [5]
000000 c8 47 8a 3f eb 27 db 3f a4 39 8a 3f 8f 83 ef 3f
       1.0803156 1.7121557 1.079884 1.8712023
000010 94 61 ac 3f
       1.3467278

layers.9.weight f4 [3, 5]
000000 03 d8 b5 3e d9 23 31 be 7a 12 90 3c df 23 e3 3d
       0.35516366 -0.17298831 0.017586935 0.11090826
000010 38 50 dd be d7 25 ca 3e 2c 37 c9 3e 6d c2 99 be
       -0.43225265 0.39481995 0.39299905 -0.30031148
000020 1f 74 8b 3e b1 03 65 be f0 aa 42 3e 88 f7 9a 3e
       0.2723703 -0.2236469 0.1901052 0.30266976
000030 cb 52 cf be 4c 3c 49 be f3 39 9e be
       -0.40492854 -0.19651908 -0.30903587

layers.9.bias f4 [3]
000000 15 dc a6 3e 15 14 b5 be 86 5d c4 be
       0.32589784 -0.35366884 -0.38352603

exp_avg f4 [5]
000000 59 6c 48 b9 60 32 29 36 2e 2e f2 39 f4 08 30 b9
       -0.00019113849 2.5212285e-06 0.00046192243 -0.00016788003
000010 9c 9c de b8
       -0.00010614956

exp_avg_sq f4 [5]
000000 f0 f7 89 31 7a de df 2f 04 9d be 32 7e 85 01 31
       4.015412e-09 4.0721543e-10 2.2190314e-08 1.8847852e-09
000010 96 1b 8f 31
       4.164984e-09

exp_avg f4 [5]
000000 5c 8f 1a ae ce cc 0c ae 52 b8 4e 2e 7b 14 0e 2e
       -3.5142875e-11 -3.2014218e-11 4.7002686e-11 3.2305252e-11
000010 6f 3d be 2d
       2.1627781e-11

exp_avg_sq f4 [5]
000000 e5 5a 40 1c e6 f2 ff 1b de e4 13 1b 9e 7a 14 1b
       6.364495e-22 4.234318e-22 1.2233506e-22 1.2281893e-22
000010 86 38 54 1b
       1.7554493e-22

exp_avg f4 [10, 5]
000000 4e 37 08 39 60 3b 9d b9 64 ce be 39 58 6e 07 ba
       0.00012990573 -0.0002998961 0.00036393397 -0.0005166284
000010 c4 87 c5 b8 04 4e 18 b9 68 22 09 3a 34 cc 4a 39
       -9.41898e-05 -0.00014524913 0.0005231262 0.00019340293
000020 e0 e5 5c b7 e8 1f 33 39 6f cf 10 b9 45 6a 12 3a
       -1.3166544e-05 0.00017082656 -0.00013810185 0.00055852934
000030 40 68 22 3a d1 c5 e4 b8 49 02 39 ba 42 a2 06 39
       0.0006195344 -0.000109087334 -0.00070575305 0.00012839682
000040 c1 e5 8e 38 d1 b0 22 39 1c 5f 12 ba c0 d4 be b8
       6.813883e-05 0.00015515393 -0.00055836304 -9.099534e-05
000050 19 7f ec b9 ac 35 97 b9 8a 89 21 3a 7b ed 8c 3a
       -0.00045108123 -0.00028840953 0.00061621575 0.0010751927
000060 26 e3 47 ba 74 ff 51 b9 cf 6c c0 b9 ff d3 23 39
       -0.00076250953 -0.00020026957 -0.00036702162 0.00015623866
000070 39 5a 8d b9 45 0c 96 38 87 d5 d3 b9 5d 9b cd 39
       -0.00026960837 7.154843e-05 -0.00040404146 0.00039216402
000080 3b 61 bc b8 bc 2a da b9 f4 22 53 b9 e8 ad 12 3a
       -8.982649e-05 -0.0004161204 -0.00020135549 0.0005595372
000090 6e eb 29 3a aa 14 94 ba 65 7f bc b9 5a f3 9a ba
       0.000648192 -0.0011297662 -0.0003595307 -0.0011821792
0000a0 fb c2 cd 38 70 63 cf b9 84 33 90 b8 46 fc ca 39
       9.81148e-05 -0.00039556203 -6.8760506e-05 0.000387164
0000b0 71 49 5f 39 3d 01 33 3a e7 02 01 3a ce e3 ac b8
       0.00021294296 0.00068284926 0.0004921392 -8.244031e-05
0000c0 86 34 4f b8 d1 05 2d b9
       -4.9401562e-05 -0.00016500732

exp_avg_sq f4 [10, 5]
000000 fd 02 b9 30 34 5f c4 31 d6 5d fb 31 28 75 7d 32
       1.3461371e-09 5.715174e-09 7.3157294e-09 1.47531765e-08
000010 f9 d8 85 30 7a 86 b0 30 ed 62 8a 32 66 5b d7 31
       9.738691e-10 1.2843906e-09 1.61103e-08 6.2677143e-09
000020 d2 eb 8e 31 74 62 cc 31 b4 57 24 32 f0 fc 93 32
       4.1595536e-09 5.9483742e-09 9.565998e-09 1.7228075e-08
000030 1b 45 17 33 69 7b c4 30 75 2f ff 32 ee 74 bf 31
       3.522028e-08 1.4295952e-09 2.9707488e-08 5.572125e-09
000040 0f 84 d3 2f 3f d2 3e 31 04 09 ac 32 18 e3 be 30
       3.847451e-10 2.776815e-09 2.0027535e-08 1.3888863e-09
000050 10 4d 05 33 3e 21 8e 33 18 25 b6 32 f1 c2 92 33
       3.1036564e-08 6.618437e-08 2.1204457e-08 6.8341144e-08
000060 e7 6e 04 34 18 ba ad 31 b1 bc b0 32 07 ae 4e 31
       1.2333804e-07 5.056119e-09 2.0574904e-08 3.0075868e-09
000070 11 4b 10 32 8f b6 9c 2f 0f bc 29 32 86 a5 23 32
       8.398971e-09 2.850595e-10 9.879854e-09 9.525484e-09
000080 8a 02 f5 2f 9f 45 52 32 9a e7 25 31 ad da bc 32
       4.4567044e-10 1.2239439e-08 2.414231e-09 2.1985523e-08
000090 b2 ec 7b 33 c0 8f 02 34 ee 53 40 32 75 84 aa 33
       5.8655765e-08 1.215949e-07 1.1194954e-08 7.940336e-08
0000a0 28 85 16 30 53 d2 1b 32 35 2f d9 2f ac ad 19 32
       5.475891e-10 9.07001e-09 3.9505613e-10 8.9452605e-09
0000b0 00 8b 31 31 b7 12 10 33 b3 9d 7d 32 8d fc 1e 32
       2.5835902e-09 3.3544634e-08 1.4762395e-08 9.254234e-09
0000c0 80 15 36 31 d9 91 11 32
       2.6496707e-09 8.473273e-09

exp_avg f4 [10]
000000 00 00 80 2e 71 3d 1a 2f f6 28 5c 2e 1f 85 2b 2e
       5.820766e-11 1.4028047e-10 5.005859e-11 3.8999134e-11
000010 cd cc cc 2d 0b d7 a3 ae 29 5c 1f 2f 85 eb 51 ae
       2.3283065e-11 -7.450581e-11 1.4493708e-10 -4.773028e-11
000020 34 33 33 2d 48 e1 fa 2d
       1.0186341e-11 2.8521754e-11

exp_avg_sq f4 [10]
000000 aa a4 ce 1b a6 80 ac 1c d8 de 27 1b ed b9 cc 1a
       3.4186253e-22 1.141526e-21 1.3885921e-22 8.46728e-23
000010 6f 12 83 1a 8f 67 17 1c 34 b6 13 1d dc fb d4 1b
       5.421011e-23 5.0095555e-22 1.9549485e-21 3.5235218e-22
000020 87 38 b6 1a 7d 41 8b 1a
       7.536476e-23 5.7594855e-23

exp_avg f4 [10]
000000 1d fa f1 b8 12 39 33 3a cc 9d da 39 82 07 f0 b9
       -0.00011538363 0.0006836812 0.00041697768 -0.0004578196
000010 3e 56 03 39 da c3 a2 b8 3e 17 b6 b9 e6 d1 e0 b8
       0.00012525261 -7.761242e-05 -0.00034731062 -0.00010720249
000020 9d 9b 96 b9 a9 31 31 39
       -0.0002872617 0.00016898535

exp_avg_sq f4 [10]
000000 80 1a 44 31 5b 11 ee 32 a6 7c 2b 32 22 b2 5b 32
       2.8536817e-09 2.7714739e-08 9.981852e-09 1.27879805e-08
000010 0d 15 9a 30 ca 25 c9 2f 0d 34 0f 32 f4 19 11 31
       1.1210958e-09 3.6588538e-10 8.3355305e-09 2.111503e-09
000020 ec 0e a2 31 ec 38 11 31
       4.716517e-09 2.1132633e-09

exp_avg f4 [10]
000000 df d1 d1 b7 74 aa d7 39 d7 6c 38 39 c4 47 a4 b8
       -2.501247e-05 0.00041134993 0.00017588153 -7.833497e-05
000010 b8 1c 0b b7 c4 db 98 38 96 71 8c b9 bf ba 25 38
       -8.291732e-06 7.288859e-05 -0.0002678751 3.9512986e-05
000020 c8 32 76 b9 a6 7a 3f 39
       -0.00023479306 0.0001826087

exp_avg_sq f4 [10]
000000 2c 91 c7 2f 56 63 34 32 8c 9d 02 31 4a 17 ff 2f
       3.630104e-10 1.0499965e-08 1.9007045e-09 4.6400778e-10
000010 a4 c2 ad 30 53 c1 7e 30 1a 0c c1 31 e2 ff 51 30
       1.2642727e-09 9.267939e-10 5.618415e-09 7.639739e-10
000020 f0 2c 59 31 c0 cf fe 30
       3.16032e-09 1.8539978e-09

exp_avg f4 [5, 10]
000000 91 d8 09 ba e2 25 0a 3b 48 a5 43 ba e1 a2 bc 39
       -0.0005258406 0.0021079709 -0.00074632885 0.00035979509
000010 2c 2a b5 3a 10 b9 32 3a 00 3b 18 3b 7b 69 dc 39
       0.0013821772 0.00068177376 0.0023228526 0.0004204026
000020 79 85 af 39 50 56 6c 36 14 eb 05 ba 13 bf b7 ba
       0.00033478046 3.521698e-06 -0.0005108577 -0.0014018737
000030 26 14 1c b8 57 78 02 ba ec 1a 7c ba c9 b4 f0 b9
       -3.7212063e-05 -0.00049770385 -0.0009617049 -0.00045911063
000040 5e 26 bd ba 68 89 7a ba ec 38 d0 b9 ac 4d 88 3a
       -0.001443099 -0.0009557218 -0.00039715262 0.0010399125
000050 42 50 d0 38 7b 1f e1 36 c7 a7 07 b8 ba 52 ea b4
       9.933162e-05 6.7091873e-06 -3.2342763e-05 -4.3646088e-07
000060 cb 3d 8f 37 00 c6 e6 b3 d6 1d 44 38 01 52 17 37
       1.7075703e-05 -1.07462256e-07 4.675783e-05 9.019394e-06
000070 5c a2 88 b6 68 58 f1 37 80 21 09 b8 78 43 1d 3a
       -4.072017e-06 2.8770606e-05 -3.2694545e-05 0.00059991283
000080 40 9e 3e 39 87 aa 51 b9 c8 4e 3a 39 7c ea 62 3a
       0.00018178765 -0.0001999532 0.0001776769 0.0008656157
000090 bc 61 8e 39 d8 28 c0 b9 5c c6 3f ba 15 df 88 ba
       0.00027157168 -0.00036651525 -0.00073156296 -0.001044246
0000a0 18 9e 67 b8 d8 6f 5a b9 2c b9 26 3b 88 64 fc ba
       -5.5221928e-05 -0.00020831765 0.002543996 -0.0019256035
0000b0 cd ca ad b9 79 a6 c2 ba 5f 78 18 b9 c8 e9 9d ba
       -0.0003314823 -0.0014850638 -0.00014540691 -0.0012047822
0000c0 0a be a6 ba c2 7f 77 ba
       -0.0012721431 -0.00094413396

exp_avg_sq f4 [5, 10]
000000 cf 0f 98 32 2c 7e 84 34 26 a3 08 33 94 3d 01 32
       1.7702318e-08 2.4678718e-07 3.181335e-08 7.5227895e-09
000010 2a ff f5 33 79 9a df 32 57 77 a5 34 17 f4 33 32
       1.14551156e-07 2.6030863e-08 3.0820476e-07 1.0474671e-08
000020 7f 5c e7 31 54 20 ba 2f ef a1 8e 33 7e fe ff 33
       6.7335004e-09 3.3856173e-10 6.641846e-08 1.1920655e-07
000030 26 86 6a 2f 9a 44 90 32 7c 53 64 33 14 2c 4f 32
       2.1329835e-10 1.6795003e-08 5.3161315e-08 1.2059008e-08
000040 59 81 0f 34 d8 3b 69 33 88 6f 7c 32 21 e8 97 33
       1.3364969e-07 5.4303968e-08 1.469369e-08 7.0737094e-08
000050 59 4d c5 30 d4 61 a9 2c 2c f8 8e 2f f0 e2 8a 2a
       1.435562e-09 4.81413e-12 2.6005986e-10 2.4671194e-13
000060 55 b1 db 2e 66 0c 90 2d 33 8c 96 2f dc fa 37 2e
       9.9904675e-11 1.637641e-11 2.7384459e-10 4.183219e-11
000070 7d ed 07 2e 85 37 d2 2f 72 d9 9a 2f ee 9f ac 32
       3.0906378e-11 3.8238226e-10 2.816694e-10 2.0096163e-08
000080 66 fe 01 31 4c cd 17 31 eb e0 61 31 59 0a 32 33
       1.891658e-09 2.209009e-09 3.286966e-09 4.1453266e-08
000090 94 99 8c 31 d8 04 00 32 d6 51 03 33 f5 07 88 33
       4.091996e-09 7.451682e-09 3.0575244e-08 6.334441e-08
0000a0 94 79 0f 30 e9 be 24 33 a0 9e c4 34 b8 fd 85 34
       5.219587e-10 3.8357857e-08 3.662326e-07 2.4957785e-07
0000b0 34 02 e0 31 fe a0 03 34 c0 a4 46 32 52 46 dd 33
       6.5195085e-09 1.2258894e-07 1.1562577e-08 1.03039056e-07
0000c0 59 30 d7 33 cc 98 58 33
       1.0020512e-07 5.0430387e-08

exp_avg f4 [5]
000000 f6 28 b3 2f 33 33 d3 2e 71 3d 6a ad 70 3d 12 ad
       3.2589015e-10 9.604264e-11 -1.3315003e-11 -8.312781e-12
000010 b8 1e 05 2e
       3.0267983e-11

exp_avg_sq f4 [5]
000000 ae 8d e1 1d c8 07 2d 1c 53 b6 f8 19 47 05 ac 18
       5.9703497e-21 5.7250955e-22 2.5716239e-23 4.4466287e-24
000010 08 22 8b 1b
       2.3017613e-22

exp_avg f4 [5]
000000 40 5f cf 30 0c 02 03 34 7d ab 39 b1 99 fe 1c 33
       1.5088304e-09 1.220107e-07 -2.7018523e-09 3.6553136e-08
000010 b3 69 9b 34
       2.8947906e-07

exp_avg_sq f4 [5]
000000 50 6e b2 25 11 97 bc 26 15 62 f2 20 01 b2 8a 25
       3.0952829e-16 1.3086067e-15 4.10613e-19 2.4059804e-16
000010 b1 6c df 27
       6.2012777e-15

exp_avg f4 [5]
000000 3c 43 2d b9 ab 75 5f 39 a7 7b 09 37 d2 7e ce b8
       -0.00016523612 0.00021310772 8.194626e-06 -9.8464676e-05
000010 e9 d5 ac 39
       0.00032965772

exp_avg_sq f4 [5]
000000 91 74 d0 30 0d d5 2c 31 af 36 ff 2c c9 ff 13 30
       1.5167122e-09 2.51504e-09 7.253607e-12 5.384178e-10
000010 a5 79 d0 31
       6.067426e-09

exp_avg f4 [5]
000000 79 86 0b bb 15 59 b2 39 0c 9f c3 b8 4a fa 61 ba
       -0.0021289869 0.00034017177 -9.3279494e-05 -0.0008620365
000010 3f 00 2b 3b
       0.0026092676

exp_avg_sq f4 [5]
000000 ed 7c 86 34 83 8e 28 32 1a 19 05 30 7c a7 31 33
       2.505034e-07 9.8112904e-09 4.842079e-10 4.136335e-08
000010 ea a0 ca 34
       3.7742512e-07

exp_avg f4 [5]
000000 59 6c f5 ba 04 c7 fa 39 eb 11 80 b8 5a 42 2e ba
       -0.0018724307 0.00047831994 -6.106853e-05 -0.00066474604
000010 89 e4 17 3b
       0.002317699

exp_avg_sq f4 [5]
000000 da e5 4f 34 fb 72 7c 32 28 9d 6d 2f 48 ed d2 32
       1.9361997e-07 1.4694474e-08 2.1610858e-10 2.455512e-08
000010 af b4 9f 34
       2.9747522e-07

exp_avg f4 [5]
000000 72 8e 9f 39 59 11 40 b8 d2 79 50 37 41 ef f5 38
       0.00030432973 -4.5792523e-05 1.242613e-05 0.00011727075
000010 66 e7 bd b9
       -0.00036221294

exp_avg_sq f4 [5]
000000 db e2 af 31 b0 b8 43 2f 84 30 17 2d 42 61 52 30
       5.118961e-09 1.7800761e-10 8.594129e-12 7.6535767e-10
000010 b8 ef f9 31
       7.2741067e-09

exp_avg f4 [5]
000000 ba 9c a2 b8 c7 55 56 b7 02 8b cb b6 c9 7d db b7
       -7.7539546e-05 -1.2775366e-05 -6.066054e-06 -2.6165408e-05
000010 f6 0a 95 38
       7.106915e-05

exp_avg_sq f4 [5]
000000 be b0 b8 2f 62 5b 43 2d e6 b9 0f 2c 30 79 28 2e
       3.3594988e-10 1.1104758e-11 2.0424717e-12 3.8306414e-11
000010 51 c5 9c 2f
       2.8516436e-10

exp_avg f4 [3, 5]
000000 46 31 96 bb 04 57 b2 bb 88 f6 b8 bb 8a 3a a5 bb
       -0.0045835106 -0.005442502 -0.005644623 -0.005042379
000010 82 a2 a0 bb ba 48 56 ba 6e 5a 27 bb 0f c5 a2 b7
       -0.004902185 -0.0008174289 -0.0025536078 -1.9403667e-05
000020 b4 90 e2 ba 66 32 c1 b6 00 00 00 00 00 00 00 00
       -0.0017285557 -5.7577154e-06 0.0 0.0
000030 00 00 00 00 00 00 00 00 00 00 00 00
       0.0 0.0 0.0

exp_avg_sq f4 [3, 5]
000000 28 cc 9b 35 87 6b dc 35 3b a7 ec 35 38 28 c0 35
       1.1607817e-06 1.6422572e-06 1.7632041e-06 1.431682e-06
000010 6d 07 b4 35 48 63 30 33 74 ae c2 34 7d 39 4c 2e
       1.3413206e-06 4.106849e-08 3.6262247e-07 4.643529e-11
000020 32 13 32 34 5d db 8f 2c 00 00 00 00 00 00 00 00
       1.6584525e-07 4.0886587e-12 0.0 0.0
000030 00 00 00 00 00 00 00 00 00 00 00 00
       0.0 0.0 0.0

exp_avg f4 [3]
000000 e0 60 39 bd 68 57 7b bb 00 00 00 00
       -0.045258403 -0.0038351659 0.0

exp_avg_sq f4 [3]
000000 00 ec ed 38 d2 62 5d 35 00 00 00 00
       0.00011344999 8.247272e-07 0.0
