lightning_logs/version_104/checkpoints/epoch=0-step=2.ckpt (torch, 28015 bytes, 56 tensors)

layers.0.weight f4 [5]
00000000: de93 7f3f cfe1 7f3f 0787 7f3f ef8b 7f3f
00000010: 5634 803f
0.99835 0.9995393 0.9981541 0.99822897 1.0015972

layers.0.bias f4 [5]
00000000: 41b8 4438 d83b ed37 94ff 1738 ff4a 9936
00000010: 0675 d0b7
4.690164e-05 2.8280469e-05 3.623923e-05 4.568486e-06 -2.4850026e-05

layers.0.running_mean f4 [5]
00000000: 1f72 9941 8e7f 9941 c991 9941 5886 9941
00000010: 4889 9941
19.180723 19.187283 19.196184 19.190598 19.192032

layers.0.running_var f4 [5]
00000000: 3614 603f 0efa 5e3f 3d1b 613f d290 5e3f
00000010: 8874 603f
0.8753084 0.87100303 0.8793219 0.8693973 0.8767781

layers.1.weight f4 [10, 5]
00000000: c82c 73be 8192 eb3d b5b5 c3be 9c9a aabe
00000010: fea3 e1be d850 a2be fea0 dbbd 4864 92be
00000020: 70c3 6f3e ab79 4abe 17bc cf3e 5e24 dabe
00000030: aa7e 033c f7df 87bd 45ab 74bd 3eb1 813e
00000040: ad2c b73e a1c2 01be 5e9c 8fbe ca09 ab3e
00000050: 38d4 04be 0310 c5be fbf9 cabe f10e 85be
00000060: c2a0 d43e 1049 cabd 0623 8f3d 7427 d13e
00000070: 00da 413e 76d8 2bbe bf73 d4be 9f38 3dbe
00000080: 288e babe 828b 45be c755 6cbe 5d88 a0be
00000090: 3e38 e73c 4cb8 a73d 56a8 66be af94 ddbc
000000a0: 2523 2fbe 78cd b7be 7154 0d3e 7ef5 a5be
000000b0: 2ff3 b4be 68a4 ea3d 5f18 9abe 71f6 753e
000000c0: f129 0c3e 974c e33e
-0.23747551 0.11502553 -0.3822457 -0.33321083 -0.4407043 -0.31702304 -0.10724066 -0.28592134
0.23414397 -0.19772975 0.4057319 -0.4260587 0.008025805 -0.06634515 -0.059733648 0.25330538
0.35776272 -0.12671901 -0.28048986 0.33405906 -0.1297158 -0.38488778 -0.39643845 -0.25987962
0.41528898 -0.09877217 0.06989102 0.40850413 0.18930817 -0.16781792 -0.41494557 -0.1847863
-0.36436582 -0.192915 -0.23079596 -0.31354037 0.02822506 0.08189449 -0.22525153 -0.027048437
-0.1710325 -0.35898948 0.13801743 -0.32413858 -0.35341784 0.11457139 -0.3009672 0.24019791
0.13687874 0.4439437

layers.1.bias f4 [10]
00000000: 24b3 2abe 5459 e43d b4b0 873e e29b 353e
00000010: 64a6 c23e 2266 0a3e fe85 babe a2f6 a1be
00000020: 3bfc 33be a905 3ebe
-0.16669899 0.111498505 0.26502 0.17735246 0.3801757 0.13515523 -0.36430353 -0.31633478
-0.17576687 -0.18556847

layers.2.weight f4 [10]
00000000: d540 803f e440 803f 250b 803f 68cd 7f3f
00000010: ab81 7f3f 4d08 803f fa31 803f a088 7f3f
00000020: ba3d 803f 7c7c 7f3f
1.0019785 1.0019803 1.0003401 0.999228 0.9980723 1.0002533 1.0015252 0.9981785
1.0018837 0.99799323

layers.2.bias f4 [10]
00000000: c090 0bba 83fa 023b 248c ea3a 8254 ea3a
00000010: 289d edba 7b80 e4ba aede e13a 68ed 02bb
00000020: 4010 023b d61b 00bb
-0.00053239986 0.0019985742 0.0017894548 0.0017877968 -0.0018128501 -0.001743331 0.0017232501 -0.001997793
0.0019846112 -0.0019547842

layers.2.running_mean f4 [10]
00000000: 5fba 01bd f192 ad3c 8646 4e3d 0806 0a3d
00000010: e2f2 933d 2d6a d23c bec1 8dbd 411c 76bd
00000020: 3cd0 08bd 966d 10bd
-0.031671878 0.021188231 0.050360225 0.033697158 0.072240606 0.025685394 -0.06921719 -0.06008554
-0.033401713 -0.03526076

layers.2.running_var f4 [10]
00000000: 280f 683f 6cc1 5d3f 12a0 613f a3a4 623f
00000010: dbb9 6a3f 4157 5b3f 24dc 633f f108 573f
00000020: 3437 623f d25f 613f
0.90648127 0.86623263 0.8813487 0.88532466 0.9168984 0.85680014 0.8900778 0.8399802
0.88365483 0.88036835

layers.4.weight f4 [5, 10]
00000000: 28e2 293e 276f 33be 2657 c7bd e16d 793e
00000010: 68cf 96be 3c5f 873e 8a06 7abd d0fd 4a3d
00000020: 3ccf 2abe be22 2abc c7be fd3c 4713 96be
00000030: 7bd6 473d e353 9fbe 842a 94bc 996e a73d
00000040: 6bfa 9fbe 12ee 8a3e eb9e 53be 6762 033b
00000050: 26c7 7d3e 8623 bfbc 5acd 26be 68f6 84be
00000060: 176e 903d 20ed c63c 18df 1ebe 9436 973e
00000070: c4a9 88be 0f43 26bd 7329 e63d 332c a63d
00000080: fc25 3c3e dbc8 1bbd 08ba 59be 905e 913e
00000090: f5b0 993d 3d8b 9fbe e24f 963e 10c4 e13c
000000a0: c608 eb3d f5e0 943e 4d29 a03e 0592 723e
000000b0: a97e 9dbe c22a 2e3c 182e 083d c70f 313d
000000c0: 1b30 43be 6c17 9c3d
0.16590178 -0.1752287 -0.09733419 0.24358322 -0.29455113 0.26439846 -0.061041392 0.04955846
-0.16680616 -0.01038426 0.030974759 -0.29311582 0.04878853 -0.31118688 -0.01808668 0.08175392
-0.3124574 0.27134758 -0.20666091 0.0020047666 0.24783 -0.023332369 -0.16289273 -0.25969243
0.07052248 0.024282992 -0.15514791 0.29533827 -0.2669202 -0.040591296 0.112383746 0.08113899
0.18373865 -0.038033348 -0.21262372 0.28392458 0.07504455 -0.31160918 0.2935782 0.02755931
0.11476283 0.2907788 0.3128151 0.23688515 -0.30760697 0.010630311 0.033247083 0.043227937
-0.1906132 0.07621655

layers.4.bias f4 [5]
00000000: bb01 42be 75e2 323c c54a 0dbe dba3 8a3e
00000010: 7448 80be
-0.18945973 0.010918249 -0.13798054 0.27078137 -0.25055277

layers.5.weight f4 [5]
00000000: 1b20 803f df16 803f 028f 7f3f 6712 803f
00000010: ea0d 803f
1.0009798 1.000698 0.9982759 1.0005616 1.0004246

layers.5.bias f4 [5]
00000000: 08d0 f6ba 67ba 023b 6e26 03bb 6d38 013b
00000010: 1617 033b
-0.0018830309 0.001994753 -0.002001192 0.001971747 0.0020002774

layers.5.running_mean f4 [5]
00000000: 22e0 29bd 7735 53bd acb0 40bd 58e8 b83d
00000010: def5 a9b9
-0.041473515 -0.05156466 -0.047043487 0.09028691 -0.00032417377

layers.5.running_var f4 [5]
00000000: c016 563f 9ebb 543f 4b2d 533f 0338 553f
00000010: b546 523f
0.83628464 0.8309878 0.82490987 0.8328859 0.8213914

layers.7.weight f4 [5]
00000000: e340 803f ec40 803f db7b 7f3f e940 803f
00000010: e440 803f
1.0019802 1.0019813 0.99798363 1.0019809 1.0019803

layers.7.bias f4 [5]
00000000: 2622 033b f823 033b 7bf9 02bb 4bed 023b
00000010: aa01 033b
0.0020009368 0.0020010453 -0.0019985128 0.0019977863 0.0019990006

layers.7.running_mean f4 [5]
00000000: 39dd a33d 42a9 993d 0c87 9f3d b4b1 9a3d
00000010: 225f 9b3d
0.08001179 0.075029865 0.0778943 0.075534254 0.075865045

layers.7.running_var f4 [5]
00000000: 0e3d 5c3f 5501 5c3f 1c32 5f3f e578 603f
00000010: 5a0c 5e3f
0.8603066 0.8593953 0.87185836 0.8768447 0.86737597

layers.8.rho f4 [5]
00000000: a233 da3f dfe1 c73f 7e54 b63f ac18 e83f
00000010: 9fb5 e83f
1.7047007 1.5615805 1.4244535 1.8132529 1.8180426

layers.8.gam f4 [5]
00000000: 96ec e13f b82f cb3f 3bd6 e13f f923 933f
00000010: 06d7 a43f
1.7650325 1.5873938 1.7643503 1.1495353 1.287812

layers.9.weight f4 [3, 5]
00000000: b9c2 ad3e c274 b8bb b505 ddbe 7c60 b0be
00000010: 3811 6bbe 5076 4e3e d4ba ab3d e850 d3bd
00000020: 8f8b e33e 9801 8f3e 5fa7 783e d2a0 2cbe
00000030: b0a7 9f3e a9e7 56be 9277 e0be
0.33937624 -0.005629153 -0.43168417 -0.34448612 -0.22955787 0.2016232 0.08385244 -0.10318166
0.44442412 0.27930903 0.24282597 -0.16858223 0.31182623 -0.20986809 -0.43841225

layers.9.bias f4 [3]
00000000: 121c a5bd 8811 723d 6a70 adbe
-0.080619946 0.05909875 -0.33874828

exp_avg f4 [5]
00000000: 81ac a038 8285 f0b8 4aad 0939 f63f e538
00000010: cb64 54b9
7.661526e-05 -0.000114689596 0.00013129893 0.000109314846 -0.00020255444

exp_avg_sq f4 [5]
00000000: c71e 6130 f7fb 1f31 fb5a c030 4de6 a030
00000010: ebeb cc31
8.189826e-10 2.328077e-09 1.3995697e-09 1.1706988e-09 5.964002e-09

exp_avg f4 [5]
00000000: 713d 9aae 0000 0000 d7a3 28ae 3433 b32c
00000010: 7c14 0ead
-7.0140234e-11 0.0 -3.8344296e-11 5.0931707e-12 -8.076314e-12

exp_avg_sq f4 [5]
00000000: 105a df1b da3d 391b 60b7 c61a 8738 b619
00000010: b2ee 7e1b
3.6950457e-22 1.5322827e-22 8.218714e-23 1.884119e-23 2.1087514e-22

exp_avg f4 [10, 5]
00000000: 08e7 ad38 9b46 20b9 3c20 0238 bfcf 91b9
00000010: 1e97 d338 56f5 1939 4c12 a1ba bc59 9639
00000020: 725f 9639 09f9 c339 b7c2 26b9 e899 5cb9
00000030: a3d3 d239 922c 3337 8861 023a bec0 4e39
00000040: f6a2 bfb9 20b2 243a ae4c fcb9 6038 9138
00000050: b1ae ecb9 275a 3839 4175 eab9 215f b338
00000060: 1d1f bbb9 f739 53b9 9257 b1b8 cc82 4039
00000070: 30e1 66ba b87e e9b9 ca23 edb7 d73d 11b9
00000080: a68c 3d38 77ea 0939 78fe 8fb7 80d9 79b9
00000090: b858 bd39 cadf 383a d3a5 1b3a 1acf e539
000000a0: aca8 1639 eece 9639 c036 abb8 889c 0bba
000000b0: 2bcd d138 0fd5 0239 d46f 3139 8413 8438
000000c0: 78ea e0b8 1c9d a738
8.292316e-05 -0.00015285092 3.1024436e-05 -0.00027811338 0.00010089412 0.00014682612 -0.0012288778 0.00028677087
0.00028681342 0.00037378844 -0.0001590353 -0.0002103817 0.00040212003 1.0679609e-05 0.000497364 0.00019717493
-0.00036551774 0.0006282646 -0.00048122316 6.9246395e-05 -0.00045143583 0.00017581192 -0.0004471932 8.553104e-05
-0.000356906 -0.00020144122 -8.456329e-05 0.00018359273 -0.0008807359 -0.00044535636 -2.8269267e-05 -0.00013851315
4.51921e-05 0.00013152683 -1.7165425e-05 -0.00023827516 0.0003611499 0.000705239 0.00059374905 0.00043832586
0.0001436795 0.00028764404 -8.1641134e-05 -0.0005325754 0.00010004112 0.00012477137 0.00016921695 6.2978856e-05
-0.000107248256 7.9924444e-05

exp_avg_sq f4 [10, 5]
00000000: 7deb e82f 811d f330 2cd2 9a30 634f a231
00000010: bfdf 3530 84ed 8432 d0f4 b633 e33a 7f32
00000020: bf33 0532 a20c 8a32 1c20 1a31 6ed2 7a31
00000030: 24e9 8e32 eb27 542f 1874 8e32 4cb1 2031
00000040: f0e8 fd31 93b7 d032 3082 6032 266a bd2f
00000050: 3c8e 7f32 f2f5 5331 3a0f 4e32 515b 3930
00000060: 2706 5532 59e4 5231 e842 6b32 224a f331
00000070: af48 8333 3a7a 3c32 3cf1 6f2e 118f bb30
00000080: d2bc 0130 9ca5 ac30 2561 2230 8d7a d131
00000090: 024c f831 53b2 2733 e4be c632 8ed4 4333
000000a0: 440a a432 e47c 0b32 45cb 5332 49bc 8a32
000000b0: a03d 8c31 cc71 c330 7cc2 e530 b61f 722f
000000c0: 63d7 5130 9ea2 e82f
4.236788e-10 1.7688963e-09 1.1264709e-09 4.7238458e-09 6.616538e-10 1.5474832e-08 8.5195666e-08 1.4856343e-08
7.753385e-09 1.607106e-08 2.2428202e-09 3.6499403e-09 1.6636996e-08 1.929547e-10 1.6583769e-08 2.3383846e-09
7.389751e-09 2.4297867e-08 1.3068117e-08 3.4454323e-10 1.4875294e-08 3.0844345e-09 1.199424e-08 6.7432376e-10
1.2399631e-08 3.0688823e-09 1.3694013e-08 7.0806587e-09 6.113384e-08 1.0970831e-08 5.4556568e-11 1.3646703e-09
4.7198256e-10 1.2561716e-09 5.907331e-10 6.096633e-09 7.226391e-09 3.9044902e-08 2.313704e-08 4.5595293e-08
1.9096781e-08 8.119262e-09 1.2328035e-08 1.6150937e-08 4.081542e-09 1.422046e-09 1.6717219e-09 2.2021038e-10
7.633984e-10 4.23161e-10

exp_avg f4 [10]
00000000: 85eb 112e 7b14 ae2d 5c8f 422e 703d 8a2d
00000010: d8a3 702e d8a3 302e f628 bc2d 295c 0f2f
00000020: ec51 b8ad 9a99 59ad
3.3178366e-11 1.9790605e-11 4.4237822e-11 1.5716067e-11 5.4715205e-11 4.016329e-11 2.1391316e-11 1.3038516e-10
-2.0954759e-11 -1.2369128e-11

exp_avg_sq f4 [10]
00000000: 83c4 761b 0689 ed19 a801 031b 8d9f c61a
00000010: 34d8 541b 438c 171b aca9 1c1a 7db5 a31c
00000020: e1f0 821a 68d5 2719
2.041214e-22 2.4560569e-23 1.0836601e-22 8.214865e-23 1.7606088e-22 1.2535748e-22 3.2397104e-23 1.0833349e-21
5.41559e-23 8.676795e-24

exp_avg f4 [10]
00000000: d6d3 17b9 f677 c4b9 ea1e ee38 1617 eeb8
00000010: 41ac d537 0391 c639 c69a c9b8 9aae 8339
00000020: 553e bab8 e088 5038
-0.00014479397 -0.0003747341 0.000113544826 -0.000113530245 2.547179e-05 0.00037873545 -9.613256e-05 0.00025116355
-8.8807814e-05 4.971854e-05

exp_avg_sq f4 [10]
00000000: bafc 9f30 7e81 0532 32af ef30 c25e 4732
00000010: 08b2 3f2e 6141 8132 f5b3 ec30 c4d1 ba31
00000020: 11f1 1230 448e 1a2f
1.1640602e-09 7.771062e-09 1.7439332e-09 1.160487e-08 4.3586496e-11 1.5047307e-08 1.7222407e-09 5.43716e-09
5.3457067e-10 1.4056761e-10

exp_avg f4 [10]
00000000: ee20 89b8 40fe 0aba 5673 8eb8 341c 31b9
00000010: 8d68 5939 6ef4 c838 0da2 e8b8 cafa e139
00000020: dedc 69b9 121c 8438
-6.538803e-05 -0.00053021684 -6.792571e-05 -0.00016890542 0.00020733681 9.582272e-05 -0.000110928064 0.00043102197
-0.00022302891 6.299479e-05

exp_avg_sq f4 [10]
00000000: 34d7 9430 7419 8632 7057 e12f 90df 2e31
00000010: b88a 7731 cada 7a30 ab03 b330 fe82 3132
00000020: 823b 4331 3580 842f
1.0829582e-09 1.5611228e-08 4.098939e-10 2.5447413e-09 3.6022083e-09 9.126039e-10 1.3025007e-09 1.033254e-08
2.841006e-09 2.4101757e-10

exp_avg f4 [5, 10]
00000000: 81e3 3a3a 5c69 f439 082f a039 0b1e b0ba
00000010: b306 07b9 3ab1 bb3a 11a2 9439 dccd 7e3a
00000020: 49b2 5d3a c79a 1cba f26f 6c39 2db9 af37
00000030: 2d32 d1b8 ec48 2839 bc12 a338 32dc de38
00000040: aed3 1a39 91ad d239 4966 b938 9644 7eb9
00000050: 8e7b 9db9 0a90 d9b9 4697 afb9 a88a 193a
00000060: f28a 0339 c3b6 b739 a882 59b9 fa78 0cb7
00000070: 9be4 e2b9 1031 b638 9fd9 22ba 5158 4dba
00000080: 236d 303a b1bf 9239 dbde b438 dc6c 87b8
00000090: cd8e 11ba 4428 bbb9 8217 c7b8 3b17 aa39
000000a0: 76a4 94ba b988 55ba c42a dbb8 721a e93a
000000b0: 4c81 0137 e451 85b8 364e 4dba 9850 d8b9
000000c0: ba3a d238 366e f839
0.00071292376 0.00046617805 0.0003055262 -0.0013436688 -0.00012877099 0.0014319785 0.0002834951 0.00097200065
0.00084570475 -0.00059739914 0.00022548417 2.0947855e-05 -9.9752426e-05 0.00016048894 7.775935e-05 0.000106267995
0.00014765441 0.00040183638 8.8405395e-05 -0.00024248878 -0.0003003743 -0.00041496783 -0.0003349131 0.0005857148
0.00012544895 0.00035040648 -0.00020743406 -8.372817e-06 -0.00043276403 8.687575e-05 -0.00062122376 -0.00078332896
0.000673013 0.0002799011 8.624579e-05 -6.457578e-05 -0.000555259 -0.0003569742 -9.493438e-05 0.00032442235
-0.0011340517 -0.00081456784 -0.000104506995 0.001778437 7.719103e-06 -6.3571875e-05 -0.0007831784 -0.00041258777
0.00010024519 0.0004738436

exp_avg_sq f4 [5, 10]
00000000: 4833 f132 0ea6 5432 8232 ba31 f050 2c34
00000010: 3442 d730 4b60 3434 e1ed 9b31 0a72 8e33
00000020: 692b 4333 3665 b632 16ed 0832 8e62 fc2d
00000030: 69d1 6e30 18e0 e530 3fbb 1f30 f7cc c530
00000040: 7474 3b31 8f65 af32 8abc 5231 ed0d a131
00000050: 1a92 0132 7ca4 a732 ab45 d531 4381 bd32
00000060: b876 9030 2e85 1232 ff41 0a32 1464 5d2f
00000070: c1fe 9632 74ad 3a32 8237 5333 e94c 8c33
00000080: e06a 8533 694d 9c31 a3b0 0b30 345c cd31
00000090: adb0 4133 9cda 1d32 c3c1 8031 f062 2c32
000000a0: 408a 9833 d424 2233 439a 3c33 2ae9 5234
000000b0: 1ec3 db2f 0e35 4d30 6c1f 1333 b8a2 4f32
000000c0: 0a47 c531 8ba0 7c32
2.8079413e-08 1.2377781e-08 5.4190545e-09 1.6048193e-07 1.5662125e-09 1.6798838e-07 4.5381374e-09 6.633134e-08
4.5441457e-08 2.1233614e-08 7.970149e-09 2.869285e-11 8.6881485e-10 1.6725634e-09 5.8109956e-10 1.4391891e-09
2.7278277e-09 2.0418865e-08 3.0666194e-09 4.6873e-09 7.542008e-09 1.9516158e-08 6.207036e-09 2.2061277e-08
1.0511121e-09 8.5286e-09 8.047663e-09 2.0135388e-10 1.7578147e-08 1.0866064e-08 4.917775e-08 6.533248e-08
6.2127356e-08 4.548998e-09 5.081892e-10 5.9767675e-09 4.5097e-08 9.188309e-09 3.7473185e-09 1.00342135e-08
7.103199e-08 3.775206e-08 4.391246e-08 1.9642599e-07 3.9974507e-10 7.465396e-10 3.4254683e-08 1.2085984e-08
5.741531e-09 1.4704834e-08

exp_avg f4 [5]
00000000: 400a 572d 86eb 512d ad47 e1ad 6666 c62e
00000010: f628 8caf
1.2223611e-11 1.1932571e-11 -2.5611369e-11 9.022187e-11 -2.5494956e-10

exp_avg_sq f4 [5]
00000000: 3c73 ef1b 7a7d c61a a7ce a31b 5496 d91c
00000010: 389e 871d
3.9613702e-22 8.20936e-23 2.7099634e-22 1.4398714e-21 3.5897797e-21

exp_avg f4 [5]
00000000: 8027 f1b0 5698 c931 d946 0c34 9b45 3d33
00000010: fc32 7c33
-1.7546284e-09 5.8671885e-09 1.306429e-07 4.4068297e-08 5.8719692e-08

exp_avg_sq f4 [5]
00000000: 93ba 0e26 5d13 3a24 a402 d526 cfd9 4426
00000010: b3c7 4826
4.9519e-16 4.0348722e-17 1.478056e-15 6.8296346e-16 6.965958e-16

exp_avg f4 [5]
00000000: c495 1139 1a51 74b8 c0be 4939 c643 85b9
00000010: ea14 47b9
0.0001388407 -5.8249665e-05 0.00019239914 -0.00025418232 -0.0001898591

exp_avg_sq f4 [5]
00000000: 751f bc30 80bc 502f 7884 0c31 242c 8231
00000010: 0e15 0931
1.3687741e-09 1.8984458e-10 2.044798e-09 3.788516e-09 1.9948092e-09

exp_avg f4 [5]
00000000: 5559 47bb 05e3 1aba a8e7 413a a1d1 14bb
00000010: 2a02 a3ba
-0.0030418236 -0.00059084623 0.0007396885 -0.0022707956 -0.0012436558

exp_avg_sq f4 [5]
00000000: 3f7e 0935 619f a532 9215 0333 fc02 9934
00000010: 1dd4 b733
5.122019e-07 1.9281005e-08 3.0520432e-08 2.8500642e-07 8.560185e-08

exp_avg f4 [5]
00000000: 02a2 19bb 9e36 09ba a9bb 473a 9ab1 eeba
00000010: 82da 94ba
-0.0023442511 -0.0005234274 0.0007619211 -0.0018210888 -0.0011356624

exp_avg_sq f4 [5]
00000000: 9410 a334 e90a 8232 1179 0a33 a10d 4634
00000010: b0ab 9933
3.0373178e-07 1.5138953e-08 3.2240738e-08 1.8445145e-07 7.1558475e-08

exp_avg f4 [5]
00000000: 6ab9 d839 0ac5 b438 99de eab8 be85 a639
00000010: bfd7 3239
0.00041336875 8.61977e-05 -0.000111994515 0.00031761633 0.00017055775

exp_avg_sq f4 [5]
00000000: 8c85 2232 a898 e12f 2647 4030 2092 bf31
00000010: 3a41 dd30
9.460006e-09 4.103573e-10 6.99503e-10 5.575444e-09 1.6098405e-09

exp_avg f4 [5]
00000000: de7b b9b8 cd57 5cb7 669b c436 460b dfb8
00000010: c040 18b8
-8.8445595e-05 -1.3133465e-05 5.859346e-06 -0.000106355685 -3.6299927e-05

exp_avg_sq f4 [5]
00000000: 6c67 ee2f ab7b 292d 02ae 452c 19ce 2c30
00000010: 1bdd a02e
4.3365433e-10 9.633998e-12 2.8091978e-12 6.286612e-10 7.315234e-11

exp_avg f4 [3, 5]
00000000: 2e61 73bb ffed 55ba 105e c1b8 6867 bab8
00000010: 40de 6eba 508a d4bb e2ef d4bb fdc8 c5bb
00000020: 9c8a a2bb 48b8 a2bb ed0b 97b9 a33e 1fb9
00000030: 1bf9 ccb9 0000 0000 34d3 b2b5
-0.003713678 -0.00081607694 -9.220478e-05 -8.888432e-05 -0.00091120973 -0.0064862147 -0.006498323 -0.0060359226
-0.004960371 -0.0049658157 -0.0002880985 -0.00015186756 -0.0003909551 0.0 -1.3323502e-06

exp_avg_sq f4 [3, 5]
00000000: 8ecb 4d35 17cb 2d33 9032 0230 5e7b f92f
00000010: e87d 6933 2ef4 1b36 94b4 1c36 5c33 0736
00000020: 3484 b635 67a9 b735 bedd 2f32 8079 4331
00000030: c6ed a132 0000 0000 0480 762a
7.666466e-07 4.046441e-08 4.736558e-10 4.5380494e-10 5.436405e-08 2.323893e-06 2.3350922e-06 2.0146463e-06
1.3598533e-06 1.3683865e-06 1.0236759e-08 2.84453e-09 1.8850994e-08 0.0 2.1893603e-13

exp_avg f4 [3]
00000000: 2989 d5bb cccc 57bd 9951 f5b9
-0.006516595 -0.052685544 -0.00046790836

exp_avg_sq f4 [3]
00000000: 98ef 2036 b702 2139 def2 e732
2.398132e-06 0.00015355168 2.7002383e-08
