lightning_logs/version_9/checkpoints/epoch=3-step=8.ckpt (torch, 28460 bytes, 56 tensors)

layers.0.weight f4 [5]
000000 f5 21 81 3f 80 f9 80 3f 0b ed 7e 3f 7e cc 7d 3f
       1.0088488 1.0076141 0.9958045 0.99140155
000010 af 98 7e 3f
       0.99451727

layers.0.bias f4 [5]
000000 5c 76 de 38 a0 61 89 b9 c5 12 6b 39 67 cd 5c b9
       0.00010607831 -0.00026203413 0.00022418339 -0.00021057353
000010 8e 12 40 39
       0.00018317459

layers.0.running_mean f4 [5]
000000 7e 86 83 42 ea 82 83 42 50 89 83 42 27 97 83 42
       65.76268 65.75569 65.76819 65.79522
000010 b4 92 83 42
       65.78653

layers.0.running_var f4 [5]
000000 f2 cb 11 3f ad c9 0f 3f 72 cb 10 3f 3c cb 12 3f
       0.5695182 0.5616711 0.5656043 0.5734136
000010 a8 e9 0c 3f
       0.5504403

layers.1.weight f4 [10, 5]
000000 f0 c4 a2 3e ba 5f 95 be f9 e0 ab 3e 00 32 77 be
       0.31790876 -0.29174596 0.33570078 -0.24140167
000010 a7 48 ba 3e 9b 94 3c 3e ac 7c 59 be 90 d3 73 bd
       0.36383554 0.18416063 -0.21238965 -0.059527934
000020 76 a9 95 3b 87 b7 cb 3e 3d 41 d5 3d a0 e2 8a 3e
       0.0045673205 0.39788458 0.10412834 0.27126026
000030 5f a6 e5 bd 9f 96 1e be 02 09 38 3e fe 3d ce 3d
       -0.112133734 -0.15487145 0.17972186 0.10070418
000040 bb 67 d6 3e ce bf e0 be c4 cb ce 3e 78 42 81 3e
       0.41876015 -0.43896335 0.40389836 0.25246024
000050 4c 38 60 3e 48 da 99 be 65 9a 8a 3e 07 b7 ac bd
       0.21896476 -0.30049348 0.2707092 -0.08433347
000060 d4 38 2d be b8 40 8f 3e 05 e0 b3 bd 1b c4 c1 3e
       -0.1691621 0.27979064 -0.08782963 0.3784493
000070 2b 2e 0c 3d e8 02 89 3e c4 3f de 3e 3f 69 d6 bd
       0.034223717 0.2676003 0.43408024 -0.10469293
000080 83 5c d8 3e 0e be 22 3e 13 b1 99 bd 27 06 b2 3d
       0.4225808 0.15892813 -0.07504477 0.0869258
000090 27 55 e8 3c 62 40 b0 be f5 7a 0c 3e 91 b8 e0 3e
       0.028360916 -0.3442412 0.1371878 0.43890813
0000a0 9b 5c 7c be fd 4b 86 3e 2f b6 df be 7b b6 fc bd
       -0.24644701 0.2622985 -0.43693683 -0.12339493
0000b0 75 8f 76 be 31 b3 8b be 35 56 cb be 2a e2 e2 3d
       -0.24078162 -0.2728515 -0.39714208 0.110782936
0000c0 8c 73 81 3e a4 e8 23 be
       0.25283468 -0.16006714

layers.1.bias f4 [10]
000000 4c 32 35 be 53 6c ce 3e 94 e0 a9 be 90 ba 33 3e
       -0.17694968 0.4031702 -0.33179152 0.17551637
000010 a4 72 9a be 95 e1 8c be 97 ef b7 be d3 28 1f 3e
       -0.3016559 -0.27515855 -0.3592498 0.15542917
000020 7b 89 9d bd 3c 9f d0 3e
       -0.07692238 0.40746486

layers.2.weight f4 [10]
000000 75 93 7d 3f 04 81 7d 3f e7 fb 80 3f f5 55 7f 3f
       0.99053127 0.9902499 1.0076874 0.99740535
000010 d6 ab 80 3f 08 07 80 3f 36 e8 7d 3f bf aa 7d 3f
       1.005244 1.0002146 0.9918245 0.9908866
000020 dd 46 7e 3f cc 3b 81 3f
       0.9932688 1.0096374

layers.2.bias f4 [10]
000000 9c af f9 bb d5 e0 e7 bb 43 5e a3 bb 1a 8e 0d bc
       -0.007619811 -0.0070763626 -0.004985602 -0.008639837
000010 be d7 95 bb 9d bc 5a 39 94 bb 9f ba ab 30 1e bc
       -0.0045728376 0.00020860364 -0.001218664 -0.009655158
000020 c3 97 b2 3b 55 2c 9e 3b
       0.0054502203 0.004827062

layers.2.running_mean f4 [10]
000000 80 df eb bd 80 83 86 3e 58 63 5d be 54 fb e9 3d
       -0.115172386 0.26272202 -0.21619928 0.1142489
000010 06 30 49 be c5 67 37 be 0d 9c 6f be dc 5a cf 3d
       -0.19647226 -0.17910679 -0.23399372 0.10124752
000020 80 a4 4d bd 29 e6 87 3e
       -0.050205708 0.26542786

layers.2.running_var f4 [10]
000000 a8 36 2c 3f 27 78 fe 3e d0 3e e9 3e 2f a1 4a 3f
       0.672709 0.49701044 0.45555735 0.79152197
000010 a2 81 03 3f e9 c3 0e 3f 74 ff 1d 3f 68 f3 0f 3f
       0.5136968 0.55767685 0.61717916 0.56230783
000020 7c 68 20 3f 97 e6 14 3f
       0.6265943 0.5816435

layers.4.weight f4 [5, 10]
000000 3d e8 29 3e 80 e3 97 be d8 9c 5d 3e 03 59 a6 bd
       0.16592498 -0.29665756 0.21641862 -0.081224464
000010 8e 6e 65 3e bd 2e 15 be e7 a4 a0 bc 46 c7 14 be
       0.22405455 -0.1456861 -0.019609882 -0.14529142
000020 6d 9f dc bb 14 f4 03 3e fd 22 a2 3d 93 1b 2c be
       -0.006732872 0.12886077 0.0791683 -0.16807394
000030 f9 16 f0 3d b1 0a f9 3d 6c 9b e6 3d 35 cd 6f bd
       0.11723132 0.12160242 0.11260113 -0.05854531
000040 13 93 9b be 6b f2 9a be 22 d0 5c be db 1c 08 3e
       -0.30385646 -0.30263075 -0.21563771 0.13292257
000050 84 63 66 3d c6 11 ab 3d 32 08 db bd c6 80 0c be
       0.05624725 0.083529994 -0.106949225 -0.13720998
000060 f5 3f ea 3d cc 96 7c 3d 8d a2 8c 3d dd b3 15 3e
       0.1143798 0.06166725 0.068669416 0.14619394
000070 38 be 84 3e c0 c7 98 be fd 6c 15 3e b8 0c 1a 3e
       0.25926375 -0.29839897 0.14592357 0.15043914
000080 39 6c c7 3d 69 c7 4f bd 9e 29 4a bd c4 12 d2 3b
       0.09737439 -0.05072728 -0.049356095 0.0064109284
000090 e6 38 92 bd db fe db 3d ff 0e 1f be 3a e1 65 3e
       -0.07139759 0.10741969 -0.15533064 0.22449198
0000a0 20 2a 71 be 4c 35 1b 3e f2 9d 6a 3e f4 23 12 3e
       -0.23551226 0.1515705 0.22911814 0.14271528
0000b0 a3 e1 fb 3c 06 2d 88 3d 9c f3 5c bd 9d 3d 80 3e
       0.03074724 0.066492125 -0.05394326 0.25047007
0000c0 4e 27 1f 3e f9 e5 44 be
       0.15542337 -0.19228353

layers.4.bias f4 [5]
000000 33 70 50 bd e2 75 45 be d3 46 e6 3d 23 bc 42 be
       -0.05088825 -0.1928325 0.112439774 -0.19017081
000010 2a fc 0a 3e
       0.13572755

layers.5.weight f4 [5]
000000 b1 98 7d 3f 5c 99 7d 3f ca 48 80 3f cf b7 7d 3f
       0.99061114 0.9906213 1.0022213 0.99108595
000010 f8 a0 7d 3f
       0.99073744

layers.5.bias f4 [5]
000000 26 87 21 bc 15 83 22 bc d0 df eb ba fa 13 1f bc
       -0.009858882 -0.009918948 -0.0017995778 -0.009709353
000010 05 ba 1f bc
       -0.00974894

layers.5.running_mean f4 [5]
000000 d6 5b ca bc 7c 7f 86 be 06 e6 11 3e 82 98 87 bc
       -0.024701994 -0.26269138 0.14247903 -0.016552214
000010 05 97 69 3e
       0.22811516

layers.5.running_var f4 [5]
000000 e4 ac cf 3e 8f 3d c7 3e 2e 20 c6 3e de e4 c6 3e
       0.40561593 0.38914153 0.38696426 0.38846487
000010 66 a4 f4 3e
       0.47781676

layers.7.weight f4 [5]
000000 52 6c 7d 3f 0d 7c 7d 3f bf 40 81 3f 61 8b 7d 3f
       0.9899341 0.9901741 1.0097884 0.990408
000010 21 6a 7d 3f
       0.98990065

layers.7.bias f4 [5]
000000 af d7 23 bc 80 a9 20 bc 95 41 18 3c 73 f6 1e bc
       -0.010000153 -0.009806037 0.00929298 -0.009702313
000010 9a 6f 23 bc
       -0.009975338

layers.7.running_mean f4 [5]
000000 73 c3 80 3e e2 dc 81 3e f6 12 7d 3e a6 e0 84 3e
       0.25149116 0.25363833 0.24714264 0.25952643
000010 2e 20 87 3e
       0.2639174

layers.7.running_var f4 [5]
000000 b6 bc 05 3f b0 74 08 3f 0e 90 10 3f 4a 4f 18 3f
       0.52241075 0.5330305 0.5646981 0.59495986
000010 b6 63 22 3f
       0.63433397

layers.8.rho f4 [5]
000000 bd 0c e1 3f 0a c2 ba 3f c1 4f e4 3f 9e 06 ef 3f
       1.7582012 1.4590466 1.7836839 1.8673894
000010 0d a9 a4 3f
       1.286409

layers.8.gam f4 [5]
000000 6f 07 e3 3f 6f b2 dd 3f df 76 9c 3f f1 96 8d 3f
       1.7736644 1.7320079 1.2223777 1.1061689
000010 06 4d db 3f
       1.7132881

layers.9.weight f4 [3, 5]
000000 d8 56 d9 be b2 79 e9 3e 42 23 9b be 6c 76 db 3e
       -0.4244907 0.4560066 -0.30300337 0.42863786
000010 bd ac af 3d 9d 76 cf be 32 02 be be 0e b6 1f 3d
       0.08577869 -0.40520182 -0.3711105 0.03899198
000020 6f 63 b8 be 5e d7 b3 be 1e df a5 bd 16 f1 1f 3e
       -0.36013362 -0.3512525 -0.08099197 0.1561931
000030 b6 51 a0 3c 4e 4f 10 3e 11 a1 b8 be
       0.019570213 0.14092752 -0.36060384

layers.9.bias f4 [3]
000000 52 4e 89 be 5f 74 be 3e a4 fb 84 be
       -0.26817566 0.3719816 -0.25973237

exp_avg f4 [5]
000000 78 c7 af ba 1a f5 49 ba 26 fc 6b 39 0a 5a 84 3a
       -0.0013410887 -0.00077040645 0.00022505279 0.0010097635
000010 7d e9 69 3a
       0.0008923037

exp_avg_sq f4 [5]
000000 00 4b 5d 33 b9 ac 99 33 f6 56 9e 32 2f aa 37 33
       5.1523784e-08 7.156036e-08 1.8433166e-08 4.276279e-08
000010 27 21 17 33
       3.518758e-08

exp_avg f4 [5]
000000 04 51 48 af fc e5 96 2d 38 85 1c ae cf e9 e8 2e
       -1.8218677e-10 1.715516e-11 -3.5588615e-11 1.0591671e-10
000010 75 d6 40 2e
       4.3846222e-11

exp_avg_sq f4 [5]
000000 f8 33 e8 1c 75 92 af 1d 41 e5 0a 1d 0a ab 7e 1c
       1.5365906e-21 4.6473547e-21 1.838267e-21 8.4262613e-22
000010 b7 2b 37 1d
       2.4242448e-21

exp_avg f4 [10, 5]
000000 d0 35 56 3b 4d f0 4e 3b 3f 6e e3 ba 44 49 7b b9
       0.0032685883 0.0031576336 -0.0017351581 -0.00023964519
000010 84 92 85 3a 86 73 7f ba 7a db 79 3a 9c df de 3a
       0.001019076 -0.00097446924 0.0009531301 0.0017003897
000020 d4 47 4e 3b 68 cc 90 3a d9 ac 04 ba 84 bf 83 3a
       0.0031475918 0.0011047246 -0.00050611567 0.0010051583
000030 70 74 14 3b 8e 2e fd ba 0d a1 d3 ba 41 69 82 ba
       0.002265241 -0.0019316243 -0.0016146019 -0.0009949581
000040 7c ec f6 39 2d e4 9e b8 c4 6b 04 39 8c ec 45 ba
       0.0004709697 -7.576528e-05 0.00012628647 -0.0007550202
000050 1e a4 1d 3b 17 41 24 3b aa 86 3d ba 00 31 b2 ba
       0.002405412 0.002506321 -0.00072298443 -0.0013594925
000060 1e ee d6 ba 77 6b d3 ba b8 d9 e4 ba cc ff 0e 38
       -0.0016397869 -0.001613005 -0.0017459905 3.4093668e-05
000070 b7 bc 95 3a 50 fb 5a 3a 08 fd 53 bb 62 f6 59 bb
       0.0011424039 0.00083534885 -0.0032346863 -0.0033258428
000080 d2 cc a9 3a 8a 9e 3b 3b 7c 6d 29 b9 e6 29 06 3a
       0.0012954718 0.0028628432 -0.00016157882 0.00051179377
000090 b8 69 0a ba f4 51 d1 39 bb 9c 5d 3a 9c ef 0b b8
       -0.00052800355 0.00039924646 0.00084538356 -3.3363336e-05
0000a0 75 4c a4 3a 23 8d 4a ba 3a a2 f2 ba 8b 82 5f 3b
       0.0012534993 -0.00077267195 -0.0018511482 0.003410491
0000b0 69 8c c9 b9 22 86 fa 3a 9c 12 41 ba b0 88 09 3a
       -0.0003844232 0.0019113461 -0.0007365139 0.0005246503
0000c0 91 7d 60 3a 1a 25 b9 39
       0.0008563633 0.00035313593

exp_avg_sq f4 [10, 5]
000000 d7 61 95 34 80 e7 92 34 20 ea cc 33 ce 90 f8 33
       2.78246e-07 2.7363058e-07 9.542077e-08 1.157474e-07
000010 d1 b7 fb 32 e3 5e 8a 33 6d 3b 88 33 73 02 04 34
       2.9303836e-08 6.4433856e-08 6.343803e-08 1.2294349e-07
000020 be a6 9a 34 c0 c8 4a 33 f7 e3 f7 33 14 d1 76 33
       2.8806056e-07 4.721437e-08 1.15433004e-07 5.7466494e-08
000030 b9 6e 79 34 73 24 16 34 02 3e c5 33 63 17 ca 32
       2.3230213e-07 1.3983099e-07 9.1848065e-08 2.352653e-08
000040 c8 e8 30 32 39 14 6b 30 b6 ae 8c 31 1a b4 83 32
       1.0297477e-08 8.552124e-10 4.0943986e-09 1.5332308e-08
000050 90 6f 9e 34 cc 2c 7f 34 52 79 d6 33 92 61 0e 34
       2.9510966e-07 2.3765023e-07 9.9872196e-08 1.3260276e-07
000060 fb 87 9f 33 c3 74 9d 33 d3 8b c4 33 68 82 5d 31
       7.428749e-08 7.332121e-08 9.152395e-08 3.223386e-09
000070 7e 68 ac 33 c6 c6 cd 32 75 37 a6 34 e8 c1 94 34
       8.028381e-08 2.3955533e-08 3.096026e-07 2.7708234e-07
000080 a6 04 00 34 d2 a8 7c 34 93 7a df 32 97 9a 0c 33
       1.192262e-07 2.3530745e-07 2.6016357e-08 3.273689e-08
000090 7e ed 28 33 bb ee 01 33 6f e3 93 33 a0 7e 6d 32
       3.9331546e-08 3.0252277e-08 6.886591e-08 1.3824007e-08
0000a0 69 b3 d9 33 37 4b 9e 33 af aa d5 33 82 73 a7 34
       1.01374845e-07 7.37113e-08 9.9496326e-08 3.1190217e-07
0000b0 0b d1 ab 32 e7 85 0a 34 74 ef 8a 33 d2 06 3a 33
       2.0002082e-08 1.2900965e-07 6.469682e-08 4.3312703e-08
0000c0 d4 f9 99 33 2e ea b9 32
       7.170061e-08 2.1643327e-08

exp_avg f4 [10]
000000 c8 9f 4f af f4 0f b2 2e 92 63 4d af 90 b9 92 2e
       -1.8883306e-10 8.097337e-11 -1.8680016e-10 6.672274e-11
000010 0d f2 3c af 99 43 bd 2e 24 55 f6 ae 00 01 8c ac
       -1.7184494e-10 8.606733e-11 -1.1201909e-10 -3.9791503e-12
000020 a2 bc 60 ad cd ff db ae
       -1.2774811e-11 -1.0004406e-10

exp_avg_sq f4 [10]
000000 e7 f8 56 1d 25 18 1d 1d 42 15 26 1d da 18 95 1b
       2.8451344e-21 2.079126e-21 2.1980907e-21 2.4666042e-22
000010 b9 32 af 1d 9a 05 f7 1b ef 61 34 1d 3b 7f 8c 1c
       4.637456e-21 4.0866342e-22 2.3873432e-21 9.297311e-22
000020 9f b1 e7 1b 5a c5 90 1d
       3.833053e-22 3.832054e-21

exp_avg f4 [10]
000000 8a c3 e3 3a 30 82 bb 3a 2a 23 20 ba 1a 80 76 b8
       0.0017377001 0.0014305767 -0.00061087555 -5.8770274e-05
000010 ea dc 2f ba 42 fa 2e 37 da 1b cb 39 f6 8c 86 3a
       -0.0006708639 1.0429476e-05 0.00038739928 0.0010265398
000020 a2 08 d7 39 ce c5 6b bb
       0.00041014428 -0.0035976055

exp_avg_sq f4 [10]
000000 bc 4a af 33 ce d5 4c 33 34 47 ae 32 81 2e 94 30
       8.1626666e-08 4.7691906e-08 2.0288645e-08 1.0781634e-09
000010 f7 ff 88 32 c6 20 00 31 cf 24 d7 31 39 f1 0b 33
       1.5948883e-08 1.864508e-09 6.261508e-09 3.258285e-08
000020 d2 84 ea 31 26 c0 aa 34
       6.8253962e-09 3.1804774e-07

exp_avg f4 [10]
000000 7a d8 1b 3a 9e 39 67 3a 03 00 fb 39 79 a3 3c 39
       0.0005945038 0.00088205363 0.0004787446 0.00017989975
000010 54 74 ba 38 92 a7 b8 b6 b7 96 63 39 5d 5b d1 3a
       8.890839e-05 -5.503135e-06 0.00021704553 0.0015972663
000020 00 9a b0 b6 1e 73 a1 b9
       -5.2631367e-06 -0.00030794082

exp_avg_sq f4 [10]
000000 1f 51 55 32 7a 6c ab 32 73 11 79 32 f0 31 a4 30
       1.2416677e-08 1.995635e-08 1.4497675e-08 1.1946764e-09
000010 33 a8 ac 31 43 de 4f 31 df 83 1d 32 bf ee 8a 33
       5.024981e-09 3.0248806e-09 9.168587e-09 6.4695534e-08
000020 b4 ad 8d 32 91 6f 86 32
       1.6493551e-08 1.5650388e-08

exp_avg f4 [5, 10]
000000 80 92 d1 3a 7e b7 85 39 1c db 82 b9 99 3b 0a bb
       0.0015989095 0.0002550445 -0.0002495878 -0.0021092652
000010 f6 af f0 38 7c 95 fe 3a 9e ae 64 3b 86 21 d5 ba
       0.00011476867 0.0019423212 0.003489412 -0.0016260601
000020 42 bd 3e ba c5 a5 11 bb c0 db 37 bb 4d b0 12 bb
       -0.00072761264 -0.002222405 -0.0028054565 -0.0022382915
000030 0f c9 fb 39 1b 3c ea ba b4 ac 95 bb e7 6a 6f bb
       0.0004802425 -0.0017870696 -0.004567707 -0.0036532225
000040 d5 b7 42 bb 4a 03 18 bb 63 fe c2 39 ea b3 25 bc
       -0.0029711623 -0.002319532 0.00037192096 -0.010113696
000050 14 5a f5 39 a5 36 14 3b b8 d9 46 3a 7c 25 89 3a
       0.00046797155 0.0022615578 0.0007585543 0.0010463442
000060 55 30 38 ba 8c 2a f1 38 fb dd 37 ba 72 82 17 3b
       -0.0007026245 0.000114997005 -0.00070139737 0.0023118523
000070 23 32 89 ba 14 94 cb b8 eb 0d 0d 3c b3 36 f5 3b
       -0.0010467212 -9.707376e-05 0.008609275 0.0074833273
000080 b7 9c f4 ba a9 8f 6e ba bf 31 07 3b 01 7a 21 3c
       -0.0018662427 -0.00091003865 0.0020629016 0.009855748
000090 cf 7e df 3b be 60 7b 39 5b 82 21 bb 1c 45 29 bc
       0.0068205367 0.00023973265 -0.0024644348 -0.010331418
0000a0 b0 4e bf ba 80 e3 d2 ba c1 09 d4 ba 22 71 d9 39
       -0.0014595594 -0.0016089529 -0.0016177223 0.00041473756
0000b0 0c 39 99 ba 5a 74 58 ba d4 8d 12 ba 02 93 a8 ba
       -0.0011689975 -0.0008257084 -0.0005590592 -0.0012861195
0000c0 7b 6e 12 3b 64 ea 89 ba
       0.0022343684 -0.0010522124

exp_avg_sq f4 [5, 10]
000000 28 e8 78 34 ea 45 21 33 cc 9b 88 33 1c b3 fc 33
       2.3181258e-07 3.754932e-08 6.361333e-08 1.1767244e-07
000010 37 fa 05 34 6d 17 5f 34 90 d2 e4 34 2f b2 98 33
       1.2477618e-07 2.0777016e-07 4.2621514e-07 7.110463e-08
000020 be 9f 22 34 da 9f f5 34 57 59 94 34 06 8f 47 34
       1.514554e-07 4.5751113e-07 2.7632152e-07 1.8585351e-07
000030 5e 75 da 33 2f c7 be 33 e5 81 19 35 6d f7 bb 34
       1.0172765e-07 8.883796e-08 5.7185963e-07 3.501149e-07
000040 74 e1 7a 34 c4 34 18 34 98 4a 0e 33 de 2d 2a 36
       2.3365084e-07 1.4175299e-07 3.3129794e-08 2.5358672e-06
000050 85 fc 20 32 12 87 11 34 d5 90 c2 32 49 63 26 33
       9.370642e-09 1.3553316e-07 2.2650434e-08 3.8740186e-08
000060 63 f0 91 32 a0 42 ca 31 dc 57 a0 32 f2 e2 2a 34
       1.6989537e-08 5.886548e-09 1.8666405e-08 1.5915046e-07
000070 27 2b 08 33 e8 35 c5 30 1a 5e f7 35 1a 29 b2 35
       3.1704214e-08 1.4348958e-09 1.8430321e-06 1.3273996e-06
000080 3a ca ec 34 bf c8 a5 34 a0 9a 89 34 37 42 1e 36
       4.4105565e-07 3.0879707e-07 2.5630743e-07 2.3582377e-06
000090 7b b3 a6 35 74 af b7 34 d2 8e 22 34 87 49 32 36
       1.24202e-06 3.4214065e-07 1.5139383e-07 2.6566865e-06
0000a0 c0 bb 94 33 ba 1b 0b 34 5b c9 af 33 ce f8 a9 32
       6.9259386e-08 1.295547e-07 8.185699e-08 1.9787333e-08
0000b0 de 31 15 33 9c 50 18 33 fe 90 53 32 63 f3 83 33
       3.473712e-08 3.546357e-08 1.2314784e-08 6.144435e-08
0000c0 36 96 36 34 8d 09 ea 32
       1.7004717e-07 2.7245528e-08

exp_avg f4 [5]
000000 f0 a0 ba ad 52 a7 9b 2e 10 2f a1 2c c8 a7 a9 2d
       -2.1217222e-11 7.078306e-11 4.58112e-12 1.9287585e-11
000010 d5 f2 8b ae
       -6.364124e-11

exp_avg_sq f4 [5]
000000 0e b2 cf 1d b0 3b 34 1e b2 ec 81 1c 42 96 3e 1e
       5.497655e-21 9.541464e-21 8.597688e-22 1.0089589e-20
000010 c2 82 33 1d
       2.3758053e-21

exp_avg f4 [5]
000000 fd 10 d0 36 24 b8 05 37 6c 01 5b b3 97 85 9f 36
       6.2008608e-06 7.970291e-06 -5.0991204e-08 4.754121e-06
000010 a0 4f dd 36
       6.595583e-06

exp_avg_sq f4 [5]
000000 5c d9 82 2b 3c b1 d1 2b 94 57 61 26 b0 0c 30 2b
       9.297385e-13 1.4899536e-12 7.8181247e-16 6.254537e-13
000010 ec f9 90 2b
       1.0301183e-12

exp_avg f4 [5]
000000 68 e4 8e 3a e8 78 be 3a 00 e5 88 33 4c 4d 53 3a
       0.0010901811 0.0014531882 6.3746484e-08 0.00080605294
000010 0f cb a3 3a
       0.0012496429

exp_avg_sq f4 [5]
000000 59 51 f4 32 3a 93 55 33 a8 7d 14 2f 2b f9 85 32
       2.8442331e-08 4.972683e-08 1.3505164e-10 1.5596546e-08
000010 70 85 29 33
       3.946974e-08

exp_avg f4 [5]
000000 e2 81 eb 3b 16 db 78 3b 56 a0 ec b9 b3 45 27 3b
       0.007187114 0.0037972382 -0.00045132887 0.0025523722
000010 79 ef c3 3b
       0.005979475

exp_avg_sq f4 [5]
000000 91 01 a3 35 0a 9a cc 34 4f ba b0 31 7a 1f 5f 34
       1.2144902e-06 3.811004e-07 5.143455e-09 2.0779945e-07
000010 dd f3 61 35
       8.41739e-07

exp_avg f4 [5]
000000 41 7e d9 3b 4d f4 91 3b db f0 9d b9 b7 92 28 3b
       0.006637365 0.0044541718 -0.00030124825 0.0025722214
000010 c9 ff a7 3b
       0.0051269275

exp_avg_sq f4 [5]
000000 b0 9a 89 35 bd a6 06 35 61 a4 4a 31 e2 b6 3d 34
       1.0252315e-06 5.0161526e-07 2.9488307e-09 1.7668529e-07
000010 fc 52 28 35
       6.2705635e-07

exp_avg f4 [5]
000000 6e 66 78 ba fd d7 13 ba e7 68 85 38 10 1d b7 b9
       -0.00094757124 -0.000563979 6.361474e-05 -0.00034926133
000010 02 dc 7a ba
       -0.0009569527

exp_avg_sq f4 [5]
000000 83 ef b5 32 f4 6b 11 32 e7 93 e0 2e 8e 84 86 31
       2.118009e-08 8.4646565e-09 1.02126134e-10 3.914983e-09
000010 e1 d3 b9 32
       2.1633186e-08

exp_avg f4 [5]
000000 d4 01 d7 38 31 fc 1f b8 8a 9e f1 b7 63 98 12 38
       0.000102523394 -3.8143426e-05 -2.8803264e-05 3.4951034e-05
000010 67 ab 16 39
       0.00014368967

exp_avg_sq f4 [5]
000000 42 77 9b 2f ea 7b 3f 2e 14 90 a7 2d cc 36 be 2f
       2.8279074e-10 4.353843e-11 1.9049685e-11 3.4599734e-10
000010 47 77 07 30
       4.9282217e-10

exp_avg f4 [3, 5]
000000 e1 14 bc ba 58 70 8a bb 92 18 63 b9 a5 e9 01 bc
       -0.0014349484 -0.004224818 -0.0002165756 -0.00792924
000010 0c 45 43 bb 84 d9 35 bc d1 92 17 bc f3 00 8d bc
       -0.0029795794 -0.011099223 -0.009251312 -0.017212367
000020 f7 cd 69 bc 07 35 92 bc 00 00 00 00 00 00 00 00
       -0.014270297 -0.017847551 0.0 0.0
000030 00 00 00 00 00 00 00 00 00 00 00 00
       0.0 0.0 0.0

exp_avg_sq f4 [3, 5]
000000 03 ae 6e 33 4a d5 db 34 3c 18 d8 30 d3 7e be 35
       5.5571956e-08 4.0947117e-07 1.5722956e-09 1.4193014e-06
000010 36 24 83 34 3e dc 4d 36 1c 95 0c 36 24 e1 e9 36
       2.4426998e-07 3.0675578e-06 2.0948419e-06 6.970151e-06
000020 d3 a5 a7 36 9c cc fb 36 00 00 00 00 00 00 00 00
       4.9962923e-06 7.5042026e-06 0.0 0.0
000030 00 00 00 00 00 00 00 00 00 00 00 00
       0.0 0.0 0.0

exp_avg f4 [3]
000000 f0 d8 6a bc f5 a1 14 be 00 00 00 00
       -0.0143339485 -0.14514907 0.0

exp_avg_sq f4 [3]
000000 90 38 99 36 17 1f 02 3a 00 00 00 00
       4.56634e-06 0.0004963739 0.0
