lightning_logs/version_81/checkpoints/epoch=2-step=3.ckpt (torch, 28460 bytes, 56 tensors)

layers.0.weight f4 [5]
000000 2c 61 80 3f 0e 3c 7f 3f 99 5a 7f 3f 9a 43 7f 3f
       1.0029655 0.9970101 0.99747616 0.99712527
000010 1e 5b 80 3f
       1.0027807

layers.0.bias f4 [5]
000000 86 55 21 b8 8f 7c 1e 38 48 ff e3 36 d4 75 0e 38
       -3.846504e-05 3.778614e-05 6.794846e-06 3.3965174e-05
000010 10 2f b3 b7
       -2.1360378e-05

layers.0.running_mean f4 [5]
000000 ce e4 0a 45 a9 4f 1e 45 04 71 3b 45 78 05 28 45
       2222.3003 2532.9788 2999.0635 2688.3418
000010 0c 92 58 45
       3465.128

layers.0.running_var f4 [5]
000000 60 77 45 4d 92 f6 5f 4d d3 73 83 4d 00 0d 6d 4d
       2.0705843e+08 2.348424e+08 2.7567574e+08 2.4856576e+08
000010 0d 71 96 4d
       3.154989e+08

layers.1.weight f4 [10, 5]
000000 36 3b a4 be ab ef a8 3e bb dc da bd 72 c8 a5 3e
       -0.32076424 0.32995352 -0.10686632 0.3237949
000010 09 bb b3 3e 2d 37 c7 be ed 7b 51 be 2e 79 53 bd
       0.35103634 -0.38909283 -0.2045743 -0.051629238
000020 f6 aa 81 be df 35 13 be a3 43 bb be d9 4f 6f 3e
       -0.25325745 -0.14376019 -0.3657504 0.23370303
000030 7b 44 70 3e 80 5a a1 3d b1 c5 dd be 34 fd ac be
       0.23463623 0.0787859 -0.4331489 -0.3378693
000040 12 64 18 3d d0 26 da 3e 42 f3 7a 3e 52 e0 8d be
       0.03720481 0.42607737 0.24506858 -0.27710205
000050 7b 9f bf be a4 f7 40 bc 95 eb ea 3d 85 05 db 3e
       -0.3742636 -0.011777792 0.11470715 0.4277765
000060 1c 97 99 be 9d da 23 3e 28 93 81 be ef 57 a9 be
       -0.299981 0.16001363 -0.25307584 -0.330749
000070 ce 96 ca 3e 14 9f 6b 3e 2e 63 d6 be ee f5 16 be
       0.3956818 0.23009902 -0.41872543 -0.14742252
000080 b6 e0 98 be 39 96 b0 3e 2f f4 85 be b1 12 3e 3c
       -0.2985894 0.3448961 -0.2616286 0.011601136
000090 5c 77 2f 3d 53 32 7e be 88 cb d4 be 53 87 92 3e
       0.04283844 -0.24823885 -0.41561532 0.2861887
0000a0 c6 d0 88 be df c9 71 3e 27 c1 6b 3e 60 08 a8 3e
       -0.26721781 0.23612164 0.230229 0.3281889
0000b0 36 da 32 bd 6d 21 ad be 40 3f 3e 3e 87 bf d5 3e
       -0.043665133 -0.33814564 0.18578815 0.41747686
0000c0 23 8c 66 3d a0 4f 5a 3e
       0.05628599 0.21319437

layers.1.bias f4 [10]
000000 36 c2 d6 be de 43 ac 3e dc b5 d3 bc 12 fb 6b 3e
       -0.41945046 0.3364553 -0.025843553 0.23044994
000010 c3 d1 c1 3e a8 19 e2 3d 27 ce a6 be d8 4f 93 be
       0.37855348 0.1104005 -0.32579157 -0.28771853
000020 29 b5 3e 3e 0f 3a a8 ba
       0.18623795 -0.0012834686

layers.2.weight f4 [10]
000000 77 3e 7f 3f 93 60 80 3f 89 5c 80 3f 15 60 80 3f
       0.9970469 1.0029472 1.002824 1.0029322
000010 fe 5b 80 3f db 5b 80 3f 0e 5c 80 3f 92 3c 80 3f
       1.0028074 1.0028032 1.0028093 1.0018485
000020 23 56 80 3f 76 29 80 3f
       1.0026287 1.0012653

layers.2.bias f4 [10]
000000 20 f8 3f bb 88 64 2a 3b 0c 55 3f bb f2 36 3e bb
       -0.002929218 0.0025999863 -0.002919498 -0.002902445
000010 01 74 3a 3b 0d 84 2d 3b 66 29 3f 3b 4f 21 28 3b
       0.0028450491 0.0026476413 0.0029168963 0.002565462
000020 a2 8b 3e 3b 6e 72 3e 3b
       0.0029074927 0.0029059905

layers.2.running_mean f4 [10]
000000 ea 43 49 be 6c 73 21 3e 54 43 46 bc d2 48 dd 3d
       -0.19654813 0.15766686 -0.012101013 0.10804905
000010 a0 9b 35 3e 1e e6 53 3d b0 52 1c be 71 0d 0a be
       0.17735147 0.05173313 -0.15265918 -0.1348169
000020 44 b1 b2 3d b8 64 23 ba
       0.08725217 -0.0006232965

layers.2.running_var f4 [10]
000000 e0 05 3d 3f 50 33 29 3f b6 f0 43 3f 4b 71 3f 3f
       0.7383709 0.6609392 0.7653917 0.74782246
000010 07 af 38 3f 4b ba 44 3f 53 59 3c 3f ef 5a 2c 3f
       0.7214207 0.7684676 0.735738 0.67326254
000020 82 9c 2d 3f 49 cc 38 3f
       0.67816937 0.72186714

layers.4.weight f4 [5, 10]
000000 8c 37 85 be 73 03 8e 3d 34 6d a5 3d 5d ed 49 be
       -0.2601894 0.06934252 0.080774695 -0.19719453
000010 3b 90 c4 bd cb e6 87 be ec c2 89 be 78 27 ee 3d
       -0.09597822 -0.2654327 -0.26906526 0.11628622
000020 4b 7d 7b 3e e6 ba 51 3d 0e 37 47 3d 9d a9 1c be
       0.24559514 0.05120363 0.04863649 -0.15299077
000030 19 3c 5b bd 1c 4c 1f be 23 08 9b be 49 0b 85 3d
       -0.05352411 -0.15556377 -0.30279645 0.06496293
000040 aa b1 6c be e7 2a 90 3e 80 51 f0 bd fc e6 cb 3d
       -0.23114648 0.28157732 -0.11734295 0.09956166
000050 47 38 9f 3e e3 2f dc bd 30 2f 8f bd 2d e0 10 bd
       0.31097624 -0.10751321 -0.06991422 -0.03537004
000060 cb 73 26 3e 7b da d4 bd 25 70 17 bd 0c c2 2a 3e
       0.16255109 -0.10393234 -0.036972184 0.16675586
000070 36 b7 37 3e e3 f4 8c 3e 73 0c 2f be 29 d3 31 be
       0.17940983 0.27530584 -0.17094593 -0.17365707
000080 96 bb f7 3d e3 38 54 3c 3c eb 8b be 4b ab 3a 3e
       0.12096326 0.012953016 -0.27327907 0.18229406
000090 82 71 c0 3d 96 62 43 be 2e 38 51 be 4e 3a c9 bc
       0.0939665 -0.19080576 -0.20431587 -0.024563935
0000a0 a8 e1 70 be 22 d0 85 be ef 06 66 3d ad 02 42 3e
       -0.23523581 -0.26135355 0.056158956 0.18946333
0000b0 86 b3 4a 3d 21 25 da 3d 8d 28 66 be e2 14 17 bd
       0.049487613 0.10651613 -0.22476406 -0.03688515
0000c0 d6 bb 81 3d b0 f3 d8 bc
       0.06334655 -0.026483387

layers.4.bias f4 [5]
000000 68 b6 53 3e 11 9a 48 3e c3 47 c6 3b 6c 29 87 be
       0.20675051 0.19590022 0.006051035 -0.2639879
000010 f2 69 0d 3e
       0.13809946

layers.5.weight f4 [5]
000000 75 f6 7f 3f db e2 7f 3f e8 d8 7f 3f d1 dd 7f 3f
       0.9998544 0.9995553 0.9994035 0.9994784
000010 e8 da 7f 3f
       0.999434

layers.5.bias f4 [5]
000000 de 47 42 bb c0 ac 3c 3b 68 2b 3d 3b 12 39 3f bb
       -0.0029644887 0.002878949 0.0028864983 -0.0029178304
000010 54 96 43 3b
       0.0029844241

layers.5.running_mean f4 [5]
000000 1e 5e fb 3c 6d 27 b4 3c c2 a9 d0 3d 0d e7 57 be
       0.030684527 0.021991456 0.10188629 -0.21084233
000010 fe dc 13 3a
       0.00056405354

layers.5.running_var f4 [5]
000000 b1 0c 1b 3f 66 08 21 3f 73 de 26 3f 8d ee 0f 3f
       0.6056624 0.6290344 0.6518318 0.56223375
000010 9a f3 0d 3f
       0.5544983

layers.7.weight f4 [5]
000000 17 5c 80 3f 6b 5c 80 3f 03 61 80 3f e8 5b 80 3f
       1.0028104 1.0028204 1.0029606 1.0028048
000010 08 5b 80 3f
       1.002778

layers.7.bias f4 [5]
000000 51 cf 36 3b e1 2d 3e 3b 21 ac 3f 3b 5f d1 38 3b
       0.0027894566 0.0029019045 0.0029246884 0.0028200967
000010 c4 ee 36 3b
       0.0027913311

layers.7.running_mean f4 [5]
000000 0a d2 01 3e c8 3f da 3d 99 30 3a 3e 3d 23 2c 3e
       0.1267778 0.106566966 0.18182601 0.16810317
000010 16 16 01 3e
       0.12606081

layers.7.running_var f4 [5]
000000 52 39 0b 3f a1 46 2b 3f de 7d 56 3f 5f ad 12 3f
       0.5438434 0.66904646 0.8378581 0.57295793
000010 8f 13 61 3f
       0.8792047

layers.8.rho f4 [5]
000000 15 99 96 3f 1b 8f 83 3f 73 6e f2 3f 06 b8 94 3f
       1.1765467 1.0278047 1.8939956 1.161866
000010 93 fc 8c 3f
       1.101458

layers.8.gam f4 [5]
000000 52 cc fe 3f 53 6c f6 3f 0f 7d 84 3f 65 f1 9b 3f
       1.9906104 1.9251808 1.0350665 1.2183043
000010 b8 ef c1 3f
       1.5151281

layers.9.weight f4 [3, 5]
000000 14 da ad be 1f e0 6c 3d 17 34 99 be 9b 29 c2 bd
       -0.33955443 0.057830926 -0.29922554 -0.09480592
000010 69 59 19 bd a5 b3 aa be 2a c6 9f 3e 0e b6 92 3e
       -0.037438784 -0.33340183 0.31205875 0.28654522
000020 a3 56 41 3c 4f 83 a8 3e 69 6c ae 3e 68 80 90 3e
       0.011800441 0.3291268 0.34067085 0.28222966
000030 4f 9e af 3e 95 5c cf 3e 98 91 16 3d
       0.34300467 0.40500322 0.036759943

layers.9.bias f4 [3]
000000 b0 94 ce bd 7b fd 29 be 0c 30 be bd
       -0.10086954 -0.16600601 -0.09286508

exp_avg f4 [5]
000000 d4 c3 1a ba d9 59 3b 3a ae cb a3 39 5c 73 4b 3a
       -0.00059038145 0.0007146872 0.00031241536 0.00077610253
000010 da 8e 9e ba
       -0.0012097016

exp_avg_sq f4 [5]
000000 b6 4d 77 32 6f e0 b7 32 8e a0 43 32 51 b7 13 33
       1.4394962e-08 2.1406064e-08 1.1387e-08 3.439283e-08
000010 5d ce b9 33
       8.652271e-08

exp_avg f4 [5]
000000 9c c4 10 2e 82 95 97 ad f8 53 e3 2b 1b 5a c4 2d
       3.2916433e-11 -1.7233107e-11 1.6152626e-12 2.2322635e-11
000010 2d dd a4 2b
       1.171429e-12

exp_avg_sq f4 [5]
000000 e6 87 98 1a 90 ea 55 1a 99 f3 de 18 d2 0a b5 1b
       6.308528e-23 4.4236846e-23 5.7631626e-24 2.995093e-22
000010 9c 6a b1 1a
       7.337772e-23

exp_avg f4 [10, 5]
000000 47 4e d0 3a 62 48 fd 3b b4 85 e6 39 d6 4c 04 bb
       0.0015892469 0.007729576 0.00043968635 -0.00201874
000010 f0 10 80 bb ff 8f 44 b9 fa 81 26 b8 d1 ed 0f 3b
       -0.003908269 -0.0001874566 -3.9698534e-05 0.0021961818
000020 5c 14 d1 b8 d2 81 63 b7 7e b3 82 b9 89 82 21 bb
       -9.969689e-05 -1.35604805e-05 -0.00024929264 -0.0024644455
000030 7f 22 c1 3a c0 f9 a4 36 a0 93 9c b9 9c 50 6c ba
       0.0014735012 4.9166556e-06 -0.00029864628 -0.0009014697
000040 f9 4a ba 3b 4e 9f 01 bb 1e 11 9c 39 11 f1 5c ba
       0.005685207 -0.001977879 0.00029767392 -0.00084282557
000050 12 34 e4 39 da 54 1e 3b ed 3a bf ba 1a 56 aa 3a
       0.00043526344 0.0024159462 -0.0014589705 0.0012995631
000060 e6 63 36 3a 0c 93 fc ba b2 6a 43 b9 b2 fb 9e b9
       0.0006957635 -0.0019269898 -0.00018636396 -0.00030323636
000070 f0 de a1 39 ac 6b 17 39 3f 08 f5 38 10 92 ae 39
       0.00030874414 0.00014440593 0.00011684046 0.0003329669
000080 47 6d 2d 39 2a fa 2f 3a 43 ff ae 39 3f ec 48 ba
       0.00016539275 0.00067129976 0.0003337805 -0.0007664598
000090 3a 2d 96 bb 9e 42 41 38 f0 e8 ec 37 3e 3f 46 3a
       -0.004583028 4.6076828e-05 2.8241862e-05 0.00075625244
0000a0 15 78 95 b8 88 f7 c3 bb 02 a8 91 3b 74 7c 97 3a
       -7.127241e-05 -0.0059804358 0.004445077 0.0011557476
0000b0 50 8d 57 3a b5 9c 21 39 b4 0b 0a 3a 0a 68 f4 38
       0.00082226563 0.00015412534 0.0005266026 0.000116542054
0000c0 7e e8 39 3a c8 ac 29 ba
       0.0007091834 -0.0006472585

exp_avg_sq f4 [10, 5]
000000 74 76 f8 33 4c 18 34 36 2f ff 1c 32 20 8d 36 34
       1.15699464e-07 2.6836233e-06 9.138417e-09 1.7001412e-07
000010 99 e4 4a 35 da ed c7 30 50 82 d6 2e 8e 38 5d 34
       7.558352e-07 1.4546757e-09 9.7547415e-11 2.0602803e-07
000020 8a ea ea 2f a7 c4 97 2e ff 18 65 31 76 25 92 34
       4.2731002e-10 6.9016175e-11 3.3338095e-09 2.7221876e-07
000030 d7 d1 ce 33 70 20 19 30 22 f3 a4 31 80 5a 1c 33
       9.630792e-08 5.570717e-10 4.800669e-09 3.640389e-08
000040 bd e0 c8 35 7c 10 3b 34 b6 23 7a 31 d3 8c 0b 33
       1.4966569e-06 1.7421729e-07 3.6400087e-09 3.249154e-08
000050 26 be 1d 32 7c 1a 02 35 6e 4a e1 33 15 b3 a1 33
       9.1818375e-09 4.8467314e-07 1.0490918e-07 7.5297216e-08
000060 fb 24 bd 32 a7 7c 23 34 60 2f d7 30 ae 0c 85 31
       2.2019313e-08 1.5225906e-07 1.5656774e-09 3.872251e-09
000070 50 ef 9b 31 e0 21 95 31 c3 00 31 30 f5 1a c7 31
       4.5383004e-09 4.340322e-09 6.439331e-10 5.794727e-09
000080 8b f8 bf 30 a9 2b c7 32 36 bc d1 31 5e 9c 1f 33
       1.3967719e-09 2.3186503e-08 6.1040977e-09 3.7162287e-08
000090 13 c5 82 35 2c 66 74 30 c4 9f 3f 31 56 13 fc 32
       9.743111e-07 8.891188e-10 2.7884974e-09 2.9345454e-08
0000a0 b1 12 54 31 4b 21 ec 35 06 17 71 35 db f7 af 33
       3.0860685e-09 1.759306e-06 8.9813e-07 8.194157e-08
0000b0 db 90 0c 33 8f 13 ef 31 24 0f 97 32 f3 24 c5 32
       3.2728035e-08 6.958039e-09 1.7585599e-08 2.2950621e-08
0000c0 30 ed 2b 33 a0 89 81 33
       4.002976e-08 6.0320644e-08

exp_avg f4 [10]
000000 5a 64 bb ad 26 06 41 2e 77 be 3f ad 2a 5c 3f 2f
       -2.1304004e-11 4.388858e-11 -1.0899385e-11 1.7404092e-10
000010 62 10 f8 ae fe d4 38 2d 62 10 c8 ad 1d 2f 1d 2d
       -1.12806445e-10 1.0506483e-11 -2.2744643e-11 8.934878e-12
000020 0b d7 a3 ae d3 4d b2 ae
       -7.450581e-11 -8.108327e-11

exp_avg_sq f4 [10]
000000 91 64 48 1b d9 90 46 1b a7 b5 48 1b 5a 5a 16 1d
       1.6576107e-22 1.6424979e-22 1.6602307e-22 1.9899045e-21
000010 fd 89 27 1c 54 69 c4 18 42 07 be 1a 63 18 5e 1b
       5.543401e-22 5.0771167e-24 7.8593884e-23 1.837129e-22
000020 8f 67 17 1c 57 ca eb 1b
       5.0095555e-22 3.9008248e-22

exp_avg f4 [10]
000000 3b c7 33 3b 93 cb 38 b9 8d bc 8f b9 40 8b 57 ba
       0.0027431983 -0.00017623445 -0.00027415567 -0.0008222349
000010 a4 8a 63 b9 a2 12 af b9 27 f5 c3 b9 a4 87 08 b8
       -0.00021700055 -0.00033392484 -0.0003737595 -3.2551252e-05
000020 57 fd e5 b9 02 79 88 b8
       -0.00043867037 -6.507525e-05

exp_avg_sq f4 [10]
000000 0b 72 b9 34 50 c6 b0 30 92 3b 8e 31 57 8d fc 32
       3.4541912e-07 1.2862049e-09 4.1395163e-09 2.9400935e-08
000010 9f ac 26 31 5e cc b2 31 20 cf 05 32 8f ed 4d 31
       2.4254303e-09 5.2037157e-09 7.788714e-09 2.9966463e-09
000020 a2 7a 4d 32 33 7a 90 31
       1.1960454e-08 4.204844e-09

exp_avg f4 [10]
000000 a2 44 b4 3a fb cd 0a b9 56 04 d9 38 20 55 34 3a
       0.0013753364 -0.00013237439 0.00010348174 0.00068791397
000010 2e ba 67 ba 0e 86 28 b9 d1 10 99 ba e6 2f f8 b8
       -0.00088396936 -0.00016071668 -0.0011677985 -0.00011834483
000020 d2 71 2c ba 18 10 08 ba
       -0.000657824 -0.00051903864

exp_avg_sq f4 [10]
000000 b2 e2 bd 33 82 b0 86 30 ad f3 06 30 93 23 cb 32
       8.842234e-08 9.79995e-10 4.90952e-10 2.3648488e-08
000010 d4 c6 1b 33 03 ee c0 30 2c 5a 8d 33 87 f3 cd 30
       3.6269583e-08 1.4037486e-09 6.582226e-08 1.4984928e-09
000020 14 ae b8 32 97 35 5f 32
       2.149958e-08 1.2992493e-08

exp_avg f4 [5, 10]
000000 3f 28 18 bc 93 78 12 3b a6 3c 4f bb b6 c2 a4 3b
       -0.009286939 0.00223497 -0.0031621843 0.005028094
000010 70 c2 f0 3a 4c f6 f3 b9 f1 6c 7f 3a 39 22 11 bb
       0.0018368494 -0.00046532077 0.00097437116 -0.0022145642
000020 bb d1 6b bb 12 63 b2 3a b4 8f b6 39 c6 2e 42 3a
       -0.0035983163 0.0013609848 0.00034820812 0.00074074825
000030 58 0d 82 b9 34 d7 2c b6 71 3d 90 38 42 2b d0 ba
       -0.00024805474 -2.5755262e-06 6.8778994e-05 -0.0015882032
000040 9a bf f6 39 b8 0f 5b 3a 0a 7f cd b9 1d a3 82 39
       0.0004706353 0.0008356529 -0.00039195298 0.0002491706
000050 31 d3 6a 3a da 72 f6 39 98 aa 55 3a 72 ee ba ba
       0.00089578616 0.00047006347 0.00081507256 -0.0014261736
000060 9a 85 d1 b9 f0 17 ff b9 44 28 bf 38 12 b6 08 bb
       -0.00039963127 -0.00048655225 9.11509e-05 -0.0020860475
000070 6a 29 d3 3a 33 00 18 ba 6b bb a9 b9 25 5a 67 3a
       0.0016110365 -0.00057983695 -0.0003237383 0.0008825383
000080 9f 22 2e b8 01 b4 81 b9 53 13 95 b8 10 6d f2 ba
       -4.1517076e-05 -0.0002473891 -7.108473e-05 -0.0018495638
000090 d2 da d2 39 af 62 d1 ba a1 41 a0 b9 b9 08 9c b9
       0.00040217355 -0.0015974845 -0.00030566475 -0.00029761138
0000a0 26 5c 5f 39 cb 47 b8 38 5a 13 c0 39 0e 77 13 3a
       0.00021301265 8.787176e-05 0.00036635512 0.00056253455
0000b0 1e fb cc 39 3a d3 3e ba 12 4e 49 39 7c 2f 04 ba
       0.0003909701 -0.00072794 0.00019197937 -0.0005042476
0000c0 21 8c 0b 3a 4a 7c 00 3a
       0.000532331 0.0004901333

exp_avg_sq f4 [5, 10]
000000 df 81 86 36 10 f4 a3 34 f5 7e 09 35 97 ea 91 35
       4.00863e-06 3.0538695e-07 5.1221224e-07 1.0871616e-06
000010 d3 f7 1e 34 49 5e 54 32 3d 1a 79 33 13 aa 71 34
       1.4805055e-07 1.2361462e-08 5.7998694e-08 2.2506747e-07
000020 07 3a 2f 35 57 c4 a4 33 c0 19 c3 31 be 70 c8 32
       6.527702e-07 7.672559e-08 5.6781744e-09 2.3334334e-08
000030 c8 e5 32 31 de 04 5c 2e 21 69 7e 2f ca 55 df 33
       2.6033025e-09 5.002653e-11 2.3138515e-10 1.0399852e-07
000040 7d 6f 21 32 06 f7 fb 32 c4 a7 dd 31 fb 2d 40 31
       9.396783e-09 2.9332579e-08 6.4510193e-09 2.7965814e-09
000050 d6 64 7b 33 c7 a6 34 32 37 e5 94 33 8c 09 21 34
       5.85322e-08 1.05153e-08 6.933481e-08 1.4997767e-07
000060 5b bd 1a 33 5e 4e f8 32 53 1e ca 32 6b 19 9f 34
       3.6028137e-08 2.8906637e-08 2.3529685e-08 2.9634552e-07
000070 34 72 47 34 03 53 8e 33 4d 6a c2 31 92 09 37 33
       1.8574866e-07 6.62749e-08 5.658228e-09 4.2616712e-08
000080 8b d6 08 2f 78 bd 67 31 9e 78 b0 2f 68 23 19 34
       1.2445349e-10 3.3722625e-09 3.2099917e-10 1.4262116e-07
000090 36 6d 12 32 3c c4 e1 33 f2 6e b0 31 81 2e a2 31
       8.52315e-09 1.0513074e-07 5.134887e-09 4.7201074e-09
0000a0 a5 1d 30 31 a0 f5 b5 2f d4 ea cf 31 02 21 68 32
       2.5628222e-09 3.3098235e-10 6.0511898e-09 1.3511682e-08
0000b0 aa 75 fb 31 da 4c bb 32 c0 87 01 31 ce 02 3a 32
       7.3184383e-09 2.1804613e-08 1.8849136e-09 1.0827263e-08
0000c0 58 21 6c 32 0e 2c 2e 32
       1.37445895e-08 1.013815e-08

exp_avg f4 [5]
000000 48 b6 f3 ad 66 66 26 ae ec 51 83 af 00 00 08 ae
       -2.770685e-11 -3.7834978e-11 -2.388697e-10 -3.092282e-11
000010 11 58 99 2d
       1.7433196e-11

exp_avg_sq f4 [5]
000000 80 b8 8b 1d fc 5c ed 1a c2 cb 34 1d 40 71 ba 1b
       3.6983762e-21 9.817113e-23 2.3928142e-21 3.0844305e-22
000010 92 40 ae 1a
       7.206903e-23

exp_avg f4 [5]
000000 f9 25 9e 34 72 9c 8c 33 ef ca 5a 35 f8 a5 35 34
       2.9457422e-07 6.547715e-08 8.1506636e-07 1.6917318e-07
000010 8e 67 49 33
       4.6893142e-08

exp_avg_sq f4 [5]
000000 78 98 02 28 f4 96 ab 25 d9 f4 32 29 b2 20 05 27
       7.249511e-15 2.976606e-16 3.973631e-14 1.8475182e-15
000010 d8 5d 3b 25
       1.625146e-16

exp_avg f4 [5]
000000 71 88 fb 39 fc 62 cb b8 d9 79 70 ba 1b 75 62 39
       0.00047976107 -9.6982316e-05 -0.000917343 0.00021596665
000010 f8 40 60 b8
       -5.346627e-05

exp_avg_sq f4 [5]
000000 4b 0c 2d 32 7f 8e fb 2f 7d f4 2e 33 a8 59 16 31
       1.007272e-08 4.5757884e-10 4.0734893e-08 2.1878837e-09
000010 ad a6 01 2f
       1.1791697e-10

exp_avg f4 [5]
000000 55 1c 16 ba 63 b3 75 ba c4 4f 98 bb 65 5e dc b9
       -0.00057262677 -0.0009372739 -0.0046481807 -0.00042032
000010 e0 5e 29 ba
       -0.0006460976

exp_avg_sq f4 [5]
000000 59 f2 93 32 92 ab 3d 33 0e e7 70 35 d0 54 1e 32
       1.722326e-08 4.4161034e-08 8.9743196e-07 9.2160946e-09
000010 4b 92 c1 32
       2.2534683e-08

exp_avg f4 [5]
000000 e2 8d c9 b9 ec 35 56 ba c7 a6 64 bb d2 1f 47 b9
       -0.00038443418 -0.0008171487 -0.0034889446 -0.00018989973
000010 e5 7d 9d b9
       -0.00030039172

exp_avg_sq f4 [5]
000000 4d af 15 32 9d 5d 06 33 ae e9 14 35 33 45 04 31
       8.7128e-09 3.1284447e-08 5.5474345e-07 1.9247863e-09
000010 03 7c ab 31
       4.9908535e-09

exp_avg f4 [5]
000000 b5 37 c7 38 01 e9 2f 39 e0 83 28 3a e9 ff 9e 38
       9.499436e-05 0.00016776101 0.00064283423 7.581694e-05
000010 11 c9 f2 38
       0.00011576911

exp_avg_sq f4 [5]
000000 85 48 02 30 0b 64 c2 30 5a 69 93 32 30 d4 a4 2f
       4.739678e-10 1.4143792e-09 1.716096e-08 2.9982195e-10
000010 e0 da 46 30
       7.234302e-10

exp_avg f4 [5]
000000 3c 49 8a b7 33 fa 12 b8 e0 da 81 b9 62 3d 4c b8
       -1.6484984e-05 -3.504213e-05 -0.00024767872 -4.8694557e-05
000010 8c 0e 7f b8
       -6.0810286e-05

exp_avg_sq f4 [5]
000000 00 fd 4c 2d 5f f4 9c 2e 33 fd 3e 31 42 5d ff 2e
       1.1652235e-11 7.137468e-11 2.7792566e-09 1.16126234e-10
000010 63 b5 4e 2f
       1.8800032e-10

exp_avg f4 [3, 5]
000000 00 00 00 00 00 00 00 00 00 00 00 00 00 00 00 00
       0.0 0.0 0.0 0.0
000010 00 00 00 00 46 3f 50 bb 05 d7 9d bb 86 55 c6 bb
       0.0 -0.0031775995 -0.004816892 -0.0060526757
000020 4d 4c c6 b9 45 47 c4 bb d8 b9 8d bb 72 0b a3 bb
       -0.0003782235 -0.0059899413 -0.004325133 -0.0049757296
000030 e5 d9 01 bc f6 c7 43 bb 54 bc be bb
       -0.007925485 -0.0029873825 -0.0058207903

exp_avg_sq f4 [3, 5]
000000 00 00 00 00 00 00 00 00 00 00 00 00 00 00 00 00
       0.0 0.0 0.0 0.0
000010 00 00 00 00 c4 b1 e7 34 ae 45 8a 35 b4 c8 c7 35
       0.0 4.3156444e-07 1.0302081e-06 1.4885068e-06
000020 23 09 e0 31 5d 77 d3 35 bd 8c 56 35 8c 9a 92 35
       6.5202967e-09 1.5755464e-06 7.9926014e-07 1.0922827e-06
000030 a1 03 2d 36 68 14 d2 34 b6 45 c8 35
       2.5781121e-06 3.9130396e-07 1.492145e-06

exp_avg f4 [3]
000000 00 00 00 00 d9 b5 62 bc 94 79 af bc
       0.0 -0.013837301 -0.021420278

exp_avg_sq f4 [3]
000000 00 00 00 00 dd b8 08 37 6f 36 af 37
       0.0 8.1492735e-06 2.0886973e-05
