lightning_logs/version_105/checkpoints/epoch=3-step=8.ckpt (torch, 28460 bytes, 56 tensors)

layers.0.weight f4 [5]
000000 cc 0c 7e 3f e1 5f 80 3f 90 e7 7d 3f 7b d7 7d 3f
       0.99238276 1.002926 0.9918146 0.9915692
000010 96 e0 80 3f
       1.0068538

layers.0.bias f4 [5]
000000 bc a1 12 39 1a e8 9f 38 17 27 b7 38 45 13 22 39
       0.00013983896 7.624943e-05 8.733401e-05 0.00015456702
000010 89 16 6f b7
       -1.4250757e-05

layers.0.running_mean f4 [5]
000000 db 80 83 42 5e 8c 83 42 fe 9b 83 42 31 92 83 42
       65.75167 65.774155 65.80467 65.78553
000010 b4 94 83 42
       65.790436

layers.0.running_var f4 [5]
000000 0b 93 12 3f cf cb 0e 3f b4 18 16 3f 10 63 0d 3f
       0.5725562 0.5577974 0.58631444 0.5522928
000010 3c dd 13 3f
       0.5775945

layers.1.weight f4 [10, 5]
000000 66 bd 7a be c6 73 f7 3d 7d ad c4 be 9b 09 a7 be
       -0.24486312 0.12082629 -0.3841361 -0.32624516
000010 1e 46 e5 be 1e 54 a3 be 02 c7 cb bd 25 c5 94 be
       -0.44780058 -0.31900114 -0.09950067 -0.2905666
000020 5c 02 69 3e e7 db 50 be 30 fc ce 3e 0a 99 d9 be
       0.22754806 -0.20396386 0.4042678 -0.42499572
000030 5f e4 32 3b 1e 5c 8d bd c8 c7 88 bd d4 d5 7d 3e
       0.0027296764 -0.069023356 -0.0667873 0.247886
000040 c3 d0 ba 3e 07 14 09 be dd b9 8b be 25 f3 a9 3e
       0.36487398 -0.13386546 -0.2729024 0.33193317
000050 ed 72 fc bd d8 79 c6 be 01 2c c7 be d9 ea 86 be
       -0.12326608 -0.38764834 -0.3890076 -0.2635105
000060 dd b4 d7 3e e0 b3 be bd b9 da 8f 3d c2 01 cf 3e
       0.42130175 -0.09311652 0.0702414 0.4043103
000070 53 63 48 3e c1 1a 24 be 75 bb d1 be 69 40 35 be
       0.19569139 -0.16025831 -0.4096333 -0.17700352
000080 81 a9 bb be 61 28 4d be 3e 88 6d be 7f 80 9d be
       -0.3665276 -0.20034935 -0.23196504 -0.30762097
000090 0e 23 a7 3c b2 78 99 3d a2 13 6e be 3e f6 f7 bc
       0.020402458 0.07493724 -0.23249677 -0.030268785
0000a0 21 a5 30 be b3 70 ba be e9 d8 0f 3e cd de a1 be
       -0.17250492 -0.36414108 0.14047588 -0.31615296
0000b0 42 bd b6 be 62 e6 dd 3d bb 02 9e be f6 ad 6e 3e
       -0.35691267 0.10834958 -0.30861458 0.23308548
0000c0 70 00 13 3e 30 6f df 3e
       0.14355636 0.43639517

layers.1.bias f4 [10]
000000 fe a9 2a be 09 67 e4 3d 73 91 87 3e 62 97 35 3e
       -0.1666641 0.11152465 0.26478156 0.17733529
000010 bf 8d c2 3e 71 50 0a 3e fb 86 ba be 5d 31 a2 be
       0.3799877 0.13507248 -0.36431107 -0.31678286
000020 ae f9 33 be bd ff 3d be
       -0.17575714 -0.18554588

layers.2.weight f4 [10]
000000 73 41 81 3f 96 43 81 3f 53 f0 7e 3f ee 9e 7f 3f
       1.0098099 1.009875 0.99585456 0.9985188
000010 1d de 7d 3f cd da 7e 3f 0a e3 80 3f ef cd 7d 3f
       0.9916704 0.99552613 1.0069287 0.99142355
000020 94 dd 80 3f d9 ae 7d 3f
       1.006762 0.9909492

layers.2.bias f4 [10]
000000 74 26 21 3b 62 14 24 3c 90 14 0f 3a 0e 65 ae 3b
       0.002458957 0.010014625 0.0005458081 0.0053221053
000010 8d 7c f7 bb 88 e5 b5 bb be ee 0a 3c 96 f0 22 bc
       -0.0075526894 -0.005551044 0.008479772 -0.0099450555
000020 1e bd 20 3c 60 0b 17 bc
       0.009810714 -0.009219021

layers.2.running_mean f4 [10]
000000 35 6e de bd 14 bb 94 3d db b1 30 3e c3 93 ec 3d
       -0.10860864 0.07262245 0.17255346 0.11551621
000010 c7 74 7d 3e a1 41 b4 3d 10 09 73 be 82 24 53 be
       0.24751578 0.0880158 -0.23733926 -0.20619395
000020 f4 8a ea bd 59 7d f7 bd
       -0.114522845 -0.12084455

layers.2.running_var f4 [10]
000000 08 9f 2e 3f 59 6b 0a 3f 90 bb 17 3f 6f fd 1a 3f
       0.6821141 0.5407005 0.5927057 0.6054296
000010 be 50 37 3f 4d 94 01 3f 26 c6 1e 3f 49 3d e6 3e
       0.7160758 0.50616914 0.620211 0.44968632
000020 b8 31 1a 3f 81 af 16 3f
       0.60232115 0.5886155

layers.4.weight f4 [5, 10]
000000 35 c6 21 3e 63 86 3b be 5d 81 d4 bd e3 97 7e 3e
       0.15798266 -0.18312983 -0.103762366 0.24862628
000010 86 87 94 be da 90 84 3e 04 23 8d bd ba 20 2d 3d
       -0.29009646 0.25891763 -0.06891444 0.04226754
000020 c6 72 32 be de 29 2b bb f5 5c cf 3c 1f 1a 9a be
       -0.17426595 -0.0026117484 0.02531288 -0.30098054
000030 2b f8 64 3d 31 3b a3 be 3e c3 c9 bc 83 e3 9b 3d
       0.055900734 -0.31881097 -0.024629232 0.07611754
000040 cc 07 a3 be c2 e1 87 3e da 1c 57 be 72 d7 11 3c
       -0.31841886 0.26539427 -0.210071 0.008901464
000050 53 23 82 3e 45 7e 97 bc b6 aa 1e be 72 71 88 be
       0.25417575 -0.018492827 -0.15494809 -0.26649052
000060 e8 15 81 3d a9 ee 8d 3c bb b5 1b be 0c cb 97 3e
       0.063030064 0.017325716 -0.15206043 0.296471
000070 2d ee 85 be 90 2f 25 bd 04 7c f1 3d 41 8e b2 3d
       -0.26158276 -0.040328562 0.11791232 0.08718539
000080 c6 2d 37 3e b3 02 3c bd 23 dd 60 be e3 4c 91 3e
       0.17888555 -0.04590101 -0.21959357 0.28378972
000090 6d 1b a4 3d 60 d3 9b be 6f 69 97 3e b8 8e b5 3c
       0.080130436 -0.30434704 0.29572627 0.02216278
0000a0 b7 88 fb 3d 59 f3 98 3e eb ed a0 3e 23 93 6a 3e
       0.12281936 0.2987316 0.31431517 0.2290769
0000b0 3a 76 9d be f5 fc 26 3c 3f 1a 29 3d ff a2 50 3d
       -0.30754262 0.010192146 0.041284796 0.050936695
0000c0 f5 3a 41 be 56 15 8d 3d
       -0.18870147 0.06888835

layers.4.bias f4 [5]
000000 16 ec 41 be 37 75 32 3c 24 38 0d be 79 8f 8a 3e
       -0.18937716 0.010892204 -0.13790947 0.27062586
000010 5b 04 80 be
       -0.25003323

layers.5.weight f4 [5]
000000 e5 26 7f 3f 07 64 7e 3f a3 9c 7d 3f 28 50 7e 3f
       0.99668723 0.9937138 0.99067134 0.9934106
000010 6c 3f 7e 3f
       0.99315524

layers.5.bias f4 [5]
000000 27 39 0a bc 08 f7 21 3c ba 05 23 bc f6 62 20 3c
       -0.008436478 0.009885557 -0.009950096 0.009789219
000010 07 8a 23 3c
       0.009981639

layers.5.running_mean f4 [5]
000000 d5 9d 17 be bc 9f 3d be 68 c2 25 be 40 93 9f 3e
       -0.14806302 -0.18517965 -0.16187441 0.3116703
000010 42 86 66 3b
       0.0035175239

layers.5.running_var f4 [5]
000000 b4 53 e1 3e 60 a0 d8 3e 9c 37 cc 3e 0a 99 db 3e
       0.44009173 0.42309856 0.39886177 0.42890197
000010 be a6 c6 3e
       0.3879909

layers.7.weight f4 [5]
000000 68 45 81 3f cb 45 81 3f 84 71 7d 3f 5f 44 81 3f
       1.0099306 1.0099424 0.99001336 1.009899
000010 c4 45 81 3f
       1.0099416

layers.7.bias f4 [5]
000000 c9 81 24 3c d4 8a 24 3c 64 5d 22 bc 5b 85 23 3c
       0.010040709 0.010042865 -0.009909961 0.009980525
000010 03 32 24 3c
       0.010021689

layers.7.running_mean f4 [5]
000000 76 63 8b 3e 0e c0 84 3e c7 16 87 3e ed 8a 85 3e
       0.2722432 0.25927776 0.26384565 0.26082554
000010 06 f0 85 3e
       0.26159686

layers.7.running_var f4 [5]
000000 b4 77 05 3f b5 56 03 3f 21 52 0f 3f 6e 83 13 3f
       0.5213578 0.5130418 0.55984694 0.5762242
000010 74 ba 0c 3f
       0.54972005

layers.8.rho f4 [5]
000000 d7 27 d9 3f 14 d6 c6 3f 09 53 b7 3f 9f 0d e7 3f
       1.6965283 1.5534081 1.4322215 1.8051032
000010 29 a9 e7 3f
       1.8098499

layers.8.gam f4 [5]
000000 ef ee e2 3f d1 31 cc 3f 7d 06 e1 3f b7 26 94 3f
       1.7729167 1.5952703 1.7580105 1.1574315
000010 2d da a5 3f
       1.2957207

layers.9.weight f4 [3, 5]
000000 3f dd b1 3e 0a 18 0d 3b c7 15 d9 be 08 c4 ac be
       0.3473911 0.002152922 -0.42399427 -0.3374331
000010 97 77 63 be a2 a4 56 3e 49 1f bc 3d e6 e9 c2 bd
       -0.22213589 0.2096124 0.09185655 -0.09517269
000020 a8 a0 e7 3e 71 18 93 3e 0d da 7e 3e b6 4c 26 be
       0.45239758 0.28729585 0.24887867 -0.162402
000030 d8 c4 a2 3e 41 e3 56 be 03 76 dd be
       0.31790805 -0.20985128 -0.43254098

layers.9.bias f4 [3]
000000 3e b4 94 bd bf 68 89 3d 4c 4e aa be
       -0.07260941 0.06709432 -0.3326286

exp_avg f4 [5]
000000 c6 dd a7 39 63 7c ca b9 79 6e b7 39 87 eb 04 3a
       0.00032017956 -0.00038621118 0.00034986789 0.00050704967
000010 fc 45 4d ba
       -0.0007830558

exp_avg_sq f4 [5]
000000 77 9a 43 32 49 80 66 32 76 63 b0 31 d7 ad 01 32
       1.1385615e-08 1.3416931e-08 5.1335816e-09 7.548315e-09
000010 60 ab 52 33
       4.90503e-08

exp_avg f4 [5]
000000 bd 53 3a ae 50 5c 8b 2c bc 3f bc ae 50 90 03 af
       -4.2365878e-11 3.9608664e-12 -8.560572e-11 -1.196565e-10
000010 31 dd 63 ae
       -5.1810282e-11

exp_avg_sq f4 [5]
000000 b7 f8 4a 1c d3 97 b3 1b 86 4a c5 1c 2f 5e 84 1c
       6.715765e-22 2.971118e-22 1.305563e-21 8.759373e-22
000010 bd 69 00 1d
       1.6995324e-21

exp_avg f4 [10, 5]
000000 6e ce a5 39 87 8d 25 ba e4 97 aa b8 05 a2 3e ba
       0.00031625055 -0.00063153397 -8.1345235e-05 -0.00072720676
000010 08 8f 8f 39 24 77 7a 3a 87 57 94 bb 4d 92 39 3a
       0.00027381652 0.00095544965 -0.0045270356 0.00070789905
000020 a8 20 ce 3a 30 34 d6 3a 55 b1 a9 39 86 56 95 38
       0.0015726285 0.0016342457 0.00032366315 7.12099e-05
000030 5a 1c 9f 3a 07 61 c0 39 6f 81 b4 3a 5c a2 87 39
       0.0012139187 0.00036693385 0.0013771484 0.00025870174
000040 a7 4c 3d ba 00 6e c8 3a 0f 90 a8 ba d7 6e de 38
       -0.00072212 0.0015291572 -0.0012860316 0.000106064304
000050 36 2c 78 ba 8e 06 b7 39 70 dc 90 ba 08 c7 e9 b7
       -0.0009467037 0.00034909364 -0.0011052024 -2.7868446e-05
000060 65 1c 87 ba b6 32 38 ba 6e aa e0 39 73 d5 d9 39
       -0.0010308145 -0.00070265995 0.0004285159 0.00041548497
000070 de fa 1b bb 1c ad 94 ba c0 c5 72 b6 d7 b5 4c ba
       -0.0023800652 -0.0011343095 -3.6175916e-06 -0.00078090787
000080 ac cf a5 38 ff 8c 09 3a 50 f7 49 38 39 c7 4a ba
       7.906495e-05 0.00052471453 4.8152462e-05 -0.0007735375
000090 14 77 bc 3a 24 32 2d 3b ec 7a 00 3b 58 9f af 3a
       0.001437875 0.0026427591 0.0019604517 0.0013398929
0000a0 24 92 23 b9 fb ac 94 3a 24 fc 61 ba 66 79 f5 ba
       -0.00015599333 0.0011343056 -0.0008620641 -0.0018728196
0000b0 1a e3 91 39 96 3e c9 39 28 f6 04 3a a6 41 45 39
       0.0002782576 0.00038384338 0.00050720805 0.0001881184
0000c0 80 3b 88 b9 db 92 73 39
       -0.00025984272 0.00023228994

exp_avg_sq f4 [10, 5]
000000 35 3a 39 31 32 86 85 32 92 7c 72 32 d8 d2 c8 32
       2.695413e-09 1.5544263e-08 1.4114578e-08 2.3378945e-08
000010 b3 d2 05 31 25 80 ca 33 be 6f 0b 35 b0 09 7c 33
       1.9473816e-09 9.4296674e-08 5.194414e-07 5.8682133e-08
000020 40 2c b6 33 e0 56 fc 33 9e 05 33 32 82 b1 15 32
       8.4830845e-08 1.1750467e-07 1.04204485e-08 8.713302e-09
000030 a3 c5 2b 34 27 8a ea 31 ff 43 b2 33 18 30 1f 32
       1.5997516e-07 6.8260024e-09 8.301139e-08 9.265953e-09
000040 ce d3 88 32 42 ca aa 33 28 53 6c 33 92 33 fa 31
       1.5928801e-08 7.9530324e-08 5.5023662e-08 7.2818205e-09
000050 5d 1e 45 33 9f 6d be 32 28 c6 2e 33 50 94 23 32
       4.5895252e-08 2.2168761e-08 4.0692754e-08 9.521571e-09
000060 42 87 83 33 f5 f5 fe 32 b9 c1 ff 33 6e 85 19 33
       6.124766e-08 2.968134e-08 1.1909601e-07 3.5744442e-08
000070 46 58 9e 34 4f 62 36 33 d5 4f 75 2f 6c a3 70 32
       2.949402e-07 4.246459e-08 2.2310982e-10 1.40069965e-08
000080 5d ef f7 30 d8 11 ea 31 3b 6b 6a 31 f1 e7 21 33
       1.8039646e-09 6.812325e-09 3.4112435e-09 3.7696683e-08
000090 b0 52 62 33 de 3b 58 34 64 48 0a 34 d8 a9 26 34
       5.269493e-08 2.0138347e-07 1.2878587e-07 1.5521744e-07
0000a0 38 0f e6 33 a0 ff 8a 33 01 9f 83 33 4a 11 b5 33
       1.0712978e-07 6.472624e-08 6.1290855e-08 8.431614e-08
0000b0 44 22 bd 32 2a 29 c2 31 9e 30 f8 31 7a c5 b3 30
       2.2018078e-08 5.650823e-09 7.223277e-09 1.308009e-09
0000c0 4f a3 30 31 9b e4 d1 30
       2.57042e-09 1.5271725e-09

exp_avg f4 [10]
000000 e0 cc 97 2c f8 47 5e 2e 94 43 51 2f ed f1 91 2d
       4.314424e-12 5.0540877e-11 1.9032448e-10 1.6592028e-11
000010 cb 83 d1 2e 52 64 de ad c2 07 cb ad e9 14 cc 2f
       9.527631e-11 -2.528303e-11 -2.3081873e-11 3.7122241e-10
000020 e4 73 94 ad 4a 59 1c 2d
       -1.6877118e-11 8.8873995e-12

exp_avg_sq f4 [10]
000000 37 d6 77 1c e6 f5 ca 1c ba 1d f7 1c 02 ce 92 1c
       8.200231e-22 1.3430802e-21 1.6352773e-21 9.714721e-22
000010 8d d1 8e 1c 12 aa 5d 1d b1 d4 c9 1b 74 77 d2 1d
       9.450939e-22 2.933703e-21 3.339011e-22 5.571005e-21
000020 cb 4a 5e 1c aa 83 69 1a
       7.3550306e-22 4.8289628e-23

exp_avg f4 [10]
000000 a9 60 06 ba 79 e7 b2 ba 5c 80 c2 39 60 87 d8 37
       -0.0005126098 -0.0013649306 0.000370982 2.5812245e-05
000010 ac 00 ff 38 0d 1f 9d 3a 25 77 da b9 be 7a 52 3a
       0.00012159473 0.0011987403 -0.0004166897 0.0008029154
000020 59 59 96 b9 cf d1 e8 38
       -0.000286768 0.00011101702

exp_avg_sq f4 [10]
000000 57 bc e0 31 0b 8c 48 33 8e 2d 26 32 7e 3b 9c 33
       6.54067e-09 4.6693497e-08 9.67283e-09 7.275138e-08
000010 c0 16 3b 30 ef b6 b9 33 c8 f4 19 32 e9 d5 ce 32
       6.8062533e-10 8.648009e-08 8.961429e-09 2.4078831e-08
000020 fc bf b9 31 ef 1c 1b 30
       5.4060347e-09 5.642979e-10

exp_avg f4 [10]
000000 40 a4 7f b9 70 58 fa ba b7 05 35 39 df 95 15 ba
       -0.00024379883 -0.0019099843 0.00017263634 -0.00057062315
000010 4c 69 2d 3a b6 5e 56 39 a4 67 03 ba 36 26 b8 3a
       0.0006615117 0.00020443913 -0.0005012697 0.0014049474
000020 a4 40 63 ba 46 c4 36 39
       -0.0008668995 0.0001742999

exp_avg_sq f4 [10]
000000 91 98 ea 31 42 61 b9 33 ca 7b f3 30 b8 a8 bf 32
       6.827641e-09 8.632425e-08 1.771576e-09 2.231205e-08
000010 67 68 9f 32 cf dc a7 31 ad 32 07 32 85 73 4d 33
       1.8557513e-08 4.8854427e-09 7.869557e-09 4.7835346e-08
000020 44 f3 98 32 b2 97 94 30
       1.7805753e-08 1.0811532e-09

exp_avg f4 [5, 10]
000000 fc 02 2e 3b 91 16 d9 3a 29 1a ff 39 e2 6d 84 bb
       0.0026552072 0.0016562511 0.0004865688 -0.0040414194
000010 69 80 25 ba c4 39 82 3b cd f1 81 3a 58 02 65 3b
       -0.0006313385 0.0039741714 0.0009913981 0.0034944024
000020 52 83 27 3b 89 7e 00 bb 85 6e 83 3a b3 6b f3 38
       0.002556045 -0.001960667 0.0010027444 0.000116072035
000030 12 d3 d5 b9 54 03 12 3a ce 9a 86 39 ac 48 f4 39
       -0.00040783786 0.0005569954 0.0002567381 0.0004659345
000040 4f 1f 16 3a 82 cc c9 3a 66 87 95 39 f2 8b 67 ba
       0.0005726711 0.0015396031 0.00028520374 -0.0008832804
000050 3c c2 45 ba 2b e9 93 ba f3 bf 8a ba fb 95 c2 3a
       -0.0007543897 -0.00112847 -0.001058577 0.0014845723
000060 8a 97 cd 39 1d 3c 91 3a ed bb a4 b9 e1 fc 0b b8
       0.00039213552 0.0011080537 -0.00031420533 -3.3375694e-05
000070 39 92 92 ba 00 71 b0 36 11 45 e0 ba 7e 57 1b bb
       -0.0011182494 5.2583637e-06 -0.0017110427 -0.0023703272
000080 4e c7 dc 3a ad eb 7d 3a 9c 80 b4 39 6f 95 ac 39
       0.0016844065 0.00096863025 0.00034428097 0.00032917733
000090 f1 c1 a8 ba 33 b3 91 ba a2 05 10 ba 91 de 53 3a
       -0.0012875182 -0.0011116028 -0.00054940034 0.0008082176
0000a0 fd 1d a4 bb 79 f5 43 bb 30 70 f7 b8 e3 53 e3 3b
       -0.0050084577 -0.0029900952 -0.00011798774 0.0069374903
0000b0 26 53 38 38 7c 5e 3e b8 91 2b 63 bb a8 c8 24 bb
       4.3946457e-05 -4.5387525e-05 -0.0034663419 -0.0025144015
0000c0 0a 07 b6 b9 1a 9e 8b 3a
       -0.0003471899 0.0010651976

exp_avg_sq f4 [5, 10]
000000 bc 66 48 34 0e fa 88 33 ac a1 3f 32 56 e3 6d 35
       1.8663826e-07 6.378478e-08 1.1154423e-08 8.86202e-07
000010 f6 f0 f3 32 54 59 43 35 81 b0 df 32 cc eb b0 34
       2.83985e-08 7.277315e-07 2.6040881e-08 3.295412e-07
000020 7e c7 3d 34 d6 fb d4 33 c9 c2 28 33 1f 86 ab 2f
       1.7674571e-07 9.917828e-08 3.9292704e-08 3.1200018e-10
000030 30 7c 95 31 53 a1 03 32 43 7b 28 31 56 04 07 32
       4.3505892e-09 7.6618845e-09 2.4517284e-09 7.85902e-09
000040 34 06 63 32 0e 56 d1 33 61 d5 82 32 f5 7c d7 32
       1.32145495e-08 9.747974e-08 1.5231025e-08 2.5086118e-08
000050 16 33 b7 32 62 c3 9c 33 aa 1a e9 32 08 03 9a 33
       2.1327235e-08 7.299856e-08 2.7136895e-08 7.171735e-08
000060 47 c7 84 31 31 0a 40 33 19 6e b9 32 17 67 1d 31
       3.864361e-09 4.4712753e-08 2.1586901e-08 2.2905107e-09
000070 87 fa 8b 33 c9 50 27 33 13 73 5b 34 55 4f a0 34
       6.5182626e-08 3.895619e-08 2.0437828e-07 2.9860044e-07
000080 00 27 9d 34 fa 57 c4 32 cb d4 8a 31 1b b6 9e 33
       2.9271905e-07 2.285741e-08 4.0405204e-09 7.390573e-08
000090 2b c1 30 34 d0 47 25 33 6a 11 80 33 6d e1 7a 33
       1.6461551e-07 3.848237e-08 5.963632e-08 5.8412684e-08
0000a0 32 fc 1b 35 f1 30 70 34 88 0f 8a 34 5a 29 a7 35
       5.810899e-07 2.2369547e-07 2.5715804e-07 1.2454504e-06
0000b0 37 50 3b 32 04 57 b9 32 c0 bd 98 34 5d de 22 34
       1.0903071e-08 2.1576405e-08 2.8450268e-07 1.5168321e-07
0000c0 0d df 96 33 ae 49 2a 33
       7.025492e-08 3.964822e-08

exp_avg f4 [5]
000000 28 8f ef 2e 00 41 22 2e d3 31 9a 2e e5 36 53 2e
       1.0893891e-10 3.6892267e-11 7.01196e-11 4.80246e-11
000010 06 f9 e7 af
       -4.2195597e-10

exp_avg_sq f4 [5]
000000 1e 51 f5 1d 10 2b 40 1c 02 cb c7 1c 24 ab 20 1e
       6.4934833e-21 6.358313e-22 1.3221192e-21 8.5057205e-21
000010 c1 97 83 1e
       1.3932928e-20

exp_avg f4 [5]
000000 d2 7c f7 35 7a e7 64 35 5a 60 5f 36 60 ce 85 36
       1.8439262e-06 8.527346e-07 3.3285673e-06 3.987734e-06
000010 9d f1 5f 36
       3.3370227e-06

exp_avg_sq f4 [5]
000000 cf 51 2e 2a 64 3e 9d 28 58 1e 90 2a ac 8b d7 2a
       1.5482688e-13 1.7457559e-14 2.5600594e-13 3.828859e-13
000010 62 11 96 2a
       2.6657414e-13

exp_avg f4 [5]
000000 4e ef f7 39 98 12 40 b9 dd 9e 21 3a 93 88 56 ba
       0.00047289807 -0.00018317474 0.0006165335 -0.00081838033
000010 26 38 2a ba
       -0.0006493352

exp_avg_sq f4 [5]
000000 0f af 07 32 13 20 65 30 68 f6 1c 32 7e 34 8e 32
       7.897838e-09 8.3355295e-10 9.136421e-09 1.6554846e-08
000010 01 cf 2a 32
       9.94237e-09

exp_avg f4 [5]
000000 a4 18 38 bc a6 2f 0d bb 82 90 17 3b ea f7 fc bb
       -0.0112363435 -0.0021543293 0.0023126905 -0.0077199833
000010 f5 c1 95 bb
       -0.0045702406

exp_avg_sq f4 [5]
000000 c2 b0 42 36 57 0a e6 33 44 cb 0c 34 ce cf bb 35
       2.901114e-06 1.07120904e-07 1.3112464e-07 1.3993065e-06
000010 4c 46 00 35
       4.778601e-07

exp_avg f4 [5]
000000 3f 5e 0d bc 22 cc fa ba 73 63 1c 3b a0 85 cb bb
       -0.008628427 -0.0019134323 0.0023862987 -0.0062109977
000010 41 f5 85 bb
       -0.0040880744

exp_avg_sq f4 [5]
000000 d8 6a e5 35 a7 68 b5 33 ec 11 15 34 be 6e 74 35
       1.7092925e-06 8.4475055e-08 1.3883226e-07 9.1058234e-07
000010 67 37 cf 34
       3.8597065e-07

exp_avg f4 [5]
000000 de 28 ca 3a 84 8a a6 39 23 94 b5 b9 fd e8 8e 3a
       0.0015423556 0.0003176519 -0.0003463338 0.0010903176
000010 ca 07 26 3a
       0.0006333558

exp_avg_sq f4 [5]
000000 43 1d 6a 33 89 89 1f 31 31 06 4b 31 76 f5 ee 32
       5.4508984e-08 2.3215725e-09 2.9543907e-09 2.781847e-08
000010 e0 34 1d 32
       9.150625e-09

exp_avg f4 [5]
000000 57 46 b2 b9 2c b6 4c b8 be 29 8f 37 5b 52 c0 b9
       -0.00034003213 -4.880705e-05 1.7066366e-05 -0.00036682453
000010 e9 e0 13 b9
       -0.00014102798

exp_avg_sq f4 [5]
000000 3f 1f 36 31 74 63 71 2e 04 7b 45 2d 9e ad 57 31
       2.6502247e-09 5.4885388e-11 1.12254685e-11 3.1385308e-09
000010 35 c9 f7 2f
       4.5072004e-10

exp_avg f4 [3, 5]
000000 b6 2d 72 bc 6c 15 7a bb 6a e9 6c b9 4f 83 32 ba
       -0.014781406 -0.003815974 -0.00022593667 -0.00068097276
000010 d3 0e 50 bb 32 41 b7 bc 6a f8 b8 bc c4 3d ab bc
       -0.0031747117 -0.022369955 -0.02257939 -0.020903476
000020 47 95 8c bc 55 a5 8e bc 32 05 9c ba f8 b8 32 ba
       -0.017161025 -0.01741282 -0.0011903404 -0.00068177236
000030 68 f9 de ba 00 00 00 00 49 d0 5e b7
       -0.0017011585 0.0 -1.3280726e-05

exp_avg_sq f4 [3, 5]
000000 33 0e a7 36 2e 54 ba 34 b8 2e c5 30 54 ac 67 32
       4.978641e-06 3.4706449e-07 1.4346915e-09 1.34851526e-08
000010 3a c2 a1 34 80 22 44 37 bb a9 47 37 14 a1 2b 37
       3.0129905e-07 1.1690543e-05 1.1900843e-05 1.0229898e-05
000020 83 fc e6 36 f7 96 ed 36 41 09 5a 33 e1 bb 77 32
       6.8839304e-06 7.080725e-06 5.0765497e-08 1.4420011e-08
000030 8a 3d d8 33 00 00 00 00 36 8b 1b 2d
       1.0069478e-07 0.0 8.841641e-12

exp_avg f4 [3]
000000 14 a0 d4 bc b1 a6 38 be a8 cd 03 bb
       -0.025955237 -0.18032338 -0.0020111594

exp_avg_sq f4 [3]
000000 26 12 81 37 04 13 48 3a c7 ae 19 34
       1.538645e-05 0.0007632228 1.4312819e-07
