lightning_logs/version_69/checkpoints/epoch=0-step=2.ckpt (torch, 28015 bytes, 56 tensors)

layers.0.weight f4 [5]
0.9993131 0.9979787 0.9987899 0.9979955 1.0017765
00000000: fcd2 7f3f 887b 7f3f b2b0 7f3f a27c 7f3f
00000010: 363a 803f

layers.0.bias f4 [5]
7.7431716e-05 -5.4565746e-05 4.7761892e-05 -3.9583923e-05 3.4932953e-05
00000000: d662 a238 86dd 64b8 f153 4838 ea06 26b8
00000010: f984 1238

layers.0.running_mean f4 [5]
19.188229 19.195843 19.193058 19.19027 19.196499
00000000: 7e81 9941 1691 9941 628b 9941 ac85 9941
00000010: 6e92 9941

layers.0.running_var f4 [5]
0.8738403 0.87439775 0.87378544 0.8731813 0.87308854
00000000: ffb3 5f3f 88d8 5f3f 67b0 5f3f cf88 5f3f
00000010: bb82 5f3f

layers.1.weight f4 [10, 5]
0.36183587 0.196094 -0.040001698 -0.4216047 0.17043231 -0.17103432 -0.24916886 -0.2875598
0.14376962 -0.053288057 0.035098232 -0.17004807 -0.018012166 0.11612283 0.18998994 -0.2842414
0.38664258 -0.4347732 0.25220218 0.24724925 0.20551522 -0.20680097 -0.14556621 0.03337762
-0.432585 0.2452982 -0.4107541 -0.40630195 0.07125428 -0.014083047 -0.2896581 0.26755235
-0.33802703 -0.096805185 -0.30614254 -0.36166155 0.26554343 0.18667206 0.1128 -0.20898394
-0.33403483 0.3195331 -0.0068228813 0.23810677 0.33661452 -0.39018956 -0.17451029 -0.34832934
0.09728091 0.4415321
00000000: 8d42 b93e decc 483e d2d8 23bd 92dc d7be
00000010: cf85 2e3e 9f23 2fbe 1f26 7fbe 0a3b 93be
00000020: 5838 133e 9444 5abd 2ac3 0f3d 1521 2ebe
00000030: 408e 93bc ced1 ed3d b98c 423e 1788 91be
00000040: 04f6 c53e 989a debe a520 813e e82e 7d3e
00000050: 9572 523e a2c3 53be 4f0f 15be f9b6 083d
00000060: c87b ddbe 742f 7b3e 5d4e d2be cf06 d0be
00000070: c4ed 913d 95bc 66bc 114e 94be 9ffc 883e
00000080: e111 adbe cc41 c6bd b7be 9cbe b42b b9be
00000090: 4ff5 873e f626 3f3e b003 e73d e3ff 55be
000000a0: 9d06 abbe d899 a33e 7a92 dfbb 43d2 733e
000000b0: bd58 ac3e edc6 c7be d3b2 32be 3958 b2be
000000c0: 373b c73d 7f10 e23e

layers.1.bias f4 [10]
0.33087322 0.17708123 -0.27177694 0.23255056 -0.06599528 -0.017551504 0.33203125 0.08848658
-0.05397086 0.34467492
00000000: 3768 a93e c854 353e 5926 8bbe bc21 6e3e
00000010: 8928 87bd 2cc8 8fbc 0000 aa3e 7438 b53d
00000020: 8c10 5dbd 3b79 b03e

layers.2.weight f4 [10]
1.0019805 0.99801826 1.0019721 0.99966633 0.99911445 0.99805087 1.0019764 1.0018914
1.0017668 1.0006694
00000000: e640 803f 207e 7f3f 9f40 803f 22ea 7f3f
00000010: f7c5 7f3f 4380 7f3f c340 803f fa3d 803f
00000020: e539 803f ef15 803f

layers.2.bias f4 [10]
0.0004878085 -0.0016430295 0.0019857439 0.0019121626 0.0019091646 -0.0017169113 0.001995969 0.002000601
0.001757619 0.001933678
00000000: 8cc0 ff39 ec5a d7ba 4123 023b 88a1 fa3a
00000010: ef3c fa3a fc09 e1ba cece 023b 841c 033b
00000020: e85f e63a 7873 fd3a

layers.2.running_mean f4 [10]
0.06287173 0.033661418 -0.05162761 0.044178464 -0.012536386 -0.0033351993 0.06308752 0.01681653
-0.010250013 0.06549426
00000000: e5c2 803d 8ee0 093d 7977 53bd 7af4 343d
00000010: 6a65 4dbc 5c93 5abb 0834 813d d2c2 893c
00000020: acef 27bc db21 863d

layers.2.running_var f4 [10]
0.8817823 0.8450215 0.826226 0.9053608 0.86652285 0.8868558 0.8804754 0.86677796
0.8803264 0.908167
00000000: 7cbc 613f 5453 583f 8c83 533f bac5 673f
00000010: 71d4 5d3f fb08 633f d666 613f 29e5 5d3f
00000020: 125d 613f a27d 683f

layers.4.weight f4 [5, 10]
-0.24544655 0.30182472 -0.015936725 -0.118330576 0.0629545 -0.2385978 -0.24121495 0.2661669
-0.29420173 -0.026939481 -0.14898394 0.10272017 -0.25628316 0.07779986 0.22725639 0.18358216
-0.12153934 0.1959877 -0.26602343 -0.009568169 -0.1854721 -0.23787007 -0.27079675 -0.26646915
-0.03513278 0.075088575 0.08048831 0.2722646 0.18454528 -0.18933518 0.11571941 0.24548565
0.21356122 -0.12595625 0.3120306 -0.011110015 -0.29455858 -0.29044232 0.16026817 0.23798685
-0.115428805 0.11641431 -0.12730102 0.15029675 0.25569052 0.29935735 0.09785235 0.28068808
-0.15227705 -0.18740213
00000000: 5756 7bbe c588 9a3e bc8d 82bc 4d57 f2bd
00000010: 4aee 803d fb52 74be 0d01 77be 0747 883e
00000020: 9ca1 96be 30b0 dcbc 3f8f 18be f45e d23d
00000030: 8c37 83be 8855 9f3d e6b5 683e f6fc 3b3e
00000040: 9ee9 f8bd 00b1 483e 3934 88be cfc3 1cbc
00000050: 66ec 3dbe 3694 73be dfa5 8abe a56e 88be
00000060: 64e7 0fbd 0ac8 993d 0ed7 a43d 4466 8b3e
00000070: 70f9 3c3e 15e1 41be 4cfe ec3d 9760 7b3e
00000080: cbaf 5a3e adfa 00be 7ac2 9f3e c806 36bc
00000090: 62d0 96be dbb4 94be 571d 243e d3b2 733e
000000a0: f065 ecbd a06a ee3d 335b 02be 64e7 193e
000000b0: dee9 823e 5e45 993e d066 c83d 59b6 8f3e
000000c0: 84ee 1bbe 58e6 3fbe

layers.4.bias f4 [5]
-0.15237597 0.23910247 0.28125298 0.10943256 0.23938137
00000000: 7208 1cbe 47d7 743e 6400 903e 2e1e e03d
00000010: 6420 753e

layers.5.weight f4 [5]
1.0004759 1.000382 1.0012088 1.0003444 1.0004408
00000000: 980f 803f 840c 803f 9c27 803f 490b 803f
00000010: 720e 803f

layers.5.bias f4 [5]
0.0019782719 0.0019968997 0.002001095 0.00200111 0.0019787485
00000000: e5a5 013b 6bde 023b ce24 033b 0e25 033b
00000010: e4ad 013b

layers.5.running_mean f4 [5]
-0.070889995 0.044419497 0.008383754 0.066413194 0.09328717
00000000: c62e 91bd 38f1 353d 035c 093c a403 883d
00000010: 580d bf3d

layers.5.running_var f4 [5]
0.8304153 0.83062315 0.8419864 0.85240155 0.84029585
00000000: 1996 543f b8a3 543f 6c8c 573f fd36 5a3f
00000010: a11d 573f

layers.7.weight f4 [5]
1.0019791 1.0019739 1.0019612 1.0019814 1.0019732
00000000: da40 803f ae40 803f 4440 803f ed40 803f
00000010: a840 803f

layers.7.bias f4 [5]
0.0019981288 0.0019942825 0.001976782 0.002001233 0.0019878857
00000000: 0af3 023b 82b2 023b e68c 013b 1e27 033b
00000010: 3047 023b

layers.7.running_mean f4 [5]
0.07588996 0.07869894 0.07215682 0.07373303 0.07807471
00000000: 326c 9b3d e92c a13d f4c6 933d 5801 973d
00000010: a2e5 9f3d

layers.7.running_var f4 [5]
0.87286043 0.8825347 0.8800194 0.8702516 0.88335437
00000000: c873 5f3f cbed 613f f448 613f cfc8 5e3f
00000010: 8323 623f

layers.8.rho f4 [5]
1.9621596 1.7579967 1.2670686 1.122819 1.6192049
00000000: 0c28 fb3f 0906 e13f 4e2f a23f 88b8 8f3f
00000010: 1b42 cf3f

layers.8.gam f4 [5]
1.3273562 1.636675 1.4652461 1.9925005 1.2171237
00000000: cfe6 a93f 917e d13f 2f8d bb3f 420a ff3f
00000010: b6ca 9b3f

layers.9.weight f4 [3, 5]
0.3286162 -0.0001366894 -0.10628825 0.20130236 0.28131247 -0.19554478 0.09473552 0.413733
0.1512017 0.266366 0.07792718 0.23041429 0.2966399 0.13755083 0.41874453
00000000: 6240 a83e 4854 0fb9 a7ad d9bd 3522 4e3e
00000010: 3008 903e e43c 48be b204 c23d d0d4 d33e
00000020: 9ed4 1a3e 2061 883e 4998 9f3d b9f1 6b3e
00000030: 2fe1 973e 20da 0c3e af65 d63e

layers.9.bias f4 [3]
0.35815248 -0.19412197 0.25213844
00000000: c35f b73e e9c7 46be 4a18 813e

exp_avg f4 [5]
-3.078893e-05 0.0001367432 4.456195e-05 0.00035157934 -0.0005019291
00000000: 5d23 01b8 b962 0f39 08e8 3a38 2e54 b839
00000010: e493 03ba

exp_avg_sq f4 [5]
4.729286e-10 1.0326553e-09 3.0442706e-09 7.0621717e-09 2.1991386e-08
00000000: 64ff 0130 54ed 8d30 6033 5131 85a7 f231
00000010: 92e7 bc32

exp_avg f4 [5]
-7.29051e-11 -6.1118055e-12 -3.7834978e-11 2.7212083e-11 -2.3283077e-12
00000000: ec51 a0ae 400a d7ac 6666 26ae 2a5c ef2d
00000010: 10d7 23ac

exp_avg_sq f4 [5]
2.9988334e-22 7.4670963e-22 9.817113e-23 6.986456e-23 2.0655406e-22
00000000: b344 b51b dcad 611c fc5c ed1a 11ec a81a
00000010: 63b5 791b

exp_avg f4 [10, 5]
-0.0002195164 0.00041185168 0.0002580958 -0.0002305039 -0.00053137256 -0.00043892988 0.0006977959 -2.8408926e-05
0.00050052634 -0.00029638247 -0.00094972993 0.00097321114 0.00046268903 6.481499e-05 0.0010269631 4.1458094e-05
-0.00020784073 5.3437398e-06 -0.00010946096 0.00048744568 -0.00016156735 -0.0013484304 -0.0011410799 4.4793334e-05
0.00096868875 -0.0006948665 -0.0007349448 0.00032040587 -4.44658e-05 7.371814e-05 0.00042762753 -0.00012545507
-0.00021036458 -0.00030989826 -0.00017798066 -0.0003910559 -3.939781e-05 3.1019783e-05 0.00088207616 0.0011476818
-0.00015041717 0.00013186887 -7.299266e-05 0.000369064 -0.0005427311 -0.00038285815 0.0006365424 0.00017284903
-0.00018220217 8.4707724e-05
00000000: fc2d 66b9 cced d739 0851 8739 6bb3 71b9
00000010: cf4b 0bba 2c20 e6b9 4aec 363a b44f eeb7
00000020: c135 033a c863 9bb9 4cf7 78ba 181f 7f3a
00000030: 1295 f239 48ed 8738 2a9b 863a 4ae3 2d38
00000040: d2ef 59b9 604e b336 688e e5b8 da8f ff39
00000050: 686a 29b9 d1bd b0ba 4a90 95ba 7ae0 3b38
00000060: 9aef 7d3a b427 36ba 50a9 40ba 26fc a739
00000070: ca80 3ab8 2099 9a38 3233 e039 978c 03b9
00000080: 5095 5cb9 d779 a2b9 52a0 3ab9 a206 cdb9
00000090: 143f 25b8 3d1b 0238 213b 673a d06d 963a
000000a0: 4db9 1db9 4846 0a39 a313 99b8 ee7e c139
000000b0: 1146 0eba 5aba c8b9 a3dd 263a cf3e 3539
000000c0: 860d 3fb9 1da5 b138

exp_avg_sq f4 [10, 5]
2.6614806e-09 9.383814e-09 3.77166e-09 2.9394926e-09 1.5698824e-08 6.445599e-08 2.698415e-08 1.0587662e-09
4.070745e-08 1.0703809e-08 6.23223e-08 5.34671e-08 1.1928753e-08 5.4778776e-10 6.205842e-08 1.4809597e-09
2.834387e-09 1.6947098e-09 1.3372284e-08 1.4133289e-08 3.6743597e-08 1.03345116e-07 7.575326e-08 1.5293242e-10
7.099253e-08 2.9870353e-08 3.1958116e-08 5.843548e-09 5.208214e-10 9.02353e-09 1.1667371e-08 8.601986e-09
1.2261009e-08 5.5286122e-09 7.462088e-09 8.764651e-09 1.0704571e-10 5.297666e-10 4.2969514e-08 7.2751476e-08
1.2701709e-09 1.1414268e-09 3.1642653e-09 1.2825946e-08 1.8119092e-08 9.360113e-09 2.2845647e-08 3.2339817e-09
1.8842845e-09 4.3546994e-10
00000000: 43e5 3631 7336 2132 df97 8131 1a00 4a31
00000010: 14da 8632 0e6b 8a33 c6ca e732 0684 9130
00000020: 51d6 2e33 dae3 3732 0cd6 8533 b3a3 6533
00000030: 36ef 4c32 2393 1630 fa44 8533 a38a cb30
00000040: 10c7 4231 4deb e830 edbb 6532 ddce 7232
00000050: 03d0 1d33 94ee dd33 ccad a233 a626 282f
00000060: 8e74 9833 cd4a 0033 5242 0933 64c8 c831
00000070: 8c29 0f30 e805 1b32 a471 4832 efc7 1332
00000080: 7da4 5232 30f6 bd31 9c32 0032 5893 1632
00000090: 6165 eb2e 039f 1130 7b8d 3833 8c3b 9c33
000000a0: 2a92 ae30 63e0 9c30 5872 5931 1b59 5c32
000000b0: 4ea4 9b32 36ce 2032 1c3e c432 cf3c 5e31
000000c0: af7c 0131 f266 ef2f

exp_avg f4 [10]
1.8917489e-11 1.1234079e-10 3.9581213e-11 -5.2386897e-12 2.7066563e-11 -2.3283065e-11 2.7503121e-11 3.4924563e-12
5.4715205e-11 4.656613e-11
00000000: 6666 a62d 3e0a f72e 7c14 2e2e ec51 b8ac
00000010: 7b14 ee2d cdcc ccad 86eb f12d 80c2 752c
00000020: d8a3 702e cdcc 4c2e

exp_avg_sq f4 [10]
2.4542782e-23 7.321956e-22 5.4161317e-22 3.3847438e-24 1.2958841e-22 5.421011e-23 9.329201e-23 1.1513007e-21
1.7606088e-22 1.2612321e-22
00000000: fc5c ed19 e44a 5d1c 4ab1 231c e1f0 8218
00000010: aca9 1c1b 6f12 831a f590 e11a cafa ad1c
00000020: 34d8 541b 3e79 181b

exp_avg f4 [10]
-7.115396e-05 0.00059731957 -0.00026050332 -5.0544895e-05 -3.906955e-05 0.000744435 -0.00030264613 -0.00055243593
-0.000105114515 4.1691317e-05
00000000: 7e38 95b8 7095 1c3a 2a94 88b9 2b00 54b8
00000010: 9cde 23b8 3026 433a 7aac 9eb9 59d1 10ba
00000020: ed70 dcb8 b6dd 2e38

exp_avg_sq f4 [10]
2.799596e-10 2.1360734e-08 3.818269e-09 3.0047317e-10 4.6757593e-09 3.55496e-08 5.109643e-09 2.0346766e-08
9.882278e-10 9.976846e-10
00000000: d0e8 992f c07c b732 d931 8331 d72f a52f
00000010: 6aa8 a031 33af 1833 e590 af31 03c7 ae32
00000020: 2dd2 8730 e81e 8930

exp_avg f4 [10]
3.600832e-05 2.060825e-05 -0.00036166923 -0.00010093498 -0.00033093453 0.00030028546 -0.0002528496 -0.00070370943
-9.736269e-05 -0.00020628248
00000000: a407 1738 e1df ac37 6c9e bdb9 0ead d3b8
00000010: 4881 adb9 a26f 9d39 e690 84b9 2479 38ba
00000020: 322f ccb8 884d 58b9

exp_avg_sq f4 [10]
2.7374703e-10 5.685963e-11 7.453892e-09 6.779251e-10 7.3363284e-09 9.714563e-09 3.5687566e-09 2.7387799e-08
9.144344e-10 2.7027927e-09
00000000: 787e 962f 4112 7a2e 900e 0032 bd58 3a30
00000010: 0713 fc31 1ae5 2632 3b3e 7531 6842 eb32
00000020: 9a5b 7b30 08bc 3931

exp_avg f4 [5, 10]
0.00019120866 0.00033140212 -0.00014652962 0.0002405004 0.00029049136 0.00037367785 0.0005532918 0.00094487995
0.0002872952 -0.00020216462 0.00015197972 0.000664569 0.00046708583 -3.7659443e-05 0.00018597954 0.0009731713
-0.00036468107 -0.0005712425 0.00029804057 0.00021390658 6.730588e-06 9.4431234e-05 0.00018663448 -0.00026872524
0.00025682256 0.00026471558 -0.00017093384 5.5897763e-05 -0.00017458646 -0.00010516327 5.7600846e-05 0.00068620825
0.00022131833 0.0006719399 -0.0009231445 -0.00044492818 0.00018103933 0.00032639917 0.0006499819 0.0007738375
6.708629e-05 0.0023782535 0.0011270158 -5.2491952e-05 0.00075919647 0.0020849623 -0.0015391118 -0.0022054557
0.00010071177 0.0008993251
00000000: 2f7f 4839 0ac0 ad39 bfa5 19b9 d62e 7c39
00000010: 174d 9839 31ea c339 c90a 113a d2b1 773a
00000020: 1ca0 9639 27fc 53b9 bf5c 1f39 7836 2e3a
00000030: 33e3 f439 85f4 1db8 8103 4339 6c1c 7f3a
00000040: aa32 bfb9 6fbf 15ba 5442 9c39 1c4c 6039
00000050: 50d7 e136 6209 c638 50b3 4339 b1e3 8cb9
00000060: 24a6 8639 86c9 8a39 b43c 33b9 c473 6a38
00000070: 3211 37b9 1a8b dcb8 7098 7138 a8e2 333a
00000080: b011 6839 2025 303a 2eff 71ba 4045 e9b9
00000090: 60d5 3d39 8e20 ab39 8c63 2a3a 5bdb 4a3a
000000a0: adb0 8c38 79dc 1b3b 60b8 933a ce2a 5cb8
000000b0: d004 473a dda3 083b 06bc c9ba 6889 10bb
000000c0: 3835 d338 b0c0 6b3a

exp_avg_sq f4 [5, 10]
2.9353835e-09 1.8583371e-08 3.5800611e-09 3.3193728e-09 4.7787734e-09 1.2133328e-08 1.8759621e-08 5.6131107e-08
5.524589e-09 1.2926363e-08 2.4378213e-09 2.5312469e-08 1.20944e-08 8.102951e-10 5.087935e-09 5.4182426e-08
8.528135e-09 2.4696707e-08 5.059149e-09 2.526962e-09 1.8481241e-09 5.133454e-10 2.0121094e-09 5.5847047e-09
1.051452e-08 4.3879274e-09 4.4503756e-09 2.512207e-09 2.5467506e-09 1.7490588e-09 1.832665e-10 3.033395e-08
3.118073e-09 3.1878812e-08 6.00793e-08 2.120618e-08 3.1850704e-09 6.383905e-09 2.8067415e-08 6.031565e-08
3.2957952e-09 3.1396945e-07 8.081943e-08 4.0991712e-09 6.737134e-08 2.820668e-07 1.3448084e-07 3.742509e-07
4.2835824e-09 4.4664596e-08
00000000: d0b7 4931 44a1 9f32 1a05 7631 061b 6431
00000010: 8932 a431 f172 5032 d824 a132 ce14 7133
00000020: ccd2 bd31 bf12 5e32 9b86 2731 b56e d932
00000030: bcc7 4f32 73bb 5e30 f3d1 ae31 35b6 6833
00000040: 2283 1232 a224 d432 bfd4 ad31 c9a6 2d31
00000050: 1601 fe30 791b 0d30 6745 0a31 95e3 bf31
00000060: 59a3 3432 9ec4 9631 ebe9 9831 37a3 2c31
00000070: e902 2f31 8963 f030 ef80 492f 8848 0233
00000080: b845 5631 20eb 0833 f204 8133 e228 b632
00000090: 5ae0 5a31 6c59 db31 e618 f132 e186 8133
000000a0: 3e7c 6231 a28f a834 f48e ad33 b1d8 8c31
000000b0: c9ad 9033 f76e 9734 d065 1034 a7ec c834
000000c0: ca2e 9331 3ed5 3f33

exp_avg f4 [5]
4.3073677e-11 7.275958e-12 -1.10594554e-11 -9.3132255e-12 8.3819035e-11
00000000: a670 3d2e 0000 002d 5c8f 42ad 0ad7 23ad
00000010: ec51 b82e

exp_avg_sq f4 [5]
2.0186626e-21 2.4542782e-23 6.2639443e-22 6.770843e-23 8.664944e-22
00000000: 9d86 181d fc5c ed19 ec50 3d1c 7db5 a31a
00000010: e1f0 821c

exp_avg f4 [5]
4.191324e-08 6.6405036e-08 -1.4789581e-08 1.1094957e-07 1.5704352e-07
00000000: 1804 3433 8e9a 8e33 4415 7eb2 2c43 ee33
00000010: cb9f 2834

exp_avg_sq f4 [5]
4.3776505e-16 7.738975e-16 1.7450128e-16 1.866265e-15 4.9240215e-15
00000000: b85a fc25 8e0f 5f26 b02f 4925 837a 0627
00000010: 1568 b127

exp_avg f4 [5]
-0.00019013489 -0.00020340097 -7.83371e-05 -0.00030488742 -0.000591634
00000000: f25e 47b9 0848 55b9 e948 a4b8 4cd9 9fb9
00000010: e317 1bba

exp_avg_sq f4 [5]
2.0916309e-09 2.3050695e-09 3.3902925e-10 5.1357216e-09 2.0232774e-08
00000000: 5cbc 0f31 3667 1e31 2062 ba2f 4976 b031
00000010: 57cc ad32

exp_avg f4 [5]
-0.0013892828 -0.0013730912 -0.002122073 -0.001709704 -0.0040400657
00000000: 9818 b6ba 4cf9 b3ba 7a12 0bbb 2618 e0ba
00000010: 8762 84bb

exp_avg_sq f4 [5]
1.07072744e-07 1.0570072e-07 2.5898902e-07 1.6143457e-07 9.16255e-07
00000000: ddef e533 96fd e233 2e0b 8b34 cc56 2d34
00000010: 90f4 7535

exp_avg f4 [5]
-0.0011868416 -0.0011568074 -0.0014329115 -0.0015424583 -0.0033786339
00000000: cc8f 9bba 04a0 97ba 88d0 bbba 502c caba
00000010: 126c 5dbb

exp_avg_sq f4 [5]
7.829004e-08 7.495433e-08 1.1916204e-07 1.3141694e-07 6.4768625e-07
00000000: 6820 a833 94f6 a033 06e6 ff33 9d1b 0d34
00000010: a9dc 2d35

exp_avg f4 [5]
0.00018037758 0.00018513664 0.00035418125 0.00029068088 0.0006014245
00000000: bd23 3d39 3d21 4239 67b1 b939 8766 9839
00000010: eaa8 1d3a

exp_avg_sq f4 [5]
1.804692e-09 1.9211117e-09 7.2118103e-09 4.6665516e-09 2.0299666e-08
00000000: f408 f830 8e04 0431 c1cb f731 6c57 a031
00000010: 705f ae32

exp_avg f4 [5]
-5.3855823e-05 -3.849979e-05 -0.0001160399 -2.987037e-05 -0.00016320006
00000000: 40e3 61b8 d67a 21b8 725a f3b8 2292 fab7
00000010: af20 2bb9

exp_avg_sq f4 [5]
1.6044244e-10 8.220477e-11 7.564285e-10 4.9428874e-11 1.4721406e-09
00000000: 8868 302f 2cc5 b42e ecec 4f30 f763 592e
00000010: 5854 ca30

exp_avg f4 [3, 5]
-0.004060136 -0.004253224 -0.005293673 -0.004627675 -0.004290597 -0.0015133726 -0.0036842017 -0.005020658
-0.0015682788 -0.004357841 -0.004309276 -0.0041395407 -0.0047051217 -0.005110968 -0.0040299217
00000000: e40a 85bb a15e 8bbb 8c76 adbb c0a3 97bb
00000010: 2398 8cbb 5c5c c6ba a672 71bb 5584 a4bb
00000020: b48e cdba 38cc 8ebb d434 8dbb fca4 87bb
00000030: 6c2d 9abb e879 a7bb 6f0d 84bb

exp_avg_sq f4 [3, 5]
9.12211e-07 1.0053309e-06 1.5527759e-06 1.1844445e-06 1.0213703e-06 1.3090424e-07 7.503466e-07 1.419384e-06
1.3587874e-07 1.0487522e-06 1.0278776e-06 9.546018e-07 1.2268599e-06 1.4453726e-06 9.0183926e-07
00000000: aade 7435 e8ee 8635 f968 d035 34f9 9e35
00000010: 0416 8935 af8e 0c34 6d6b 4935 aa81 be35
00000020: 10e6 1134 dac2 8c35 9bf5 8935 de1f 8035
00000030: 96aa a435 a0fe c135 ec15 7235

exp_avg f4 [3]
-0.04319282 -0.011404263 -0.045582365
00000000: f4ea 30bd f2d8 3abc 93b4 3abd

exp_avg_sq f4 [3]
0.00010331487 7.265281e-06 0.000115040086
00000000: c0aa d838 4ac8 f336 ad41 f138
