lightning_logs/version_52/checkpoints/epoch=0-step=2.ckpt (torch, 28015 bytes, 56 tensors)

layers.0.weight f4 [5]
00000000: d840 803f e640 803f 7781 7f3f c340 803f
00000010: 657d 7f3f
1.0019789 1.0019805 0.9980692 1.0019764 0.9980071

layers.0.bias f4 [5]
00000000: 686f fa37 2848 d7b6 9613 5c38 1872 4cb8
00000010: 1c81 a936
2.98542e-05 -6.4158994e-06 5.247033e-05 -4.874365e-05 5.051623e-06

layers.0.running_mean f4 [5]
00000000: fa8f 9941 7b87 9941 187d 9941 b69c 9941
00000010: 1681 9941
19.195301 19.191153 19.18608 19.201519 19.18803

layers.0.running_var f4 [5]
00000000: f723 5f3f b862 5e3f 8301 603f f01c 613f
00000010: b5b4 5d3f
0.87164253 0.8686938 0.87502307 0.8793478 0.8660386

layers.1.weight f4 [10, 5]
00000000: eae8 ce3e 5e51 823e 8397 20be 9086 79be
00000010: 3f7d 553e 5c00 e1be 702c 1abe 601f b33e
00000020: e189 053d f389 953d 3788 f6bd a639 88be
00000030: 37e8 ae3e 8a43 1f3e 8b7a cd3e 28c5 92be
00000040: a3ca bdbe 301d 49be 2278 d93d 8de7 a23d
00000050: 7018 da3c 4b29 d53e ff61 7bbe 4e00 9dbe
00000060: fbb0 eebc 5747 673e 8a6a f23d 3348 afbe
00000070: d0a0 5abe 75a0 a23e 89a6 953d 88db b63d
00000080: cc02 c5be e2bf 8f3e d9ec c6bc 05d0 863c
00000090: 187b b8be 4439 d3bb 6075 b73e 6ccc b2be
000000a0: 81a7 d5be bb32 e1be d3e6 583e 5ce6 d63e
000000b0: a2e1 b83e bbd7 933e b28f e83b 90dc 8e3e
000000c0: 38c2 bebe 9a33 193e
0.40412074 0.25452703 -0.15682797 -0.24367738 0.20848559 -0.43945587 -0.15056014 0.34984875
0.032602195 0.07301702 -0.120377 -0.26606482 0.3416154 0.15553108 0.40132555 -0.28666043
-0.37068662 -0.1964004 0.10618617 0.07954321 0.02662298 0.41633067 -0.24549101 -0.30664295
-0.029137125 0.22585808 0.11836727 -0.3423477 -0.21350408 0.31763044 0.07307155 0.08928591
-0.38478696 0.28076082 -0.02428286 0.016456613 -0.36031413 -0.0064460356 0.35831738 -0.34921587
-0.41729358 -0.43984017 0.21181802 0.41972625 0.36109644 0.28875527 0.007097208 0.2790265
-0.37257552 0.1496109

layers.1.bias f4 [10]
00000000: 1b49 a63e a250 cb3e 174c 90be 5dba ab3e
00000010: 1a64 d33e edc7 87be ec67 0f3e 5bc3 65be
00000020: e3ef b03e 54e5 263d
0.3247765 0.39709955 -0.28183052 0.3354062 0.4128731 -0.2651972 0.14004487 -0.22437803
0.3455802 0.040746048

layers.2.weight f4 [10]
00000000: 6786 7f3f f21e 803f 74d9 7f3f 9040 803f
00000010: ff32 803f 09d3 7f3f f537 803f 8c40 803f
00000020: b840 803f c27c 7f3f
0.99814457 1.0009444 0.9994118 1.0019703 1.0015563 0.9993139 1.0017077 1.0019698
1.001975 0.9979974

layers.2.bias f4 [10]
00000000: da27 03bb 78ab fe3a 5350 8fba 9c26 033b
00000010: 363a f3ba 0d4a 013b 8103 023b 1a55 fc3a
00000020: 9104 023b a32c 00bb
-0.0020012767 0.0019429764 -0.0010933973 0.0020012027 -0.0018556777 0.0019727976 0.0019838514 0.0019251436
0.0019839148 -0.0019557856

layers.2.running_mean f4 [10]
00000000: d2c7 7c3d 2883 9a3d 3550 5bbd 6a81 823d
00000010: 7caa a03d 945f 4ebd ae1a da3c 16ad 2ebd
00000020: cc7a 863d 5015 fd3b
0.061714 0.07544547 -0.05354329 0.0637234 0.07845017 -0.05038412 0.02662405 -0.042645536
0.065663904 0.007723488

layers.2.running_var f4 [10]
00000000: c79a 613f 1342 613f 6b63 663f 4992 5d3f
00000010: 87ec 603f 636b 5e3f 7ccc 5a3f 489f 5f3f
00000020: be3b 793f 7dc8 5f3f
0.88126796 0.87991446 0.8999545 0.8655134 0.8786091 0.8688261 0.8546827 0.8735242
0.97356784 0.87415296

layers.4.weight f4 [5, 10]
00000000: 7514 603e f1b2 053e 9d4b 9bbe b832 9d3e
00000010: 102c 88bc f887 33be e730 14be 763c 3ebe
00000020: 3239 7b3d f477 f1bd 4a60 01be 1fa5 0bbb
00000030: 14bf a1bd dc64 2b3e 536e b33d 137f b3bd
00000040: ddd9 9b3d ef0f 673e 10c1 7d3e bbf3 68be
00000050: 97ba 9c3e 1ce1 b83d ee5b bb3d 48b3 873d
00000060: 44f6 003e df62 99be e740 8e3e 9767 373e
00000070: 9198 0f3e 0b67 9c3e d988 d33d 04b4 70be
00000080: 75bf 223e fb35 9cbe 2f78 9f3d ae5d 043e
00000090: 943c 4abe 18b2 b33c dea4 be3d e25d 5bbd
000000a0: 8769 e4bd f275 833e a596 e8bd 1891 1d3d
000000b0: 9e3a 87be f1b0 833e 8dba 59be e50e 96be
000000c0: 1204 73bd 2ba6 9e3e
0.21882804 0.13056542 -0.30331126 0.30702758 -0.016622573 -0.17532337 -0.1447178 -0.18577752
0.061333843 -0.11790457 -0.12634388 -0.0021308137 -0.078977734 0.16737694 0.08761277 -0.08764472
0.076099135 0.22564672 0.24780679 -0.22749226 0.30611107 0.09027311 0.091483936 0.06625992
0.12593943 -0.29958245 0.27783892 0.1791061 0.14023043 0.30547366 0.10328836 -0.2350617
0.15893348 -0.30509934 0.07786595 0.12926361 -0.19749671 0.021935508 0.0930879 -0.05355633
-0.1115294 0.25675923 -0.11356858 0.03846845 -0.2641191 0.25720933 -0.2126257 -0.2930824
-0.059330054 0.3098615

layers.4.bias f4 [5]
00000000: 917f 10be d352 dbbc 7fde 4d3e 29b5 933e
00000010: 3ff9 0bbe
-0.14111163 -0.026772892 0.20104407 0.28849152 -0.13669299

layers.5.weight f4 [5]
00000000: 5211 803f 0612 803f 313d 803f f101 803f
00000010: 7b89 7f3f
1.0005286 1.00055 1.0018674 1.0000592 0.99819154

layers.5.bias f4 [5]
00000000: da82 fd3a 4a3f 003b e998 b0ba e885 00bb
00000010: a6d6 02bb
0.0019341365 0.0019568973 -0.0013473305 -0.0019611064 -0.0019964366

layers.5.running_mean f4 [5]
00000000: effd 32bd 3039 893c 9ac1 0c3e 1c95 193d
00000010: 4c20 27bd
-0.0436992 0.016750902 0.13745728 0.037495717 -0.040802285

layers.5.running_var f4 [5]
00000000: b025 513f 9ea3 573f 680f 523f c431 533f
00000010: 2df9 553f
0.8169813 0.84234035 0.8205476 0.8249781 0.8358334

layers.7.weight f4 [5]
00000000: e040 803f eb40 803f d340 803f d440 803f
00000010: b47c 7f3f
1.0019798 1.0019811 1.0019783 1.0019784 0.99799657

layers.7.bias f4 [5]
00000000: 3cb3 023b 5426 033b 3e22 033b 9af3 023b
00000010: c966 02bb
0.0019943258 0.002001186 0.0020009424 0.0019981624 -0.001989769

layers.7.running_mean f4 [5]
00000000: db9c 933d 89f7 9a3d a4af 9f3d a616 9f3d
00000010: 3eca 9e3d
0.07207652 0.07566745 0.07797173 0.07767992 0.077534184

layers.7.running_var f4 [5]
00000000: 4cff 603f d061 613f 5bb0 603f b65c 5e3f
00000010: e90f 603f
0.8788955 0.88039875 0.877691 0.86860216 0.87524277

layers.8.rho f4 [5]
00000000: 3705 b23f 6569 bd3f b9c4 993f ac92 f73f
00000010: bdd9 aa3f
1.3907841 1.4797789 1.201316 1.9341636 1.3347698

layers.8.gam f4 [5]
00000000: 9128 c13f bc68 8d3f f6d7 b83f e5e9 e73f
00000010: 35c5 e73f
1.5090505 1.1047587 1.4440906 1.8118254 1.8107058

layers.9.weight f4 [3, 5]
00000000: 0581 4e3e a013 973e 5aab 343e 1191 b0be
00000010: 9efa eabd 6e67 f73d a8b7 953e 0683 dabd
00000020: 7eca fcbc 4853 c6bd 48db 85be 3e36 823e
00000030: 62fb d83e 643a 4d3e 1f67 bebe
0.20166405 0.2950716 0.1764349 -0.34485677 -0.11473583 0.120802745 0.2924168 -0.10669522
-0.030858275 -0.096838534 -0.2614386 0.25432009 0.4237929 0.20041806 -0.3718805

layers.9.bias f4 [3]
00000000: b395 b7be 291d 233e 167c 0dbe
-0.358564 0.15929092 -0.13816866

exp_avg f4 [5]
00000000: 3a86 e4b9 c85a b5b9 829a e039 0fd8 c0b9
00000010: 5163 3d3a
-0.00043587555 -0.00034590648 0.00042839727 -0.0003678207 0.0007224577

exp_avg_sq f4 [5]
00000000: 8325 3532 8d6f e331 7e78 5232 b2a6 0132
00000010: 1329 0333
1.0544116e-08 6.6192514e-09 1.22510055e-08 7.54669e-09 3.053817e-08

exp_avg f4 [5]
00000000: 3e0a d7ad 7b14 4e2e 5c8f 72ad 2c5c 472d
00000010: ae47 0f2e
-2.4447219e-11 4.6857167e-11 -1.37879395e-11 1.1332307e-11 3.25781e-11

exp_avg_sq f4 [5]
00000000: 2b2c 381a e815 ff1b ca59 bc1b 9318 ad1b
00000010: 0724 c31b
3.8085987e-23 4.2200368e-22 3.1160016e-22 2.863633e-22 3.2283326e-22

exp_avg f4 [10, 5]
00000000: de3e 7b38 accd ebb8 2ca5 5d3a d8ba 46ba
00000010: 9a62 7fb9 8c5b bc39 8e60 a8b8 58aa b339
00000020: 32c6 76b9 d65b e139 996f 79b9 d7e1 d939
00000030: e25d e7b8 7c83 c1b9 1af2 e439 9e9c 2038
00000040: dcd4 08b9 782f 8339 d72e e138 505c 89b6
00000050: d8ba 84b9 2a7c 2fb9 dd95 28b9 e8b9 e9b8
00000060: b4c9 66b8 54d6 2bba b667 93b9 2dc9 8eba
00000070: 356c 8b3a d4f4 d038 a0a4 59b7 e8bd 5f3a
00000080: 4470 9239 d2dd e538 7aba 1138 c013 473a
00000090: 5293 0d3a b587 14ba 0e6c 45ba cc6e a6ba
000000a0: b5cc a8b8 9655 ef38 1208 1e39 c0cb 84b9
000000b0: 7b58 8239 6131 43ba a0cb 2837 1f06 2a3a
000000c0: 7c37 c1b8 e0e0 bdb7
5.9901613e-05 -0.000112439826 0.00084550935 -0.00075809425 -0.00024355427 0.00035926362 -8.028849e-05 0.00034268457
-0.00023534222 0.00042983767 -0.00023788064 0.0004155773 -0.000110324254 -0.00036909792 0.0004366793 3.8292834e-05
-0.00013049267 0.00025021634 0.00010737561 -4.0936648e-06 -0.0002531621 -0.00016735555 -0.00016077557 -0.000111449335
-5.5024124e-05 -0.00065550697 -0.00028115296 -0.0010893695 0.0010637107 9.963816e-05 -1.2972538e-05 0.0008535073
0.00027930934 0.00010960888 3.4744364e-05 0.00075941905 0.00054006756 -0.0005665974 -0.0007531055 -0.0012697815
-8.048994e-05 0.0001141235 0.0001507106 -0.00025328808 0.00024861455 -0.00074460177 1.00609905e-05 0.00064858975
-9.213292e-05 -2.2635271e-05

exp_avg_sq f4 [10, 5]
00000000: 9652 4231 b25b 8f32 dc15 4033 b6a7 2033
00000010: 3487 3233 7a21 0632 e275 dd2f edba 0032
00000020: 365c 5231 d19c 3332 e259 5b31 e6cc 8432
00000030: 1692 db31 df76 3232 bb9c ab32 c735 f330
00000040: 0d9f 8d30 f28c 1132 50cf 3730 8f39 2930
00000050: 6249 a331 08f7 d830 a101 0e31 01ce 7330
00000060: 74fd 0431 a6cc 0b33 0c15 b432 1f4b 9233
00000070: d6af a233 46a8 a632 ba31 f930 23c5 7b33
00000080: b2a1 6132 a84f b631 2e48 4031 e14d 0a33
00000090: 946a 9032 c211 b833 515a 3533 2913 cb33
000000a0: 4c68 9530 25b0 4c30 a39d b431 164a 7531
000000b0: a824 6d31 5f19 0433 25ad 8232 0e2c 4233
000000c0: be22 e632 f69e c732
2.827766e-09 1.668909e-08 4.4723365e-08 3.7405435e-08 4.156682e-08 7.807438e-09 4.0283427e-10 7.493083e-09
3.0611438e-09 1.0454827e-08 3.1919787e-09 1.546e-08 6.390347e-09 1.0387992e-08 1.9978293e-08 1.7695861e-09
1.0304305e-09 8.472158e-09 6.686962e-10 6.156364e-10 4.752267e-09 1.5786279e-09 2.0664646e-09 8.8695634e-10
1.93526e-09 3.2549586e-08 2.0964329e-08 6.812319e-08 7.575697e-08 1.9401465e-08 1.8131268e-09 5.8619786e-08
1.3133489e-08 5.305953e-09 2.7980707e-09 3.220146e-08 1.6812272e-08 8.571398e-08 4.222449e-08 9.456409e-08
1.087082e-09 7.4465084e-10 5.2566107e-09 3.5694305e-09 3.4508876e-09 3.075672e-08 1.5212729e-08 4.5209212e-08
2.6791323e-08 2.3238936e-08

exp_avg f4 [10]
00000000: 48e1 fa2d 1f85 ebad 3e0a 572e 48e1 faad
00000010: ec51 b82c 713d 9a2d 90c2 e52e 0000 a0ae
00000020: 0000 202e d7a3 08af
2.8521754e-11 -2.6775525e-11 4.8894437e-11 -2.8521754e-11 5.2386897e-12 1.7535058e-11 1.04482756e-10 -7.2759576e-11
3.6379788e-11 -1.2427336e-10

exp_avg_sq f4 [10]
00000000: 7d41 8b1a 0822 8b1a ee7d 6a1b 7d41 8b1a
00000010: e1f0 8218 a680 ac19 b613 831c 8738 b61b
00000020: 8738 b61a bd7b ee1c
5.7594855e-23 5.754403e-23 1.9396716e-22 5.7594855e-23 3.3847438e-24 1.7836344e-23 8.673948e-22 3.0145904e-22
7.536476e-23 1.5781504e-21

exp_avg f4 [10]
00000000: a06c 013a 00db e036 963d 0db9 3fe7 40b9
00000010: 34ca 9bb8 5351 89b8 b395 40b9 a84b 09ba
00000020: 7e1b edb9 4ee4 923a
0.0004937146 6.701215e-06 -0.0001346975 -0.00018396693 -7.428639e-05 -6.547817e-05 -0.00018366314 -0.0005237409
-0.00045224646 0.0011206956

exp_avg_sq f4 [10]
00000000: 8d1d a632 eddf 0631 241d b931 b055 0331
00000010: a1f9 7c30 b459 1231 446f 7231 cf31 8532
00000020: 1986 4432 72b2 9a33
1.9338382e-08 1.9626853e-09 5.3875215e-09 1.9111717e-09 9.203181e-10 2.1296787e-09 3.5278882e-09 1.5505888e-08
1.1439192e-08 7.203643e-08

exp_avg f4 [10]
00000000: 1ade 363a aedc 16b9 b0e6 4b37 56d9 cbb9
00000010: 7d8f 0f39 fae7 afb9 11bd aab9 ec85 cdb9
00000020: 3296 9db9 e112 003a
0.0006975845 -0.00014387324 1.2153454e-05 -0.00038881105 0.00013690996 -0.00033551437 -0.00032565792 -0.00039200427
-0.00030057278 0.00048856257

exp_avg_sq f4 [10]
00000000: b2de e632 7a25 b130 17cd 8030 9c76 0f32
00000010: edcd c230 6750 e231 2073 d031 a5ca 2a32
00000020: 848c b131 248f 7832
2.6876794e-08 1.2889096e-09 9.371516e-10 8.350664e-09 1.4173885e-09 6.5866064e-09 6.066685e-09 9.941378e-09
5.1673528e-09 1.4468046e-08

exp_avg f4 [5, 10]
00000000: 8466 823a 326d 13b9 98da 8439 fbe3 e6b8
00000010: 877f 713a 29b6 1139 007f 83b9 f774 4d39
00000020: 983a 1239 3570 0a3a e51a 5139 d6be fdb9
00000030: 2320 30ba 4445 0439 7037 bc39 f0e0 0b39
00000040: 7e9f 9db8 1b1e b939 3afc ebb9 428c 2739
00000050: 2723 a33a d018 ccb9 01bd a9b9 54f5 49bb
00000060: 9441 5e39 14ac b039 7640 57ba a7c7 63bb
00000070: 7253 14bb c0b8 6d3b 3e85 62b9 c106 4ab9
00000080: 0edd c1b9 00b1 a2b8 14d0 57b9 dd5a 9439
00000090: 6362 f938 a098 00b9 ccaa 68b9 46f3 2aba
000000a0: 0557 123a 68af 4238 2413 6439 5f32 c538
000000b0: 6771 ce39 4c9e 0839 ee30 2db9 d46f 38b9
000000c0: 1f22 8f39 6b09 6639
0.0009948765 -0.00014059691 0.00025339867 -0.00011009719 0.00092124235 0.00013896138 -0.0002508089 0.00019593896
0.00013945473 0.00052810024 0.00019941812 -0.00048398104 -0.0006718656 0.00012614304 0.00035899458 0.00013339869
-7.516051e-05 0.0003530838 -0.00045010616 0.00015978611 0.0012446389 -0.000389284 -0.0003237501 -0.0030816393
0.00021196 0.00033697544 -0.00082112045 -0.0034756453 -0.0022632745 0.003627345 -0.00021602676 -0.00019266737
-0.00036976527 -7.757731e-05 -0.00020581513 0.00028296458 0.00011891571 -0.00012263888 -0.00022188871 -0.0006521236
0.0005582425 4.6416564e-05 0.00021750905 9.4030744e-05 0.00039375873 0.00013028941 -0.00016516793 -0.00017589267
0.00027300508 0.00021938018

exp_avg_sq f4 [5, 10]
00000000: c57a 7b33 5afb fe32 b3a4 a232 b02e c931
00000010: 89a3 7333 b2c1 fb30 c09f d232 f321 2331
00000020: e461 0032 38a0 8632 1383 1a31 359d 6a32
00000030: 8e3d d932 a728 eb31 598e 0232 3219 8930
00000040: dc0a 8231 1091 ec31 deef 4432 8163 d030
00000050: 09a1 0034 cb56 7732 f6fa 9933 2334 1835
00000060: 5073 0d33 163f a132 6041 3d33 6f47 3435
00000070: 879d 9934 618d 4535 ba81 3931 3d91 2731
00000080: 33e2 0e32 c0ba b62f 9521 2f31 b901 9831
00000090: 1a7e 5830 af31 aa30 86a0 5231 d25a ce32
000000a0: dee5 c332 228b 9732 99e0 4832 5286 b831
000000b0: d690 2132 d846 8931 b853 d230 b8c1 fa30
000000c0: 6ef9 8732 3821 d731
5.855215e-08 2.9683793e-08 1.8934179e-08 5.8551777e-09 5.672658e-08 1.8317705e-09 2.4519863e-08 2.373892e-09
7.472838e-09 1.5672512e-08 2.2484457e-09 1.3656337e-08 2.5290117e-08 6.844022e-09 7.599362e-09 9.975223e-10
3.7847325e-09 6.8849957e-09 1.1463241e-08 1.5162273e-09 1.1979513e-07 1.4397027e-08 7.170267e-08 5.670028e-07
3.2933997e-08 1.8771555e-08 4.406445e-08 6.7159175e-07 2.8613087e-07 7.359395e-07 2.6994784e-09 2.4384257e-09
8.31692e-09 3.32383e-10 2.548494e-09 4.423978e-09 7.8759543e-10 1.2383249e-09 3.065027e-09 2.4022857e-08
2.280552e-08 1.7641984e-08 1.16926e-08 5.3703753e-09 9.404365e-09 3.9952788e-09 1.5303305e-09 1.8244952e-09
1.5829496e-08 6.2611e-09

exp_avg f4 [5]
00000000: 295c afac a470 6dae ec51 38ae f628 5cae
00000010: 0ad7 232e
-4.984031e-12 -5.3987606e-11 -4.1909518e-11 -5.005859e-11 3.7252902e-11

exp_avg_sq f4 [5]
00000000: 0c78 d917 941c 3a1c e1f0 821b f987 6d1c
00000010: 0689 ed1b
1.40536e-24 6.1579174e-22 2.166236e-22 7.8592463e-22 3.929691e-22

exp_avg f4 [5]
00000000: 8637 0032 dd05 4b33 5aa4 83b3 7afe 5533
00000010: d57e cb33
7.463205e-09 4.7269953e-08 -6.130058e-08 4.9824372e-08 9.475995e-08

exp_avg_sq f4 [5]
00000000: a8ae de23 ca83 5526 98bd 8125 81d3 a025
00000010: ae1c 4126
2.4143258e-17 7.407783e-16 2.2506407e-16 2.7898896e-16 6.6999194e-16

exp_avg f4 [5]
00000000: 48c9 79b8 ec91 28b9 dc82 fa37 79e6 ab38
00000010: 14fa ec38
-5.9553684e-05 -0.00016076089 2.9863259e-05 8.196844e-05 0.000112999376

exp_avg_sq f4 [5]
00000000: fc6c 772f a0c9 d630 4fff e02f ae64 dd2f
00000010: e2ba 4330
2.2503238e-10 1.5627855e-09 4.092677e-10 4.0271203e-10 7.1206163e-10

exp_avg f4 [5]
00000000: 9938 03ba ceda 1fbb 7c1d aeba 1587 69b9
00000010: a39f 6e3a
-0.0005005687 -0.0024391892 -0.0013283934 -0.00022270934 0.0009102767

exp_avg_sq f4 [5]
00000000: 7e7a 6e32 477c b034 6195 d233 205f 3d31
00000010: f4c1 4b33
1.3881275e-08 3.2872978e-07 9.806059e-08 2.7557192e-09 4.744102e-08

exp_avg f4 [5]
00000000: 5cad cab9 9c5d eaba 963c 67ba ae49 95b8
00000010: 3fbc 493a
-0.00038657605 -0.0017880681 -0.00088209787 -7.1185976e-05 0.00076955924

exp_avg_sq f4 [5]
00000000: 95c9 0f32 3ca4 3d34 5ab3 3833 22d0 9a2f
00000010: 2fc5 0f33
8.36953e-09 1.7661745e-07 4.3003958e-08 2.8160324e-10 3.347412e-08

exp_avg f4 [5]
00000000: d864 a538 962e cc39 3105 7039 ce0a e937
00000010: 4589 15b9
7.886597e-05 0.0003894462 0.00022890118 2.7780796e-05 -0.00014260884

exp_avg_sq f4 [5]
00000000: d368 bd2f 36f9 0f32 b80d 4831 619b 3c2e
00000010: 6519 a030
3.4453382e-10 8.3803595e-09 2.9111629e-09 4.2884255e-11 1.164875e-09

exp_avg f4 [5]
00000000: fbc5 b3b7 42d7 2ab9 4570 9bb8 d2ab 93b7
00000010: 0004 c237
-2.1430655e-05 -0.00016292653 -7.411888e-05 -1.7603776e-05 2.3128465e-05

exp_avg_sq f4 [5]
00000000: 3e8d df2d 2780 c930 722a ab2f 3925 992d
00000010: 174f 0a2e
2.5414889e-11 1.4661098e-09 3.1134878e-10 1.7410616e-11 3.1447813e-11

exp_avg f4 [3, 5]
00000000: de01 03bb f075 3bbb ae36 02bb 0000 0000
00000010: 8330 17b6 cd7c a6bb 58c2 a6bb 8b74 aabb
00000020: 6317 bebb e4d4 bdbb 573e b7ba 9c5f 7ebb
00000030: 38f9 a0bb 3480 37bb 13e8 87ba
-0.0019990127 -0.0028604232 -0.0019869017 0.0 -2.252899e-06 -0.0050807954 -0.0050890855 -0.0052018813
-0.0058011278 -0.005793201 -0.0013980371 -0.0038814312 -0.0049125217 -0.0028 -0.0010368846

exp_avg_sq f4 [3, 5]
00000000: 5c89 6d34 34a3 f334 3c41 6a34 0000 0000
00000010: fa32 302b ce65 c035 b91a c035 8685 c935
00000020: d673 f935 d450 fb35 e3e3 e733 2fd1 5f35
00000030: a489 b335 e782 e834 9448 8633
2.2122316e-07 4.5381023e-07 2.181668e-07 0.0 6.2598505e-13 1.4334744e-06 1.4312892e-06 1.5014527e-06
1.8585658e-06 1.8724481e-06 1.0798228e-07 8.3378376e-07 1.3376598e-06 4.3308611e-07 6.253063e-08

exp_avg f4 [3]
00000000: 2cec 6dbb a81e 52bd dec0 25bc
-0.00363041 -0.051298767 -0.010116784

exp_avg_sq f4 [3]
00000000: 5c60 4435 a0c8 1839 4930 be36
7.315591e-07 0.00014570588 5.6680624e-06
