lightning_logs/version_44/checkpoints/epoch=0-step=2.ckpt (torch, 28015 bytes, 56 tensors)

layers.0.weight f4 [5]
000000 d0 40 80 3f a4 e1 7f 3f 99 80 7f 3f 4e 3a 80 3f
       1.0019779 0.99953675 0.998056 1.0017793
000010 84 7e 7f 3f
       0.9980242

layers.0.bias f4 [5]
000000 4b cd 37 b8 ba e2 25 38 96 28 22 38 1d d2 1c 38
       -4.3821794e-05 3.955022e-05 3.866161e-05 3.738898e-05
000010 94 f2 db 37
       2.6219794e-05

layers.0.running_mean f4 [5]
000000 74 90 99 41 ee 8e 99 41 6a 92 99 41 ea 92 99 41
       19.195534 19.19479 19.196491 19.196735
000010 20 78 99 41
       19.183655

layers.0.running_var f4 [5]
000000 93 1e 5f 3f 30 31 60 3f 7f 9f 5f 3f 34 27 5f 3f
       0.8715603 0.87575054 0.87352747 0.87169194
000010 c1 a9 5f 3f
       0.873684

layers.1.weight f4 [10, 5]
000000 54 4d a3 bd 7c 57 f4 3d dd 15 44 3e 50 27 6f bd
       -0.079737335 0.11930749 0.19148965 -0.0583871
000010 6b d1 a6 be be 69 56 bd 08 36 e8 3d 09 6c d6 3e
       -0.32581648 -0.052346937 0.11338431 0.418793
000020 73 c2 94 3d fe b0 13 be ae 6a 52 3e 7a 13 9b be
       0.07263651 -0.14422986 0.20548508 -0.30288297
000030 1c b8 fe bd ba 8a a7 3e fd 1a 1d be e2 eb a6 be
       -0.1243746 0.32723027 -0.15342326 -0.3260184
000040 61 0b e1 be d4 2a 73 3e 2b 19 3d be fd 3c dc be
       -0.43953994 0.23746806 -0.18466632 -0.4301528
000050 a3 87 cf bd 7a 44 9d 3d cd 8b c5 3d 65 17 7e be
       -0.101332925 0.076790765 0.096458055 -0.24813612
000060 a0 b9 a7 3e 30 fc e2 be ae ab 9d bc db fb 61 3e
       0.32758808 -0.4433303 -0.019246902 0.22068731
000070 4e 2e fb 3d 50 ce e8 bd 92 e0 02 3e a9 5e 76 3e
       0.12264691 -0.11367476 0.1278098 0.24059547
000080 a1 df 77 3e 03 f8 71 be 1b 7e 2c 3e 44 96 58 bc
       0.24206401 -0.23629765 0.1684498 -0.01321942
000090 9d 86 c5 bd f2 72 50 3d 6b 5c a3 be 1f 53 17 3e
       -0.09644816 0.05089087 -0.31906447 0.14777802
0000a0 e6 73 ce 3e 74 16 d0 be 93 3c ba 3e e5 9d 58 3e
       0.40322798 -0.4064213 0.3637434 0.21153982
0000b0 c6 35 8a bd de cf d2 be d2 d9 b1 3e c8 0f 30 3d
       -0.06748538 -0.41174215 0.34736496 0.0429838
0000c0 61 c0 d4 be e8 a1 ca bd
       -0.41553023 -0.098941624

layers.1.bias f4 [10]
000000 02 bf 7a be 38 2a b4 3c a7 47 67 be ec df d3 3d
       -0.24486926 0.021992788 -0.22585927 0.10345444
000010 9b 64 a1 3e cc be 7a 3d 6d a2 cb be c4 ef 3c be
       0.31522068 0.061217114 -0.3977236 -0.18450838
000020 d6 09 2e bd 2e e9 38 3d
       -0.04248985 0.045144252

layers.2.weight f4 [10]
000000 d2 35 80 3f 9d 84 7f 3f 56 40 80 3f 32 87 7f 3f
       1.0016425 0.99811727 1.0019634 0.99815667
000010 ed 31 80 3f ab 40 80 3f 7b 85 7f 3f ca 2c 80 3f
       1.0015236 1.0019735 0.9981305 1.0013669
000020 14 40 80 3f 44 3f 80 3f
       1.0019555 1.0019307

layers.2.bias f4 [10]
000000 8b b0 02 3b 44 1f f0 3a d0 b6 e7 ba 7b 27 03 bb
       0.0019941654 0.0018319865 -0.0017678384 -0.0020012546
000010 86 75 fb 3a 18 30 f1 3a a2 22 f4 ba 1c 2a 01 3b
       0.0019184805 0.0018401174 -0.0018626044 0.0019708937
000020 9c 56 00 3b fb 93 e8 3a
       0.0019582873 0.0017744297

layers.2.running_mean f4 [10]
000000 38 90 3e bd 5a 96 88 3b 09 c2 2f bd ca f9 a0 3c
       -0.046524256 0.004168314 -0.042909656 0.019650359
000010 9c 52 75 3d f3 9b 3e 3c 28 c3 9a bd 5e 9d 0f bd
       0.059893236 0.011633861 -0.07556754 -0.035062186
000020 d1 56 04 bc 80 7d 0c 3c
       -0.008077339 0.008574843

layers.2.running_var f4 [10]
000000 cd 65 58 3f 69 8b 5a 3f 21 e1 5d 3f 7b 71 6d 3f
       0.84530336 0.85368973 0.86671644 0.9275128
000010 fb bf 58 3f 59 b9 5c 3f 47 be 59 3f 80 a1 55 3f
       0.8466794 0.8622032 0.85055965 0.83449554
000020 93 98 68 3f f4 e3 67 3f
       0.9085781 0.90582204

layers.4.weight f4 [5, 10]
000000 1a d1 e2 3d 45 53 3c be 13 76 e0 3d 51 f8 98 3e
       0.11075039 -0.1839114 0.10960021 0.2987695
000010 cb 17 2a 3e cf fb 11 3e 63 00 51 3e 01 dd 6c 3e
       0.16610639 0.14256214 0.20410304 0.23131181
000020 8d 5b 8c be d3 82 a8 bd 07 f0 32 3e ed 07 8b 3e
       -0.27413598 -0.08228078 0.17474376 0.27154484
000030 cd 0f 5f 3e 4d 13 00 be d6 98 18 3e 84 f0 96 bd
       0.21783371 -0.12507363 0.14902052 -0.073700935
000040 46 c0 91 be 03 9d a0 3e 65 88 f3 bd 01 e6 9a 3d
       -0.28467005 0.3136979 -0.118912496 0.07563401
000050 ec 87 d0 3d af 15 95 be ab 31 3f be 5d 5e 0a bd
       0.10182175 -0.29118106 -0.1867129 -0.033781398
000060 bf 51 7c be e1 43 06 be b7 3f 98 be a5 7c 10 be
       -0.24640559 -0.13111831 -0.2973611 -0.14110048
000070 a2 66 6d be f8 96 1f be a9 89 2c be a2 fe 4e 3e
       -0.23183683 -0.15584934 -0.16849388 0.20214322
000080 8f 0e bc 3d c6 54 66 3e 5b 42 a7 bd 8d a3 53 be
       0.09182464 0.22493276 -0.08166953 -0.20667858
000090 86 d5 b4 bd fb 76 1c be 54 d9 33 3e 32 cd 65 3e
       -0.08829789 -0.15279762 0.17563373 0.22441557
0000a0 3d 88 25 bd 42 cf 8e 3e 7e c6 2b 3e 08 bd 93 be
       -0.04041313 0.278925 0.16774938 -0.28855157
0000b0 f4 57 27 be c0 3d 55 bd d6 2c 5d 3e d2 dd 81 3c
       -0.16342145 -0.052060843 0.21599135 0.015852842
0000c0 b7 10 9a 3d 8e 1d 12 be
       0.07522719 -0.14269087

layers.4.bias f4 [5]
000000 9d 0b 60 be 73 b1 59 bc 84 6b f1 bc 6d d0 3e be
       -0.2187943 -0.013286936 -0.029470213 -0.18634196
000010 02 89 87 3e
       0.26471716

layers.5.weight f4 [5]
000000 28 10 80 3f 29 0f 80 3f 0e 80 7f 3f ac 90 7f 3f
       1.000493 1.0004627 0.9980477 0.99830127
000010 15 0a 80 3f
       1.0003077

layers.5.bias f4 [5]
000000 16 9e 01 3b 15 69 01 3b 02 26 03 3b 55 1f 02 bb
       0.0019778064 0.0019746472 0.0020011668 -0.00198551
000010 a6 03 03 3b
       0.0019991188

layers.5.running_mean f4 [5]
000000 82 9b 6f 3c 06 ad 3d 3d 44 61 06 be 0e 95 90 bc
       0.014624478 0.046307586 -0.13123041 -0.0176492
000010 de 2f 67 3d
       0.056442134

layers.5.running_var f4 [5]
000000 94 52 55 3f a1 2b 51 3f de 03 58 3f c2 14 52 3f
       0.8332913 0.817072 0.843809 0.82062924
000010 da c3 53 3f
       0.8272072

layers.7.weight f4 [5]
000000 90 40 80 3f 84 40 80 3f 92 7b 7f 3f 7e 7c 7f 3f
       1.0019703 1.0019689 0.9979793 0.99799335
000010 da 40 80 3f
       1.0019791

layers.7.bias f4 [5]
000000 7c d6 02 3b f1 79 02 3b 2f 1e 03 bb 0e 08 02 bb
       0.0019964268 0.0019909109 -0.0020007004 -0.0019841227
000010 15 1e 03 3b
       0.0020006944

layers.7.running_mean f4 [5]
000000 01 83 9e 3d c2 80 98 3d 32 c9 a0 3d 64 d1 98 3d
       0.07739831 0.074464336 0.07850875 0.07461813
000010 58 88 96 3d
       0.07350224

layers.7.running_var f4 [5]
000000 f1 f5 63 3f 5c ad 64 3f 01 5a 5a 3f 0e 6e 64 3f
       0.8904715 0.89327025 0.85293585 0.8923043
000010 97 1e 5f 3f
       0.8715605

layers.8.rho f4 [5]
000000 ea 52 fb 3f 4f ec c9 3f 2f 24 df 3f 65 09 bd 3f
       1.9634678 1.5775241 1.7432917 1.4768492
000010 05 94 83 3f
       1.0279547

layers.8.gam f4 [5]
000000 c6 03 8d 3f aa 0a 9d 3f 1f 30 ac 3f ff 81 c1 3f
       1.1016777 1.226888 1.3452185 1.5117797
000010 24 51 c7 3f
       1.5571637

layers.9.weight f4 [3, 5]
000000 ea 4b d3 3e 08 c1 9e 3e 52 dd 35 3e d6 72 80 bd
       0.41268855 0.31006646 0.17760208 -0.06271903
000010 2c 4c d6 be 74 dd b3 be 07 9a dd be f0 3c b4 3e
       -0.4185499 -0.35129893 -0.43281576 0.35202742
000020 50 a8 2a 3d 18 03 9c 3e 70 a3 cc 3e a2 8f 71 3e
       0.04166442 0.3047111 0.39968443 0.23589948
000030 08 b7 0e be 9d 8a 11 be 1c 60 9f 3e
       -0.13937008 -0.14213033 0.31128013

layers.9.bias f4 [3]
000000 bd 3b 97 be 65 54 cc be 8d 4a b1 3e
       -0.29537764 -0.39908138 0.3462719

exp_avg f4 [5]
000000 8b 9b e5 b9 98 ea d9 b8 eb e1 9a 39 77 47 2d b9
       -0.00043794172 -0.00010391063 0.0002954149 -0.00016525188
000010 63 1b d8 39
       0.00041219135

exp_avg_sq f4 [5]
000000 50 39 37 32 81 8a 04 31 f8 7a c2 31 fd ab 22 31
       1.0665033e-08 1.9287258e-09 5.660123e-09 2.3671867e-09
000010 ab ed 30 32
       1.0298588e-08

exp_avg f4 [5]
000000 86 eb f1 2d b8 1e 03 ae 3e 0a f7 ad 40 5c 0f ab
       2.7503121e-11 -2.9813235e-11 -2.8085197e-11 -5.093183e-13
000010 e2 7a 5c ae
       -5.013135e-11

exp_avg_sq f4 [5]
000000 f5 90 e1 1a 19 99 a1 1a 15 03 9c 1a 72 7c a0 1b
       9.329201e-23 6.683538e-23 6.452507e-23 2.65502e-22
000010 fe ff 93 1b
       2.448454e-22

exp_avg f4 [10, 5]
000000 f4 4e 62 3a 10 05 7f b8 8c c5 13 3a 72 45 60 3a
       0.0008632981 -6.0801452e-05 0.0005637042 0.000855527
000010 4b bb 40 b8 3a 49 a7 39 31 bd 22 3a 72 8b 5b b9
       -4.5950797e-05 0.0003190728 0.0006208001 -0.00020937415
000020 7c e6 1a 3a ea d6 ac 38 1e c3 8f 39 68 b9 f4 39
       0.00059089786 8.24163e-05 0.0002742046 0.00046677445
000030 86 02 5f 39 5e 64 7b 39 cc 00 55 b9 b5 59 0b 3a
       0.00021267877 0.00023974615 -0.0002031356 0.00053157966
000040 f4 4b ab b8 0d 42 9b 39 a0 46 94 37 2d 4d 27 b9
       -8.168063e-05 0.00029613115 1.7675862e-05 -0.00015955111
000050 90 68 5e 3a b6 6e e1 b9 12 af f8 39 73 2f fd 39
       0.0008484209 -0.0004299783 0.00047432684 0.00048291273
000060 dc 65 17 3a 10 09 77 39 82 f3 01 b9 8a c3 08 3a
       0.0005775371 0.00023559132 -0.00012393112 0.0005217126
000070 68 c9 cc 37 4a 4c 23 39 7e b3 a4 b8 f3 46 3a b9
       2.4412482e-05 0.00015573311 -7.8535624e-05 -0.00017764773
000080 3d a0 8b 39 00 d4 4b b8 b6 79 18 b9 ec 8b f0 3a
       0.00026631533 -4.8596412e-05 -0.0001454119 0.0018352247
000090 8b d1 38 ba c4 14 15 3a b8 81 32 3a c1 5c 75 3a
       -0.00070502673 0.0005686993 0.0006809491 0.000935983
0000a0 b4 2f 42 38 68 81 03 39 f6 a5 99 b8 64 c5 58 39
       4.629763e-05 0.00012541341 -7.326521e-05 0.00020672899
0000b0 e6 7c 60 b9 2e 88 bc 38 89 e3 d4 b7 50 bb 42 b7
       -0.00021408833 8.989904e-05 -2.5378324e-05 -1.1606913e-05
0000c0 c3 ad ca b8 d3 e7 71 b8
       -9.664476e-05 -5.767478e-05

exp_avg_sq f4 [10, 5]
000000 e4 90 4b 33 c9 09 6c 2f 25 05 a7 32 d3 ac 2d 33
       4.7396398e-08 2.1467551e-10 1.9443698e-08 4.0436884e-08
000010 97 3e 21 2f 8e 3f c1 31 1c 1d 1d 33 55 31 d7 31
       1.4665101e-10 5.6242646e-09 3.6580886e-08 6.262932e-09
000020 0f fd 60 33 2b ff 15 30 ef bb 8e 31 00 f1 52 32
       5.238422e-08 5.45685e-10 4.1541095e-09 1.2278406e-08
000030 29 11 61 31 bd c3 82 31 a8 42 9d 31 8d f0 a4 32
       3.2751564e-09 3.805751e-09 4.5768793e-09 1.9201503e-08
000040 2a 2c 0a 32 c0 2e 01 32 88 49 5c 31 cd 51 ca 30
       8.042699e-09 7.519418e-09 3.2056011e-09 1.4720684e-09
000050 e3 12 2d 33 00 a9 c0 32 cb e2 5b 32 77 ab 79 32
       4.029688e-08 2.2428594e-08 1.27990445e-08 1.4532694e-08
000060 26 ac a0 32 0a d4 59 31 df d7 82 31 57 af 83 32
       1.8704736e-08 3.1698186e-09 3.8080397e-09 1.5330142e-08
000070 cc 10 34 31 71 40 c0 30 61 5a 6f 32 45 25 7a 31
       2.6202995e-09 1.3988154e-09 1.3932181e-08 3.6400973e-09
000080 14 bb 29 32 61 e6 66 32 4a 88 e9 30 10 dc 47 34
       9.879631e-09 1.3440144e-08 1.6991717e-09 1.8613378e-07
000090 18 22 37 33 3e f4 ff 32 ec b4 df 32 21 1a 9e 33
       4.2639016e-08 2.9796976e-08 2.604289e-08 7.362201e-08
0000a0 8d f2 38 2f fc bc 6f 30 e4 2f 44 30 c1 ad 37 31
       1.6820874e-10 8.7216256e-10 7.137244e-10 2.6728773e-09
0000b0 8d 5f 54 31 4c dd fb 2f f7 75 1c 2e 00 a9 e4 2f
       3.0904375e-09 4.5813875e-10 3.5575067e-11 4.159304e-10
0000c0 0a 6b 0e 30 f3 79 f6 2f
       5.181141e-10 4.483379e-10

exp_avg f4 [10]
000000 52 b8 9e 2d c2 f5 a8 ae 15 ae 47 2e ae 47 61 ae
       1.8044375e-11 -7.683411e-11 4.5401977e-11 -5.122274e-11
000010 85 eb 91 2d cd cc 4c 2c 5e 8f 42 ad cd cc 4c ae
       1.6589183e-11 2.910383e-12 -1.1059457e-11 -4.656613e-11
000020 86 eb 91 ad d8 a3 f0 ad
       -1.6589185e-11 -2.7357602e-11

exp_avg_sq f4 [10]
000000 7d 41 8b 1a 3f ab cc 1b d8 d2 23 1b 56 12 59 1b
       5.7594855e-23 3.3859634e-22 1.3551171e-22 1.7955744e-22
000010 f2 94 45 1b 6f 12 83 17 de 5f 3d 1b 6f 12 83 1b
       1.6343585e-22 8.47033e-25 1.566469e-22 2.1684044e-22
000020 dc 61 93 19 34 d8 54 1a
       1.5238969e-23 4.401522e-23

exp_avg f4 [10]
000000 50 e0 b0 b8 bb b3 88 39 c0 40 35 b9 fa 36 9a 39
       -8.4341154e-05 0.0002607385 -0.00017285626 0.0002941413
000010 a3 28 42 b8 8c 09 ae b8 06 d4 3c 39 89 d3 e5 b8
       -4.629105e-05 -8.298745e-05 0.00018008062 -0.000109589724
000020 b6 d3 35 b9 90 0f 87 b8
       -0.00017340374 -6.4402004e-05

exp_avg_sq f4 [10]
000000 a9 b6 76 30 e2 cb ad 31 eb 2c eb 30 a6 d7 f2 31
       8.9753854e-10 5.0581415e-09 1.7111267e-09 7.0676434e-09
000010 cf 9c dc 2f 2d 58 d4 2f 90 00 2b 31 cc ba 98 31
       4.0129186e-10 3.8625228e-10 2.4884095e-09 4.4450186e-09
000020 00 77 f0 30 48 ac 8b 2f
       1.749612e-09 2.5406366e-10

exp_avg f4 [10]
000000 76 e1 ed b8 ba 92 3b b9 5c d0 65 38 26 1a 7a 39
       -0.00011343036 -0.0001788837 5.4791904e-05 0.00023851599
000010 bb 8f 4e b9 60 8b 8d b8 85 fe 03 39 d2 b0 b1 b9
       -0.00019699235 -6.7493645e-05 0.0001258795 -0.00033891812
000020 d9 ed ad b9 26 e4 47 b8
       -0.00033174342 -4.7657777e-05

exp_avg_sq f4 [10]
000000 be 20 46 30 c7 e6 2f 31 3f fe 9a 2f 80 ed 57 31
       7.207851e-10 2.5597033e-09 2.819309e-10 3.142162e-09
000010 86 08 2f 31 8c 75 c4 2f e4 0e a2 30 68 d6 e7 31
       2.5470697e-09 3.5735714e-10 1.1791284e-09 6.74736e-09
000020 88 01 e4 31 35 8a 66 2f
       6.6358474e-09 2.0967479e-10

exp_avg f4 [5, 10]
000000 20 2c 67 38 c5 f5 04 3a 3c fd e4 b7 1c b9 2e 39
       5.5115786e-05 0.0005072023 -2.729764e-05 0.00016662892
000010 7a 89 ff b8 37 88 b4 b9 d9 2d b5 39 72 78 93 39
       -0.000121849545 -0.00034433763 0.0003455717 0.00028127764
000020 99 6a b7 39 3a 6b 52 ba 5b 38 25 b9 d5 35 10 3a
       0.000349839 -0.0008026842 -0.0001575662 0.00055011857
000030 dd f1 a3 39 81 56 5d ba ee 67 9d b9 6a 1c fb b9
       0.00031269985 -0.0008443371 -0.00030022807 -0.0004789562
000040 c0 97 08 b7 d6 5e 11 ba 8c de 2b 39 ae 99 b0 ba
       -8.141564e-06 -0.00055454427 0.00016390736 -0.0013473534
000050 f8 6b 83 38 1d 68 16 38 e9 70 27 b8 8f 3c 1d 39
       6.2666775e-05 3.585975e-05 -3.992106e-05 0.00014995247
000060 64 c7 6d b7 39 43 1d 39 1d 71 87 b7 5b 69 89 b8
       -1.4172725e-05 0.00014997729 -1.6145927e-05 -6.552293e-05
000070 af 2a a5 b8 b0 eb cf 38 1b ae 9c 39 b2 78 bf b8
       -7.8757635e-05 9.9144294e-05 0.00029884357 -9.130071e-05
000080 6d 0f 74 b8 fc 74 e9 39 0a e7 86 b9 0e 61 2a 39
       -5.81885e-05 0.00044528383 -0.0002573061 0.00016248619
000090 18 3f 94 b8 de 14 d7 38 b5 81 99 b9 d8 cb 4f 39
       -7.068942e-05 0.00010255886 -0.00029279073 0.00019816996
0000a0 fe 1c 06 3a d7 a8 58 3a c6 07 be ba a8 e8 13 b9
       0.00051160145 0.0008264905 -0.0014498166 -0.00014105684
0000b0 7e fb 35 38 98 21 b4 39 67 da e5 39 62 42 83 39
       4.3387983e-05 0.00034357305 0.00043841006 0.00025035726
0000c0 34 7a bc b9 b7 7b e2 39
       -0.00035949203 0.00043198254

exp_avg_sq f4 [5, 10]
000000 2a 42 0e 32 1c bd 8a 32 1a 6a 1d 31 9b de fe 30
       8.280532e-09 1.6151311e-08 2.2906819e-09 1.8544201e-09
000010 ac 7a 61 30 d4 b8 86 32 50 4c f4 31 37 9e 07 32
       8.202885e-10 1.5683703e-08 7.1100104e-09 7.894008e-09
000020 f0 78 f6 31 9e 4b 1a 33 8f 4a 13 31 3c 29 90 32
       7.1732913e-09 3.5924693e-08 2.1433697e-09 1.6782558e-08
000030 a6 82 d6 31 c3 9f 9d 33 1f a9 bf 31 ae b8 7f 32
       6.2430727e-09 7.339943e-08 5.5780585e-09 1.4884945e-08
000040 b4 00 5a 31 e7 c2 25 33 73 f3 14 31 52 9f e6 33
       3.1723575e-09 3.859432e-08 2.167522e-09 1.073919e-07
000050 75 e6 2c 30 71 af 12 2f 4b a8 89 30 80 f4 b9 30
       6.2900735e-10 1.3340952e-10 1.0015894e-09 1.3530013e-09
000060 46 1b aa 2f 0c 64 ad 30 45 5f 2d 2e f4 ee 2a 30
       3.09422e-10 1.2615842e-09 3.9420262e-11 6.218521e-10
000070 3f d7 17 30 07 a2 93 30 46 1a d9 31 8c 68 fe 2f
       5.5239363e-10 1.0741709e-09 6.318518e-09 4.6276616e-10
000080 e2 9e 9a 2f fe 77 3e 32 98 cb 7e 31 26 6e f8 30
       2.812533e-10 1.1086739e-08 3.7077594e-09 1.8075681e-09
000090 a0 61 95 30 fa d3 28 30 38 b1 a4 31 56 28 17 31
       1.0868924e-09 6.141928e-10 4.7931756e-09 2.199632e-09
0000a0 db 1c 7b 32 e5 67 40 33 9e 2e 17 34 31 ae 8e 31
       1.4616684e-08 4.4797975e-08 1.407993e-07 4.152547e-09
0000b0 25 bb 72 31 39 43 39 32 f3 7c 61 32 66 1d 6e 31
       3.5322014e-09 1.0783702e-08 1.3125134e-08 3.465027e-09
0000c0 50 79 0a 33 a5 a4 31 32
       3.2240962e-08 1.0340192e-08

exp_avg f4 [5]
000000 71 3d 1a af 66 66 b6 2e f6 28 8c 2e f8 28 0c ad
       -1.4028047e-10 8.2945914e-11 6.373739e-11 -7.9671755e-12
000010 cd cc cc 2d
       2.3283065e-11

exp_avg_sq f4 [5]
000000 10 5a df 1c 88 85 02 1c 38 9e 87 1b ae 7c 12 1b
       1.4780183e-21 4.3185977e-22 2.2436123e-22 1.2117123e-22
000010 6f 12 83 1a
       5.421011e-23

exp_avg f4 [5]
000000 f2 af 88 33 1a 4e 1b 33 eb 9f 92 33 03 e3 b8 33
       6.364998e-08 3.6159783e-08 6.827744e-08 8.609461e-08
000010 a1 41 0e 34
       1.3248656e-07

exp_avg_sq f4 [5]
000000 e5 15 95 26 35 5e b6 25 52 19 97 25 7c f4 35 26
       1.0344886e-15 3.1635804e-16 2.6211482e-16 6.312833e-16
000010 1b f1 2c 27
       2.4000499e-15

exp_avg f4 [5]
000000 5c 53 45 b9 bc 64 27 b9 f2 85 fe b7 a2 83 25 39
       -0.00018818438 -0.00015963888 -3.0341533e-05 0.00015784663
000010 f8 db b3 b9
       -0.0003430543

exp_avg_sq f4 [5]
000000 31 ef 0c 31 db 28 cc 30 4c 9e 5f 2e 9a 39 c3 30
       2.0508646e-09 1.4854565e-09 5.0844925e-11 1.4204489e-09
000010 b8 4c e0 31
       6.52798e-09

exp_avg f4 [5]
000000 44 bc 27 bb 3d 8c bf ba aa 8b 97 3a 8b 99 13 3a
       -0.0025594393 -0.0014613938 0.0011562009 0.00056304847
000010 20 8e bf ba
       -0.00146145

exp_avg_sq f4 [5]
000000 0c 91 c6 34 a2 de 01 34 73 bc 9e 33 e8 e9 9a 32
       3.698591e-07 1.2095055e-07 7.391727e-08 1.8034328e-08
000010 28 79 fe 33
       1.1849835e-07

exp_avg f4 [5]
000000 1e 1e ee ba 6c e8 89 ba 1f 20 80 3a 5b ab 08 3a
       -0.0018166935 -0.0010521538 0.0009775198 0.0005213522
000010 ca 7e b9 ba
       -0.0014152166

exp_avg_sq f4 [5]
000000 fa a2 45 34 72 10 86 33 ae ee 62 33 1d 7d 85 32
       1.8406345e-07 6.2428526e-08 5.2836803e-08 1.5540133e-08
000010 98 d4 ed 33
       1.1074843e-07

exp_avg f4 [5]
000000 7b 58 b3 39 ad 7e 67 39 22 63 29 b9 ef 5c b3 b8
       0.00034207464 0.00022077067 -0.00016154026 -8.552695e-05
000010 d0 9b 8d 39
       0.00027009705

exp_avg_sq f4 [5]
000000 29 f1 e2 31 b0 a0 3d 31 ec 53 c6 30 0c d9 e4 2f
       6.6048824e-09 2.759446e-09 1.4430248e-09 4.162718e-10
000010 38 0c 8b 31
       4.0468215e-09

exp_avg f4 [5]
000000 d8 e2 32 b9 b3 5c ba b8 a8 0a 10 38 04 34 7c 37
       -0.00017059909 -8.886438e-05 3.43422e-05 1.5032481e-05
000010 de 80 c3 b7
       -2.330582e-05

exp_avg_sq f4 [5]
000000 4e d9 e5 30 f3 bb f6 2f e2 93 8f 2e 70 94 5b 2d
       1.6723705e-09 4.4880685e-10 6.5291564e-11 1.24816685e-11
000010 00 2a 0a 2e
       3.141487e-11

exp_avg f4 [3, 5]
000000 48 ce 5d bb ee 18 4f bb 00 00 00 00 f5 f5 e8 b8
       -0.0033844877 -0.0031600553 0.0 -0.00011108435
000010 35 9d 66 b5 00 00 00 00 00 00 00 00 00 00 00 00
       -8.5910443e-07 0.0 0.0 0.0
000020 00 00 00 00 00 00 00 00 08 8c 75 bb dc 39 7e bb
       0.0 0.0 -0.0037467498 -0.003879181
000030 05 73 ce bb 3c 72 94 bb 2f de 96 bb
       -0.0063003325 -0.0045302194 -0.004604123

exp_avg_sq f4 [3, 5]
000000 5d e8 2f 35 b7 95 1b 35 00 00 00 00 1e 2b d1 30
       6.5530713e-07 5.7959863e-07 0.0 1.5219006e-09
000010 c1 f9 cc 29 00 00 00 00 00 00 00 00 00 00 00 00
       9.102745e-14 0.0 0.0 0.0
000020 00 00 00 00 00 00 00 00 8a 98 51 35 12 af 5f 35
       0.0 0.0 7.808054e-07 8.3328734e-07
000030 13 75 13 36 9c 74 98 35 45 52 9e 35
       2.1972853e-06 1.135882e-06 1.1795861e-06

exp_avg f4 [3]
000000 64 3d a2 bb 00 00 00 00 b4 37 30 bd
       -0.004951166 0.0 -0.043021873

exp_avg_sq f4 [3]
000000 b7 87 bf 35 00 00 00 00 72 e8 d6 38
       1.4270107e-06 0.0 0.000102476115
