lightning_logs/version_91/checkpoints/epoch=2-step=3.ckpt (torch, 28460 bytes, 56 tensors)

layers.0.weight f4 [5]
0	0x3f806119	1.0029632
1	0x3f7f39b2	0.9969741
2	0x3f7f3be9	0.9970079
3	0x3f80614f	1.0029696
4	0x3f7f3926	0.99696577

layers.0.bias f4 [5]
0	0x37c84c0a	2.3877266e-05
1	0x3912015c	0.00013924151
2	0xb7900317	-1.7167577e-05
3	0x384ee3ec	4.9326496e-05
4	0x384b7bdb	4.851432e-05

layers.0.running_mean f4 [5]
0	0x456e9b80	3817.7188
1	0x449bb9eb	1245.8099
2	0x4486c420	1078.1289
3	0x444e963c	826.3474
4	0x4421a324	646.5491

layers.0.running_var f4 [5]
0	0x4da525fc	3.4634125e+08
1	0x4cd89aad	1.13562984e+08
2	0x4cbf572f	1.0031756e+08
3	0x4c8f9bcd	7.5292264e+07
4	0x4c5ecb04	5.8403856e+07

layers.1.weight f4 [10, 5]
0	0xbdc40c9d	-0.09572718
1	0xbec42268	-0.383075
2	0x3e2c6282	0.16834453
3	0xbeb888b5	-0.360418
4	0x3d0d6f32	0.034529872
5	0x3ead02c3	0.3379117
6	0x3d325c95	0.043545324
7	0x3ed067bb	0.4070414
8	0x3e346d84	0.17619902
9	0xbd83dce3	-0.06438615
10	0xbe6aa564	-0.22914654
11	0xbea0edab	-0.31431326
12	0xbd8478e2	-0.06468369
13	0x3ea09e15	0.31370607
14	0x3eda078e	0.4258389
15	0x3e98d138	0.2984712
16	0xbe97b051	-0.29626706
17	0xbea27810	-0.31732225
18	0xbe6fa1ee	-0.23401615
19	0xbc80f0fb	-0.015739908
20	0xbe88261f	-0.26591584
21	0x3e4e1dd5	0.20128568
22	0x3e96839c	0.29397285
23	0x3ed3a8d1	0.41339734
24	0x3e0bcfac	0.1365344
25	0xbd39c54e	-0.04535418
26	0xbecc0866	-0.39850157
27	0xbeb10b88	-0.3457911
28	0x399a3984	0.0002941602
29	0xbeab2ab1	-0.33431008
30	0xbea79a1c	-0.32734764
31	0x3e2f71e5	0.17133291
32	0x3c6e4a5a	0.014544094
33	0xbce942c6	-0.028474223
34	0xbd91b515	-0.07114617
35	0x3ece27b7	0.40264675
36	0x3e69f6e3	0.22848086
37	0x3e0acb42	0.13554099
38	0xbece4121	-0.40284064
39	0xbd147d2d	-0.03625219
40	0xbe694de8	-0.22783625
41	0x3ebcf89e	0.3690843
42	0xbec79b17	-0.38985512
43	0x3d949a5a	0.07256003
44	0xbdb3a045	-0.08770803
45	0xbe348963	-0.17630534
46	0xbe79b541	-0.24385549
47	0xbea37ef0	-0.31932783
48	0xbdfdd99b	-0.123950206
49	0xbe604af1	-0.21903588

layers.1.bias f4 [10]
0	0xbed583de	-0.4170217
1	0xbcc2de38	-0.023787603
2	0x3db75d15	0.08953301
3	0x3deed3b4	0.11661473
4	0xbde72438	-0.11286205
5	0x3eb0aa75	0.34505048
6	0xbedeb803	-0.43499765
7	0x3e80080a	0.25006133
8	0xbec1fef1	-0.37889817
9	0xbe349316	-0.17634234

layers.2.weight f4 [10]
0	0x3f7f39d2	0.996976
1	0x3f806115	1.0029627
2	0x3f80611e	1.0029638
3	0x3f7f39b8	0.99697447
4	0x3f7f3997	0.9969725
5	0x3f7f3aa4	0.99698853
6	0x3f806156	1.0029705
7	0x3f7f3948	0.9969678
8	0x3f8002d9	1.0000869
9	0x3f8060dc	1.0029559

layers.2.bias f4 [10]
0	0x3b445fe2	0.0029964377
1	0x3b3ac5c5	0.0028499227
2	0x3b3cd9e4	0.0028816396
3	0x3b44bf6e	0.0030021328
4	0xbb447220	-0.002997525
5	0xbb434a00	-0.0029798746
6	0x3b445352	0.002995689
7	0x3b447198	0.0029974934
8	0xbb444f7f	-0.002995461
9	0x3b44c41f	0.0030024124

layers.2.running_mean f4 [10]
0	0xbe4813b8	-0.19538772
1	0xbc369503	-0.011143926
2	0x3d2bc556	0.04193624
3	0x3d5fb4e2	0.054615863
4	0xbd58a8bf	-0.052895304
5	0x3e259124	0.16168648
6	0xbe50bcee	-0.20384571
7	0x3deff34e	0.117163286
8	0xbe35cbdf	-0.17753552
9	0xbda931ab	-0.082614265

layers.2.running_var f4 [10]
0	0x3f2fa9f0	0.6861868
1	0x3f343dee	0.70407
2	0x3f3c9308	0.7366185
3	0x3f27ff08	0.6562352
4	0x3f2f90bb	0.68580216
5	0x3f390671	0.72275454
6	0x3f17c4d3	0.59284705
7	0x3f3b33b7	0.73125786
8	0x3f36fe89	0.7148214
9	0x3f29de3c	0.6635473

layers.4.weight f4 [5, 10]
0	0x3e290e02	0.1650925
1	0xbc16b7b6	-0.009199074
2	0xbdd6f111	-0.104951985
3	0x3e43c24f	0.19117092
4	0xbe30f2d5	-0.17280133
5	0x3c8d04f0	0.017214268
6	0x3e0cc2e1	0.13746215
7	0x3e45c359	0.193128
8	0xbe8251a0	-0.254529
9	0xbe7f059b	-0.24904482
10	0xbe1618de	-0.14657924
11	0x3e369941	0.17831899
12	0xbe0b4eb3	-0.1360424
13	0x3c9578f0	0.018246144
14	0xbdd8dcc3	-0.10588982
15	0x3e205eeb	0.15661208
16	0xbd558fc8	-0.052139074
17	0x3d420aab	0.047373455
18	0xbcaa9910	-0.020824939
19	0x39dbbf94	0.00041913672
20	0xbe55de4a	-0.20885578
21	0xbd2125c3	-0.039342653
22	0xbe234908	-0.15945828
23	0x3e481e15	0.19542725
24	0x3e9f2901	0.3108597
25	0xbe313105	-0.17303856
26	0x3d61bd7d	0.05511235
27	0xbd8f38be	-0.069932446
28	0x3c72f436	0.014828732
29	0x3ccf4bc0	0.025304675
30	0x3e7b6f68	0.24554217
31	0xbe7c86cb	-0.24660794
32	0xbe904bda	-0.2818287
33	0x3e4ef41e	0.20210311
34	0x3df3c0a7	0.1190198
35	0xbdbe0ae7	-0.09279423
36	0x3e8c1416	0.27359074
37	0xbc9ab824	-0.018886633
38	0xbe8f1978	-0.2794912
39	0x3e627eaa	0.22118631
40	0xbd6dcd1e	-0.058056943
41	0xbe698f3e	-0.22808549
42	0xbe1174b3	-0.14204673
43	0xbc6c03a3	-0.014405164
44	0xbdaf0ccc	-0.08547363
45	0x3d3647cf	0.044502076
46	0x3d4e9997	0.050439443
47	0x3d3fca53	0.04682381
48	0xbdb0c037	-0.08630412
49	0xbe8084c0	-0.2510128

layers.4.bias f4 [5]
0	0x3e8ea810	0.27862597
1	0x3e9550f9	0.2916334
2	0x3e733744	0.23751551
3	0xbc051e56	-0.008124908
4	0x3e00f587	0.12593661

layers.5.weight f4 [5]
0	0x3f7fd896	0.9993986
1	0x3f7f57b0	0.99743176
2	0x3f7f82f9	0.99809223
3	0x3f7fdef6	0.99949586
4	0x3f801b0c	1.0008254

layers.5.bias f4 [5]
0	0x3b44a2df	0.0030004305
1	0xbb4457f5	-0.0029959653
2	0xbb425a06	-0.002965571
3	0x3b44995c	0.0029998636
4	0x3b444252	0.0029946757

layers.5.running_mean f4 [5]
0	0x3df99176	0.121859476
1	0x3dfbd98c	0.12297353
2	0x3dd628ed	0.10457025
3	0x3d14a79b	0.036292654
4	0xbd3b2062	-0.04568518

layers.5.running_var f4 [5]
0	0x3f1448d2	0.57923615
1	0x3f0da3e6	0.55328214
2	0x3f0d75ae	0.5525769
3	0x3f12dcd0	0.57368183
4	0x3f0eee0e	0.5583199

layers.7.weight f4 [5]
0	0x3f80615e	1.0029714
1	0x3f7f39bc	0.9969747
2	0x3f7f3afd	0.99699384
3	0x3f806159	1.0029708
4	0x3f806159	1.0029708

layers.7.bias f4 [5]
0	0x3b44b40c	0.0030014543
1	0xbb443d47	-0.002994375
2	0xbb42c8d8	-0.0029721763
3	0x3b44ad10	0.003001038
4	0x3b44a14a	0.0030003362

layers.7.running_mean f4 [5]
0	0x3e0e91d2	0.13922814
1	0x3e0c0c63	0.136766
2	0x3e30c7f7	0.1726378
3	0x3e20de5f	0.15709828
4	0x3e0c8273	0.13721637

layers.7.running_var f4 [5]
0	0x3f42e8ce	0.7613648
1	0x3f407187	0.7517323
2	0x3f4839e5	0.7821334
3	0x3f259268	0.64676523
4	0x3f116957	0.5680136

layers.8.rho f4 [5]
0	0x3fc0f14d	1.5073639
1	0x3ff66f7f	1.9252776
2	0x3fb5eba6	1.4212539
3	0x3fda205f	1.7041129
4	0x3fb9db9d	1.4520146

layers.8.gam f4 [5]
0	0x3fec54f3	1.8463424
1	0x3f8cbed1	1.0995733
2	0x3fa494a3	1.285786
3	0x3fcf7b05	1.6209418
4	0x3fda279d	1.7043339

layers.9.weight f4 [3, 5]
0	0x3eb34060	0.35010052
1	0xbe801e20	-0.25022984
2	0xbbd35d1e	-0.0064503094
3	0x3ebfef5f	0.37487313
4	0x3ebfc3eb	0.3745416
5	0x3bca4f77	0.0061740237
6	0xbde0348f	-0.10947525
7	0xbe066dd9	-0.13127841
8	0x3e8bdf5f	0.27318856
9	0xbccbb96c	-0.02486869
10	0xbd112ea3	-0.035444867
11	0x3dd2f622	0.10300852
12	0xbe2cc3a7	-0.1687151
13	0xbe362816	-0.17788729
14	0x3ec197d1	0.3781114

layers.9.bias f4 [3]
0	0x3e2d707e	0.16937444
1	0xbb6b35f8	-0.0035890322
2	0xbede1e38	-0.4338243

exp_avg f4 [5]
0	0xba187278	-0.0005815397
1	0x3a281e70	0.0006413227
2	0x3948ef58	0.00019162649
3	0xba58c030	-0.0008268384
4	0x3a179f39	0.0005783919

exp_avg_sq f4 [5]
0	0x326ecf1a	1.3900513e-08
1	0x329139d6	1.6906522e-08
2	0x30dad27c	1.5921411e-09
3	0x32f0747a	2.7992645e-08
4	0x32692f42	1.357313e-08

exp_avg f4 [5]
0	0x2d8872b0	1.5512341e-11
1	0xaf2da9fc	-1.5794649e-10
2	0xae84a3d8	-6.0317695e-11
3	0xadd78d52	-2.4505429e-11
4	0xae61d2f2	-5.1346434e-11

exp_avg_sq f4 [5]
0	0x1b2dface	1.4391264e-22
1	0x1cb0b698	1.1693902e-21
2	0x1c41219d	6.3901787e-22
3	0x1c2810ea	5.56084e-22
4	0x1b776f83	2.0467393e-22

exp_avg f4 [10, 5]
0	0x3abd2d54	0.0014433064
1	0xba075be5	-0.00051635347
2	0x3ad36d93	0.0016130678
3	0x3a846993	0.0010102264
4	0x3a2cd715	0.0006593329
5	0xba2113a9	-0.0006144592
6	0x391ff914	0.0001525621
7	0x38dd1a61	0.00010543015
8	0x3a45797e	0.00075330574
9	0xb9af1828	-0.000333966
10	0x39171e96	0.00014411876
11	0x3a2b3060	0.0006530341
12	0xb85b81dc	-5.233461e-05
13	0xba393764	-0.0007065444
14	0x3a8af15b	0.0010600494
15	0x38a455e0	7.836125e-05
16	0xba522354	-0.00080161286
17	0x39d93498	0.0004142865
18	0x3a189218	0.00058201095
19	0xb93da365	-0.00018085314
20	0x399e7aa2	0.00030227477
21	0x3a8695fe	0.001026809
22	0x39816931	0.0002468317
23	0xba29754d	-0.00064643176
24	0x39f209a4	0.0004616502
25	0xb991c827	-0.0002780568
26	0x389a797c	7.3659205e-05
27	0x39c29094	0.00037110283
28	0x3992324f	0.00027884773
29	0xb9deed60	-0.00042519998
30	0x3928dfab	0.00016105051
31	0x3aabef21	0.0013117531
32	0x3882d03b	6.237669e-05
33	0x3b12b509	0.0022385737
34	0x3add59b5	0.0016887697
35	0xb9e19ab4	-0.00043030607
36	0x38c4d2c2	9.385265e-05
37	0xb948ae56	-0.00019138432
38	0xb9ce7804	-0.000393808
39	0xb9e944b4	-0.0004449241
40	0xb957eebe	-0.00020592936
41	0xb9bacd74	-0.0003562976
42	0xb8925cc6	-6.979103e-05
43	0xba61715c	-0.0008599961
44	0xbaaafbc0	-0.0013044998
45	0xb8981e5b	-7.253579e-05
46	0xb9da1a6e	-0.00041599892
47	0xb92b52d8	-0.00016338693
48	0x391c02c2	0.00014878347
49	0x3a3481ad	0.0006885778

exp_avg_sq f4 [10, 5]
0	0x33b65028	8.489616e-08
1	0x323a1a4c	1.0832604e-08
2	0x33e48336	1.06409445e-07
3	0x33330ccb	4.168832e-08
4	0x329fa990	1.8587144e-08
5	0x328a306e	1.6087338e-08
6	0x309ce35f	1.1415117e-09
7	0x30349b19	6.5704026e-10
8	0x32c89d2a	2.3354534e-08
9	0x319d9138	4.585811e-09
10	0x306bf91c	8.584651e-10
11	0x32976e7f	1.7628961e-08
12	0x2ef5bdfc	1.1175058e-10
13	0x32b125e0	2.0622736e-08
14	0x33470080	4.6333753e-08
15	0x2fbd941d	3.448414e-10
16	0x32e0c024	2.6164408e-08
17	0x31f0f436	7.012683e-09
18	0x3271e4b8	1.4080051e-08
19	0x30c7a9ce	1.4527417e-09
20	0x3184695f	3.853685e-09
21	0x333b0e99	4.3552607e-08
22	0x3135994f	2.6426112e-09
23	0x329663cc	1.750768e-08
24	0x321cb0da	9.1206065e-09
25	0x316155e4	3.2790632e-09
26	0x2f72e6dd	2.2091791e-10
27	0x31c6b570	5.7831855e-09
28	0x3165b63f	3.342748e-09
29	0x3200d369	7.49865e-09
30	0x309bb13d	1.1328108e-09
31	0x339eed28	7.400587e-08
32	0x2f384b4e	1.6761456e-10
33	0x345b5b3d	2.0429157e-07
34	0x340c3e76	1.3061239e-07
35	0x320173c0	7.535107e-09
36	0x2fc6599a	3.6079656e-10
37	0x30d1af8b	1.5256644e-09
38	0x31d93c5d	6.3223937e-09
39	0x320b3155	8.102082e-09
40	0x30ed4095	1.7262375e-09
41	0x31b19576	5.1683697e-09
42	0x2f5c2df6	2.0025212e-10
43	0x33018a75	3.016108e-08
44	0x3394e164	6.9327854e-08
45	0x2feee9be	4.3458032e-10
46	0x31f1d370	7.038061e-09
47	0x309d29b0	1.1435102e-09
48	0x31429387	2.8314575e-09
49	0x32bdf0b6	2.2111958e-08

exp_avg f4 [10]
0	0x2dfae144	2.8521747e-11
1	0x2d07ae14	7.712515e-12
2	0xae045a1d	-3.0093362e-11
3	0xae7df3b6	-5.7742e-11
4	0xae5fdf3c	-5.09026e-11
5	0x2e7c0831	5.730544e-11
6	0xae7ae148	-5.704351e-11
7	0xae17a5e4	-3.4480765e-11
8	0x2d50e560	1.1874363e-11
9	0x2e84fdf5	6.047777e-11

exp_avg_sq f4 [10]
0	0x1ce11a9b	1.4896128e-21
1	0x1a9d851a	6.5148715e-23
2	0x1b4953aa	1.6653364e-22
3	0x1c1b5960	5.140071e-22
4	0x1b6a537c	1.9383002e-22
5	0x1b8b6021	2.3057743e-22
6	0x1c145521	4.907912e-22
7	0x1ab13009	7.328309e-23
8	0x1b955ac4	2.4708638e-22
9	0x1d111167	1.9199587e-21

exp_avg f4 [10]
0	0x393b2b46	0.0001784983
1	0xbaa4e821	-0.0012581387
2	0xb937a758	-0.0001751458
3	0x39c7b211	0.00038088908
4	0x39e0bb13	0.0004286399
5	0x3a02d86f	0.00049913576
6	0xb95ef4fa	-0.0002126283
7	0x39cf781a	0.000395716
8	0xb6da3d68	-6.504055e-06
9	0xb968fcd8	-0.00022219436

exp_avg_sq f4 [10]
0	0x30b2f28d	1.3020142e-09
1	0x338c2752	6.52641e-08
2	0x30ad1826	1.259427e-09
3	0x31cc6dc9	5.9496625e-09
4	0x3201109c	7.512565e-09
5	0x3233d542	1.04676605e-08
6	0x30fc92be	1.837712e-09
7	0x31dadf79	6.370041e-09
8	0x2cbebe03	5.4212203e-12
9	0x310c5723	2.0422213e-09

exp_avg f4 [10]
0	0xba156948	-0.0005699587
1	0xb8f54066	-0.000116945055
2	0xb881efbf	-6.1958555e-05
3	0xba18a3ad	-0.00058227294
4	0x3a036225	0.0005011878
5	0x39a15a39	0.00030775534
6	0xba3faba1	-0.00073116465
7	0xb99faa83	-0.00030453884
8	0x39cba9e8	0.00038845767
9	0xba15df98	-0.0005717217

exp_avg_sq f4 [10]
0	0x32652953	1.333895e-08
1	0x30470b89	7.241217e-10
2	0x2f41d3d4	1.7628504e-10
3	0x326cf404	1.3792491e-08
4	0x3230adc6	1.028406e-08
5	0x31891846	3.9899843e-09
6	0x32bbf4b0	2.1880936e-08
7	0x31826e52	3.79604e-09
8	0x31d42dd0	6.1752203e-09
9	0x326411a8	1.3275361e-08

exp_avg f4 [5, 10]
0	0xba3be7d0	-0.00071680266
1	0xb9d2dd7f	-0.0004021935
2	0x39b35b1b	0.0003420942
3	0x39f4c553	0.00046686325
4	0x3a678693	0.0008832004
5	0x39adfcdc	0.00033185526
6	0x3a01c24c	0.0004949912
7	0x3ab3ebb7	0.0013726865
8	0x3a1d0c52	0.00059909106
9	0xb88bfcc7	-6.67512e-05
10	0xba8f85d8	-0.0010949923
11	0xbb9513b3	-0.0045494675
12	0xb9ca1256	-0.00038542104
13	0xb9702fcc	-0.0002290599
14	0xbae872c2	-0.0017734396
15	0x3b4bb076	0.003108052
16	0xba3b639b	-0.0007148326
17	0xbb5d8b1e	-0.0033804844
18	0xba3134ba	-0.0006759871
19	0x3b122336	0.002229882
20	0x37f56c9e	2.9256855e-05
21	0x3781854f	1.5440075e-05
22	0xb7ffcfc6	-3.049512e-05
23	0x391efa8a	0.00015161387
24	0xb88361be	-6.264773e-05
25	0xb6a9ff46	-5.06631e-06
26	0xb7e5efaf	-2.7410539e-05
27	0x38e00d45	0.00010683624
28	0xb81664fc	-3.5856836e-05
29	0xb7e81364	-2.7665585e-05
30	0x3a8ab1cc	0.0010581552
31	0x3a3b8aaa	0.00071541464
32	0x3a172532	0.00057657354
33	0x3abe6db1	0.001452854
34	0x3a8bf5e5	0.0010678141
35	0x3a710a8a	0.0009194991
36	0xba82fb73	-0.0009993151
37	0xb9e6a92a	-0.00043995056
38	0x3933a739	0.00017133066
39	0x3947c91a	0.00019053035
40	0x3b108fa1	0.0022058266
41	0x3aa5c9d4	0.001264865
42	0x3989fc5e	0.00026318704
43	0x3b2dca92	0.0026518446
44	0xbb501c84	-0.0031755278
45	0x3ae694be	0.0017591936
46	0xba8297a2	-0.0009963403
47	0x3bbb4943	0.0057155206
48	0xbb0383cc	-0.002006757
49	0x3a970afd	0.001152366

exp_avg_sq f4 [5, 10]
0	0x32b71939	2.1315474e-08
1	0x31e96efa	6.793809e-09
2	0x31a4c124	4.7949857e-09
3	0x32188c62	8.879484e-09
4	0x330844a4	3.1727396e-08
5	0x3199deb7	4.478206e-09
6	0x322b7e42	9.982218e-09
7	0x33a47de4	7.6597445e-08
8	0x327b042e	1.4611073e-08
9	0x2f884c16	2.4792318e-10
10	0x335277ca	4.9003383e-08
11	0x3565cf2c	8.561062e-07
12	0x31d0b3aa	6.074022e-09
13	0x31654d59	3.3367853e-09
14	0x340a38b6	1.2872883e-07
15	0x34d83957	4.0274855e-07
16	0x32b490e6	2.102065e-08
17	0x35000416	4.768966e-07
18	0x32a0fda6	1.8741797e-08
19	0x345e41f0	2.0699349e-07
20	0x2e4c0a90	4.639361e-11
21	0x2d8f3a65	1.628315e-11
22	0x2e3feb4c	4.3637358e-11
23	0x309888ee	1.1098373e-09
24	0x2f470177	1.8099465e-10
25	0x2b97cca0	1.078599e-12
26	0x2e1adcf0	3.5211778e-11
27	0x3017cd6b	5.5225396e-10
28	0x2e82b174	5.9432376e-11
29	0x2e120baa	3.3206916e-11
30	0x33449c24	4.5776815e-08
31	0x32b38606	2.089929e-08
32	0x326bc0b0	1.3722612e-08
33	0x33b90b3e	8.616779e-08
34	0x3347ef3a	4.6550873e-08
35	0x3313c0c2	3.4401417e-08
36	0x332e56b2	4.059138e-08
37	0x32070cc4	7.860937e-09
38	0x30a5b47f	1.205663e-09
39	0x30dafacf	1.5932872e-09
40	0x34550c18	1.984157e-07
41	0x338e0828	6.613874e-08
42	0x31423ab6	2.8264089e-09
43	0x349b63c2	2.8943583e-07
44	0x34dcad06	4.1104084e-07
45	0x340926d8	1.277325e-07
46	0x332ee069	4.0716632e-08
47	0x35b3d0de	1.3397328e-06
48	0x3430651a	1.6428058e-07
49	0x336a5638	5.4560786e-08

exp_avg f4 [5]
0	0x2eaae147	7.770722e-11
1	0xae0126e9	-2.9365763e-11
2	0x2d1947ae	8.712959e-12
3	0xae8dd2f3	-6.44941e-11
4	0xafa1cac1	-2.9429795e-10

exp_avg_sq f4 [5]
0	0x1c717343	7.9889183e-22
1	0x1b93cfb6	2.445334e-22
2	0x19223ce4	8.3875005e-24
3	0x1d9d8730	4.1697335e-21
4	0x1d8b1ff1	3.682602e-21

exp_avg f4 [5]
0	0x35224728	6.045325e-07
1	0x34daac09	4.0730836e-07
2	0x32aa9efe	1.9862906e-08
3	0x355d1f70	8.2374663e-07
4	0x34074694	1.2598531e-07

exp_avg_sq f4 [5]
0	0x28ccc3d4	2.2733477e-14
1	0x282811c2	9.329724e-15
2	0x23c23e99	2.1060033e-17
3	0x2945833e	4.385662e-14
4	0x27853cce	3.698084e-15

exp_avg f4 [5]
0	0xba1c9d09	-0.0005974328
1	0x39bf436a	0.00036480586
2	0x37a361e2	1.9476694e-05
3	0xba61984c	-0.0008605763
4	0xb9bfd300	-0.00036587566

exp_avg_sq f4 [5]
0	0x327a0907	1.4553968e-08
1	0x31bbbc1b	5.4638014e-09
2	0x2d8fa141	1.6328829e-11
3	0x3301ceef	3.0223358e-08
4	0x31bd70d9	5.5134532e-09

exp_avg f4 [5]
0	0xbae6ea94	-0.0017617517
1	0x3ab09532	0.0013472198
2	0x3891df1a	6.955695e-05
3	0xbb8c24e4	-0.0042768586
4	0xbb578c63	-0.0032890073

exp_avg_sq f4 [5]
0	0x3407b0e6	1.263721e-07
1	0x33a01e62	7.456107e-08
2	0x2f61119a	2.0469884e-10
3	0x35482609	7.4561154e-07
4	0x34ecc414	4.410109e-07

exp_avg f4 [5]
0	0xbae27a74	-0.0017278926
1	0x3a92dacf	0.0011204126
2	0x388b125e	6.631458e-05
3	0xbb589b9c	-0.0033051735
4	0xbb37750e	-0.0027993354

exp_avg_sq f4 [5]
0	0x3402872f	1.2156373e-07
1	0x335dd659	5.165052e-08
2	0x2f4de74f	1.8726819e-10
3	0x34eefa1a	4.4512927e-07
4	0x34ab9f19	3.196699e-07

exp_avg f4 [5]
0	0x39869922	0.00025672565
1	0xb93eeee4	-0.00018208806
2	0xb739f2d0	-1.10833935e-05
3	0x3a1a8c82	0.0005895571
4	0x3a020aee	0.0004960735

exp_avg_sq f4 [5]
0	0x31385c36	2.682794e-09
1	0x30bb4654	1.3626029e-09
2	0x2cb7000c	5.201178e-12
3	0x32735859	1.41645495e-08
4	0x322c4f8a	1.0029803e-08

exp_avg f4 [5]
0	0xb7e4cc30	-2.72748e-05
1	0x3896602d	7.1704715e-05
2	0x3602a8ee	1.946984e-06
3	0xb924bc20	-0.00015710341
4	0xb8aaa55a	-8.137031e-05

exp_avg_sq f4 [5]
0	0x2e054fd2	3.0311594e-11
1	0x2f66cfd0	2.0992208e-10
2	0x2a2ffc12	1.5630577e-13
3	0x308a53c7	1.0064632e-09
4	0x2f941ab4	2.6940017e-10

exp_avg f4 [3, 5]
0	0xbbbc4791	-0.005745836
1	0xbbd448c9	-0.006478403
2	0xbc0bf2d4	-0.008541781
3	0xbbd4976b	-0.006487777
4	0xbc03b192	-0.0080379415
5	0xbac57521	-0.0015064814
6	0xb9b447f7	-0.00034385893
7	0xb6eacfaf	-6.997921e-06
8	0xbc07e876	-0.008295169
9	0xba4b3de0	-0.00077530555
10	0x00000000	0.0
11	0x00000000	0.0
12	0x00000000	0.0
13	0x00000000	0.0
14	0x00000000	0.0

exp_avg_sq f4 [3, 5]
0	0x35b49da0	1.345692e-06
1	0x35e65890	1.716211e-06
2	0x36481614	2.9815174e-06
3	0x35e67a60	1.7171951e-06
4	0x3630c772	2.6342136e-06
5	0x33c5b095	9.2056474e-08
6	0x31a6f5b5	4.8591695e-09
7	0x2c3a190b	2.6446091e-12
8	0x363c5242	2.8062063e-06
9	0x32d13ae5	2.4357584e-08
10	0x00000000	0.0
11	0x00000000	0.0
12	0x00000000	0.0
13	0x00000000	0.0
14	0x00000000	0.0

exp_avg f4 [3]
0	0xbd8f55d9	-0.06998796
1	0xbc897ebb	-0.016784063
2	0x00000000	0.0

exp_avg_sq f4 [3]
0	0x3951ac1b	0.00019995907
1	0x37405d24	1.1465778e-05
2	0x00000000	0.0
